annealing_model.pth (torch, 5391 bytes, 4 tensors)

fc.0.weight f4 [128, 4]
-0.2531754 -0.6162456 0.52060014 -0.16766347 1.4195104 -1.0082663 0.036474038 -0.13385288
0.63388497 0.6660402 0.092371315 -0.7462633 -0.8970724 1.107239 -0.34320697 1.0475967
0.88092214 -1.4427694 -0.68304145 1.7004788 0.9127993 -0.75187594 -0.38690332 0.38822898
-1.2542833 -1.1079814 -0.7741962 -0.11557206 -0.16989425 -0.8423505 0.22805902 -1.4977053
0.6407193 -0.9511881 -0.022315953 0.23100418 -1.2991045 0.8969277 0.99264115 -0.09485542
-1.2243619 -0.67107594 -1.14334 0.8548727 0.9852473 0.2417109 0.4453273 -0.6612005
0.16392191 0.8821833 -1.6612012 -0.54606086 0.77390933 1.1093491 0.13963263 -1.3649302
-1.4567714 -0.100328945 -0.7298238 -0.62968796 2.188922 -0.084866606 -0.4782507 -0.84464073
0.8237615 0.30231166 0.15412854 1.330182 -0.8797282 0.065097764 0.30688742 -1.3394526
-0.2597622 -0.57436544 0.5331787 0.17447533 0.34636414 1.3377258 0.83967537 0.4128888
-1.2504233 0.5895127 -1.5002052 1.4239279 -1.4258387 0.70128953 -0.37182084 -0.24160157
-1.4721023 -0.31084138 0.67842835 0.5550853 0.080788694 0.78998095 1.5075595 0.08682815
0.6200429 -1.5180885 -0.94761586 0.50692284 0.39692673 -0.26643655 0.34828073 -1.0160803
0.6909967 -1.1046616 0.48109624 0.68737763 1.0892496 -1.7324693 1.2767681 0.34508687
0.66372824 1.6282556 1.3070308 -1.4754459 0.5564047 0.49356917 -0.5235125 -0.42393956
-0.06168121 -0.5612035 1.3514395 -0.40324813 -0.40239528 -0.31175166 -0.21625976 -1.5754019
1.2741377 -0.5622102 0.40519643 -2.0739229 0.55076694 -0.12808247 -0.18133377 0.52851695
0.49778125 -0.23195304 -1.2580193 0.74850136 0.12279089 -0.48128283 0.8255291 -0.80023575
0.92140585 0.65473974 -0.34214136 -0.5290779 0.08133733 1.7386557 -0.3054654 -0.71558356
0.59619623 1.5607314 -0.1138183 -1.1044534 0.45624444 -0.554329 -0.6159728 0.14349097
-0.76475114 -0.34666207 -0.4586903 -0.33556238 -0.49529433 -0.4005343 0.62717557 -0.12175409
-0.5502971 -0.75434244 0.6692365 0.21797289 -2.1799462 -0.0791767 0.33244756 0.5504544
-0.26534984 -0.7713393 -0.30675265 0.32773927 -0.055962764 0.015015399 -0.3429018 0.090820424
-1.2513069 0.6257693 -1.3486621 0.7569339 0.42847013 0.27708107 -0.6128605 1.1366386
-0.11315802 -0.29754704 -0.32380378 0.42990497 1.217744 -1.6404929 0.37856275 0.6207463
0.0152588785 0.4854951 -0.1787578 -1.0919728 -0.63579714 0.28870878 -0.35995725 -1.9003794
1.3328953 2.0390134 -0.14153826 -0.91015553 0.54404336 0.15238725 0.35682294 0.07156143
0.5716171 -1.2464169 -0.769041 1.3475937 -0.51616013 -0.97323763 0.94404453 0.3159449
1.5721622 1.2169843 1.5483167 -1.111202 0.53236896 -0.38243833 0.54027784 -0.77422893
0.09212113 -0.87897867 -0.27964413 1.0247875 0.15096001 -0.12800299 -0.11386527 0.8579411
1.9682453 0.396271 -0.49551484 0.46540487 1.4294435 0.5433082 -0.09956198 0.064776205
-1.0214939 0.017129017 1.317439 0.07585405 -1.0174996 0.42011806 -0.43314958 0.5915147
00000000: 35a0 81be 46c2 1dbf 0d46 053f f9af 2bbe
00000010: 84b2 b53f df0e 81bf cd65 153d bb10 09be
00000020: 4946 223f 9c81 2a3f 2c2d bd3d 1d0b 3fbf
00000030: 89a6 65bf 02ba 8d3f d3b8 afbe a617 863f
00000040: 1d84 613f abac b8bf cedb 2ebf 4aa9 d93f
00000050: 37ad 693f f17a 40bf 3118 c6be f3c5 c63e
00000060: 5b8c a0bf 56d2 8dbf b931 46bf 0bb1 ecbd
00000070: c2f8 2dbe 48a4 57bf 4e88 693e cfb4 bfbf
00000080: 2e06 243f 1081 73bf f2cf b6bc 5c8c 6c3e
00000090: 0e49 a6bf 0e9d 653f bb1d 7e3f 8f43 c2bd
000000a0: e4b7 9cbf a2cb 2bbf f758 92bf f0d8 5a3f
000000b0: 2b39 7c3f 1083 773e f101 e43e 7044 29bf
000000c0: 25db 273e c4d6 613f 3ea2 d4bf a5ca 0bbf
000000d0: ec1e 463f 27ff 8d3f dbfb 0e3e 08b6 aebf
000000e0: 7c77 babf 4379 cdbd bcd5 3abf 3b33 21bf
000000f0: 4c17 0c40 8bce adbd 47dd f4be 603a 58bf
00000100: 09e2 523f 98c8 9a3e dfd3 1d3e 6743 aa3f
00000110: de35 61bf fa51 853d 5920 9d3e 2f73 abbf
00000120: 8dff 84be 9d09 13bf 667e 083f a9a9 323e
00000130: a456 b13e 993a ab3f f7f4 563f 2966 d33e
00000140: df0d a0bf 4eea 163f b906 c0bf 4543 b63f
00000150: e281 b6bf b687 333f 4d5f bebe 6766 77be
00000160: d96d bcbf 9a26 9fbe 7bad 2d3f 121a 0e3f
00000170: 8b74 a53d 313c 4a3f b6f7 c03f f5d2 b13d
00000180: 22bb 1e3f b950 c2bf f496 72bf b2c5 013f
00000190: fb39 cb3e 5f6a 88be da51 b23e eb0e 82bf
000001a0: 29e5 303f 8d65 8dbf 3f52 f63e fbf7 2f3f
000001b0: 886c 8b3f 8ec1 ddbf 236d a33f 3aaf b03e
000001c0: 18ea 293f ae6a d03f c94c a73f 69db bcbf
000001d0: 8a70 0e3f 19b5 fc3e ea04 06bf 9b0e d9be
000001e0: 70a5 7cbd 08ab 0fbf f8fb ac3f 8a76 cebe
000001f0: c106 cebe ea9d 9fbe 3373 5dbe c5a6 c9bf
00000200: f216 a33f 02ed 0fbf e875 cf3e 27bb 04c0
00000210: 10ff 0c3f 0d28 03be 8faf 39be e34c 073f
00000220: 2fdd fe3e 1985 6dbe c706 a1bf c99d 3f3f
00000230: ca79 fb3d b46a f6be e055 533f 40dc 4cbf
00000240: 41e1 6b3f 069d 273f 272d afbe a671 07bf
00000250: 3094 a63d 458c de3f f665 9cbe 7c30 37bf
00000260: 51a0 183f 0cc6 c73f 9219 e9bd bb5e 8dbf
00000270: df98 e93e 81e8 0dbf 65b0 1dbf 4cef 123e
00000280: bbc6 43bf b17d b1be 74d9 eabe d5ce abbe
00000290: 3897 fdbe d512 cdbe 948e 203f 355a f9bd
000002a0: 45e0 0cbf 961c 41bf 1553 2b3f 4934 5f3e
000002b0: 3d84 0bc0 6527 a2bd 9136 aa3e 94ea 0c3f
000002c0: efdb 87be 7e76 45bf af0e 9dbe 71cd a73e
000002d0: 3639 65bd 2603 763c d390 afbe 0f00 ba3d
000002e0: d32a a0bf 6b32 203f f6a0 acbf 6cc6 413f
000002f0: 7060 db3e 92dd 8d3e 6de4 1cbf 607d 913f
00000300: 64bf e7bd 1658 98be 9cc9 a5be 811c dc3e
00000310: 09df 9b3f acfb d1bf fad2 c13e 3be9 1e3f
00000320: 6000 7a3c d092 f83e 490c 37be c4c5 8bbf
00000330: 9ac3 22bf a3d1 933e 514c b8be a23f f3bf
00000340: 509c aa3f 327f 0240 68ef 10be f4ff 68bf
00000350: 6d46 0b3f 670b 1c3e 7fb1 b63e cd8e 923d
00000360: 8055 123f 978a 9fbf dfdf 44bf f37d ac3f
00000370: 1223 04bf 1a26 79bf e7ac 713f 88c3 a13e
00000380: 9c3c c93f 24c6 9b3f 3e2f c63f de3b 8ebf
00000390: 5549 083f f5ce c3be a64f 0a3f de33 46bf
000003a0: 01aa bc3d bf04 61bf 842d 8fbe 3d2c 833f
000003b0: 4395 1a3e 3713 03be 3232 e9bd 07a2 5b3f
000003c0: 76ef fb3f 08e4 ca3e 1fb4 fdbe 8c49 ee3e
000003d0: 01f8 b63f 3f16 0b3f 27e7 cbbd 63a9 843d
000003e0: 50c0 82bf 2752 8c3c d7a1 a83f 5e59 9b3d
000003f0: 6d3d 82bf b719 d73e c8c5 ddbe 826d 173f

fc.0.bias f4 [128]
0.64464176 -0.0351439 -1.3602202 0.1979419 0.5847491 -0.2453252 0.99095964 1.4556848
-0.42179808 -1.0953736 2.389891 0.3914802 0.6359973 0.20277666 -0.2843372 -0.4451833
0.84162706 1.0193157 -0.91510993 1.2560982 -0.8651857 0.9369285 0.8035682 0.46692982
0.7367277 0.84321153 -0.26381695 0.6307911 -0.1047601 -0.5141663 -1.5945792 -2.0042245
0.56347626 0.26756716 0.37922546 -1.1053655 -0.67669725 0.5700626 -0.80856043 -0.030171372
0.20027076 -1.1754627 0.71296674 -0.552383 -0.9895358 0.3400504 0.9280948 0.22679631
-0.7860275 0.06093952 -0.7238336 0.5282305 -0.46607223 0.68533707 -0.864307 0.70321655
-0.34316206 -0.019032288 -1.8537139 -0.82622766 -1.4226304 0.38800097 -0.80908716 0.5861326
0.26640987 0.8907765 1.7731184 0.42558953 1.8067082 -0.2426916 -1.3145733 -1.5620016
0.9538253 0.7133753 -0.4334271 -0.94034845 -0.7123376 -0.6569086 1.539731 -1.0418239
-1.8945435 1.5260024 -0.47628808 -2.1211104 -1.2004926 -0.932016 -0.32878622 -0.21572655
-0.6383064 0.43313357 0.81915224 0.3790468 1.2300252 -1.6218762 0.35948193 -0.56045955
2.5215533 1.2938566 -0.39361623 0.40367442 1.790406 -0.113425285 1.1124036 -0.9704731
0.82896596 -0.29397234 -1.2285603 0.032126777 -1.2674083 1.4871619 -0.24135989 0.53739065
0.13866772 -0.16807717 -0.93817633 -1.925104 0.45882037 0.9127864 1.5105034 1.2869262
-1.6910163 -0.40849385 -0.2131278 0.45336607 0.857213 0.82319415 -1.8096416 -1.1737068
00000000: 3e07 253f 0df3 0fbd b21b aebf 48b1 4a3e
00000010: 1eb2 153f 8736 7bbe 88af 7d3f e153 ba3f
00000020: ebf5 d7be 3435 8cbf f9f3 1840 1870 c83e
00000030: b8d0 223f afa4 4f3e a594 91be 11ef e3be
00000040: df74 573f f078 823f a544 6abf d3c7 a03f
00000050: cf7c 5dbf 8cda 6f3f a5b6 4d3f 6d11 ef3e
00000060: 309a 3c3f b6dc 573f 0413 87be 877b 213f
00000070: 778c d6bd 67a0 03bf 2c1b ccbf 3745 00c0
00000080: fb3f 103f 90fe 883e d729 c23e 9e7c 8dbf
00000090: 083c 2dbf 9fef 113f d1fd 4ebf f429 f7bc
000000a0: c713 4d3e 9075 96bf fd84 363f f968 0dbf
000000b0: 3852 7dbf 161b ae3e 9f97 6d3f 4b3d 683e
000000c0: 1939 49bf b89b 793d 294d 39bf 1d3a 073f
000000d0: 05a1 eebe 4072 2f3f 3943 5dbf 0006 343f
000000e0: f0b2 afbe 9ae9 9bbc 7f46 edbf a883 53bf
000000f0: c118 b6bf 10a8 c63e 5620 4fbf c90c 163f
00000100: e066 883e ee09 643f 8bf5 e23f dfe6 d93e
00000110: 3742 e73f 2684 78be f043 a8bf abef c7bf
00000120: e52d 743f c39f 363f 28ea ddbe adba 70bf
00000130: c25b 36bf 292b 28bf e815 c53f 7c5a 85bf
00000140: 6780 f2bf 0c54 c33f 08dc f3be 46c0 07c0
00000150: bea9 99bf 9a98 6ebf ab56 a8be 6ce7 5cbe
00000160: 0c68 23bf afc3 dd3e f6b3 513f 6c12 c23e
00000170: 7771 9d3f a499 cfbf 040e b83e 477a 0fbf
00000180: 2161 2140 189d a53f 1188 c9be 6aae ce3e
00000190: 062c e53f 844b e8bd 3e63 8e3f ed70 78bf
000001a0: 1d37 543f 8b83 96be 7741 9dbf 5e97 033d
000001b0: 6f3a a2bf 525b be3f 0c27 77be 6f92 093f
000001c0: e9fe 0d3e 6c1c 2cbe 532c 70bf cf69 f6bf
000001d0: 81ea ea3e 5fac 693f 2d58 c13f ffb9 a43f
000001e0: 3973 d8bf 1b26 d1be 2d3e 5abe 991f e83e
000001f0: 5072 5b3f dabc 523f 56a2 e7bf 063c 96bf

fc.2.weight f4 [2, 128]
-0.10099586 -1.2018062 -1.1544998 -0.7862966 0.024797536 -0.17177348 0.16325775 -0.15524358
-0.0042871786 0.99814373 -0.6270771 1.831098 0.5509158 0.49656132 -0.46860257 0.23512827
1.0065145 0.9259551 1.8493369 0.79048663 -0.9054105 0.1586127 -0.06165674 -0.18037175
0.51256174 0.8129977 -0.4439041 0.61165637 1.0866648 0.013866022 0.35561737 -1.0466604
0.8952641 0.12548356 -0.08898592 0.9389305 0.09379899 -0.15124476 1.2496741 -2.2483587
-0.04201543 -1.650158 -0.60228246 -0.8902583 0.34466162 0.36171526 0.49429855 0.2921467
-0.8234914 0.6989098 0.6634801 0.68324614 0.0003520042 -0.6309294 -0.72133356 -0.2594424
0.37162656 2.1323318 1.251998 -0.0022678075 0.13455999 0.48360643 1.1915835 -0.65242356
-1.3915864 -1.2082393 2.1570976 0.058078744 1.0497643 0.7975557 0.026137011 -0.07944416
0.21193887 0.46114728 0.09633804 -0.7724637 0.22990553 0.83848923 0.054730255 1.7932048
0.5569247 -0.16866267 -0.41827244 -0.03841858 -0.9836675 -0.3060769 -0.64570105 0.26216337
0.1400499 0.7049852 -0.6670385 -0.084484644 -0.07612205 0.07473788 1.2266443 0.12780342
-1.1032319 -0.93513656 -0.56007737 -1.2916876 1.3255676 0.08703212 1.4151882 0.755201
0.05206181 0.3452688 -0.40127963 0.45487097 -1.2828443 0.84503895 -0.212008 -1.2911432
1.7463754 1.2339565 -1.3122926 -0.8430724 0.0111898305 -0.075411215 -0.05027657 -2.0332682
-1.740546 0.6294789 0.07564807 0.10405464 -0.5175777 0.1322986 0.3868793 -1.4503685
1.613608 -0.8225001 -1.3951014 -0.873502 1.3949968 -0.106597014 -1.0639074 0.414411
0.97575873 0.018159065 -0.91588575 1.1209927 -1.6571044 0.7643713 -0.34725863 -0.038611427
1.2961617 -1.323141 1.257618 0.124226384 1.056367 1.3075738 -0.2655648 0.6058888
-0.17514151 -0.60956216 0.10220908 -0.94010574 -1.1615537 -0.36411017 0.7809951 0.8382875
1.11405 -0.026064934 0.85237473 -1.5610254 0.72535926 0.31800792 -0.47579864 -0.41455138
-0.8873271 0.04623379 -0.17486985 1.3812464 0.78561735 -0.9273882 -0.61040306 0.7113268
0.7650959 1.0503478 1.1995742 1.019885 -0.08918243 -0.17479113 0.15975577 -0.30486414
-0.23990305 0.66101485 1.1982212 0.34472892 -0.18585254 0.1425944 -0.8434912 -0.014549108
0.5915969 -0.39586437 0.8375196 0.4814024 0.89698493 0.19767065 -1.3126425 -0.45834708
-0.5246366 -0.3663342 -1.5526301 0.82632244 0.56315655 -0.26482412 0.1649219 0.008172226
0.2578305 -1.2555547 1.2821603 -0.5449458 0.26359197 1.1871806 -0.032261923 -1.2301657
1.0217925 -0.47348616 -0.71226025 0.41294405 3.0180552 -0.260669 -2.092243 -0.4931698
1.0344963 -0.69609904 0.009424155 0.033721138 -0.32144985 0.05161428 -0.5460833 0.46808624
-1.0236839 1.6007751 0.7869792 0.10740435 0.693143 1.5657579 0.310118 0.6464341
0.36643118 0.6132397 0.8400096 -0.2618971 -0.7093902 -0.38668567 0.43783745 -0.5615412
-0.5731787 -0.7202972 0.20106572 0.37249878 -0.293235 -0.25742364 -0.88003975 0.40000352
00000000: ebd6 cebd c9d4 99bf a6c6 93bf bc4a 49bf
00000010: 3424 cb3c 63e5 2fbe 0a2d 273e 2cf8 1ebe
00000020: 767b 8cbb 5986 7f3f 2088 20bf 6b61 ea3f
00000030: d108 0d3f 493d fe3e adec efbe 77c5 703e
00000040: 78d5 803f 650b 6d3f 12b7 ec3f 555d 4a3f
00000050: fcc8 67bf 5e6b 223e c78b 7cbd 5fb3 38be
00000060: 3f37 033f 9e20 503f 6647 e3be 8395 1c3f
00000070: d517 8b3f 502e 633c 7b13 b63e f8f8 85bf
00000080: 0730 653f c37e 003e 403e b6bd c05d 703f
00000090: af19 c03d e8df 1abe 52f5 9f3f 1ce5 0fc0
000000a0: 5f18 2cbd 6138 d3bf 2f2f 1abf f8e7 63bf
000000b0: 7d77 b03e be32 b93e b314 fd3e 4194 953e
000000c0: 55d0 52bf c1eb 323f d5d9 293f 38e9 2e3f
000000d0: 348d b839 9784 21bf 51a9 38bf a2d5 84be
000000e0: d645 be3e 2078 0840 7841 a03f 7f9f 14bb
000000f0: 18ca 093e 439b f73e cf85 983f 3b05 27bf
00000100: 811f b2bf 96a7 9abf e30d 0a40 fae3 6d3d
00000110: ad5e 863f 9c2c 4c3f 491d d63c 9fb3 a2bd
00000120: 8106 593e 7f1b ec3e e14c c53d 2ec0 45bf
00000130: 5b6c 6b3e 3ba7 563f d52c 603d bc87 e53f
00000140: 9e92 0e3f e8b5 2cbe ce27 d6be cd5c 1dbd
00000150: a2d1 7bbf 1db6 9cbe aa4c 25bf 473a 863e
00000160: 3e69 0f3e e979 343f 09c3 2abf 4906 adbd
00000170: e1e5 9bbd 2c10 993d ae02 9d3f e6de 023e
00000180: b436 8dbf 1c65 6fbf 3b61 0fbf 0556 a5bf
00000190: 33ac a93f e53d b23d e324 b53f da54 413f
000001a0: c43e 553d 12c7 b03e 8674 cdbe d9e4 e83e
000001b0: 3e34 a4bf 7954 583f a018 59be 2e44 a5bf
000001c0: 3b89 df3f 49f2 9d3f 34f9 a7bf 98d3 57bf
000001d0: 8d55 373c 3271 9abd ceee 4dbd 1121 02c0
000001e0: 36ca debf 8725 213f 60ed 9a3d 991a d53d
000001f0: f97f 04bf 4979 073e 0b15 c63e ada5 b9bf
00000200: b58a ce3f 5e8f 52bf af92 b2bf d49d 5fbf
00000210: 418f b23f 894f dabd 1e2e 88bf ae2d d43e
00000220: 53cb 793f 52c2 943c 7d77 6abf b07c 8f3f
00000230: ff1b d4bf d6ad 433f e2cb b1be 0427 1ebd
00000240: a0e8 a53f af5c a9bf a0f9 a03f 676a fe3d
00000250: 0937 873f 945e a73f 1cf8 87be 871b 1b3f
00000260: 4c58 33be 440c 1cbf fe52 d13d c5aa 70bf
00000270: cbad 94bf a66c babe 4bef 473f 029a 563f
00000280: 3199 8e3f 2186 d5bc 3b35 5a3f aecf c7bf
00000290: 25b1 393f efd1 a23e e19b f3be 1440 d4be
000002a0: de27 63bf a55f 3d3d 1511 33be afcc b03f
000002b0: 381e 493f 5069 6dbf 6043 1cbf 8319 363f
000002c0: 53dd 433f cc71 863f a68b 993f 978b 823f
000002d0: 47a5 b6bd 72fc 32be 0497 233e 2717 9cbe
000002e0: 25a9 75be 4538 293f 505f 993f 4f80 b03e
000002f0: 2150 3ebe 4404 123e 0aef 57bf 625f 6ebc
00000300: e572 173f bcae cabe af67 563f 607a f63e
00000310: cea0 653f 2d6a 4a3e ab04 a8bf 78ac eabe
00000320: 964e 06bf 2890 bbbe 95bc c6bf de89 533f
00000330: 072b 103f 0797 87be 49e1 283e cde4 053c
00000340: 5c02 843e 04b6 a0bf d41d a43f 9181 0bbf
00000350: 87f5 863e 89f5 973f 1425 04bd 1276 9dbf
00000360: 19ca 823f c76c f2be b056 36bf 676d d33e
00000370: d127 4140 6876 85be 4fe7 05c0 c180 fcbe
00000380: 606a 843f 8c33 32bf c567 1a3c 2d1f 0a3d
00000390: 1395 a4be 7f69 533d 1dcc 0bbf 00a9 ef3e
000003a0: 1308 83bf 33e6 cc3f 7877 493f d0f6 db3d
000003b0: d271 313f c16a c83f c9c7 9e3e b57c 253f
000003c0: de9c bb3e 47fd 1c3f df0a 573f 6017 86be
000003d0: 999a 35bf aafb c5be 3b2c e03e 2ac1 0fbf
000003e0: d7bb 12bf 6665 38bf 2ce4 4d3e 29b8 be3e
000003f0: e622 96be 08cd 83be 494a 61bf 43cd cc3e

fc.2.bias f4 [2]
-0.654471 1.429366
00000000: 698b 27bf 77f5 b63f
