crossover_model.pth (torch, 5391 bytes, 4 tensors)

fc.0.weight f4 [128, 4]
000000 1b 9d a0 3d 12 83 96 be d3 1b 07 3f 62 c3 92 3e
       0.078424655 -0.29396874 0.5277683 0.2866469
000010 3f da e1 3e 9d 36 a1 3d ee 97 e1 be 33 e3 81 be
       0.4411182 0.07871745 -0.44061226 -0.25368652
000020 69 b6 26 3d 02 55 62 bd 05 ff cf 3e 4c 68 17 3f
       0.040701304 -0.05525685 0.40624252 0.5914352
000030 2f 0f df be 0a 76 fa 3e 42 d9 d0 bc c9 59 58 3f
       -0.43566272 0.48918182 -0.025494222 0.84512
000040 43 03 0c bf cb 2d 7a 3e d8 a3 0b 3f 38 8f c1 3e
       -0.54692477 0.24431531 0.5454688 0.3780458
000050 3a e7 9e 3e a4 b3 61 3e d8 8d 1a 3f cf a4 62 be
       0.31035787 0.22041184 0.60372686 -0.22133182
000060 42 49 a6 be f1 0b ac be 2c b7 0b 3f 74 99 b0 3d
       -0.32477766 -0.3360286 0.54576373 0.08623019
000070 3b de 08 be 1e 26 53 3d 76 91 18 3e 0c b7 b3 be
       -0.13366024 0.051550023 0.14899239 -0.3510059
000080 a5 d1 03 3f 31 bf 52 3e 28 f5 39 3e 45 51 df be
       0.5149177 0.20580746 0.18159926 -0.4361669
000090 50 f4 15 3e 21 51 0b bf 00 8e 0d 3f 28 dd 88 bc
       0.14643979 -0.5442067 0.552948 -0.016707018
0000a0 d5 63 96 bc 5a fd 45 be 50 f2 e4 3e 64 35 0a 3f
       -0.01835815 -0.19334927 0.4471612 0.5398772
0000b0 81 88 04 3e 7f ea 07 3e 52 3c a4 be 23 7c c0 bd
       0.12942697 0.13273047 -0.3207727 -0.09398677
0000c0 dc b6 a2 bd ad 8c 23 3e dd cc ec 3d d4 b7 9f 3e
       -0.07945034 0.15971632 0.11562512 0.31194937
0000d0 63 af cc be ff f7 37 3e 6e 0e 1c be dd 85 5c 3e
       -0.3997756 0.17965697 -0.1523988 0.2153544
0000e0 98 34 36 bd a6 ac 73 3c c2 1d bb be 8f 4a bb 3e
       -0.04448375 0.014872706 -0.3654614 0.3658032
0000f0 a1 0b 80 bd 8f a5 54 3e ab d0 9d 3e 80 0e ab be
       -0.06252218 0.2076628 0.30823264 -0.334095
000100 6f 17 0b 3d d8 08 d5 3e 88 46 b9 3e 6c 7f 8a 3d
       0.033957895 0.4160831 0.36186624 0.06762585
000110 ea 72 17 3f ee 0f b7 be 3c 9a da be 34 0b 00 3e
       0.5915972 -0.3575434 -0.42695796 0.12504274
000120 d7 dd f0 be a4 4e c7 3e fa d7 15 3e 3e 62 ea bd
       -0.4704425 0.38927186 0.1463317 -0.114445195
000130 45 01 3e 3e ad e4 24 bf 88 15 96 be c8 28 da bd
       0.18555172 -0.6441143 -0.29313302 -0.1065231
000140 00 e7 ad 3d a9 03 32 3f 0e 97 a4 be 61 7f c1 3e
       0.084913254 0.69536835 -0.32146496 0.37792495
000150 ed 4c d8 bd 20 79 05 be 13 fe bf bd 9c 34 19 bf
       -0.105615474 -0.13034487 -0.09374633 -0.598459
000160 f9 b9 b3 3d 9d 23 e5 3e 56 92 23 bd 0b a4 96 be
       0.08775706 0.44753733 -0.03993448 -0.2942203
000170 f0 26 bd 3e 1b 3c fd be bb 4e 40 3e 92 4b 4a bd
       0.3694377 -0.4945992 0.18780033 -0.049388476
000180 00 9b 48 be cb 17 dc 3e f1 57 ed 3e 03 93 33 be
       -0.19590378 0.42986903 0.46356156 -0.1753655
000190 0c 25 b9 3e d3 ac 24 be a2 ef 26 3e 08 c4 df 3e
       0.36161077 -0.16081552 0.1630235 0.43704247
0001a0 23 86 22 be c0 2f 95 3c 29 17 c7 3e 24 2c 4c be
       -0.15871482 0.018211246 0.38884857 -0.19938713
0001b0 c2 63 2e bf e4 88 8d be db 17 f1 be 8e 27 25 be
       -0.6812097 -0.27643502 -0.47088513 -0.1612837
0001c0 26 9e a7 3e a1 34 f7 3e c1 b3 be be 39 12 44 be
       0.32737845 0.4828234 -0.37246516 -0.19147576
0001d0 82 04 42 3e 41 5a 82 be 6d 25 6b 3d 27 ab 8b 3e
       0.18947032 -0.25459483 0.05740874 0.27279016
0001e0 b9 56 c9 be 7e 32 8a bc cc 28 63 bc 9c 1d 0c 3e
       -0.39323977 -0.01686978 -0.013864707 0.1368317
0001f0 e9 9f ec 3e f6 38 d6 3e 65 78 ad be fd 9d 00 3f
       0.46215752 0.41840333 -0.33880916 0.5024107
000200 68 f2 97 be d4 28 cd bd 67 7e 7d be 34 0d cb 3e
       -0.2967713 -0.10017553 -0.2475525 0.3965851
000210 a0 eb 0c 3f 51 9b 15 3e 64 c4 b3 be 04 ca fd bd
       0.55047035 0.1461003 -0.35110772 -0.12392047
000220 0b f1 30 bf 8e 9f 90 be bb 84 01 3f 20 88 b9 bd
       -0.691178 -0.2824673 0.50593156 -0.09059167
000230 9e 5c d9 bd cd 5a 5b 3e 1d 05 f9 3e 7d 31 a5 3b
       -0.106133685 0.21421356 0.48636714 0.0050413
000240 b6 f8 e0 3e 6d 4c d7 be 97 69 d3 3e 86 d5 9f 3e
       0.4393975 -0.42050496 0.41291496 0.31217593
000250 2e b3 02 bf 15 df 40 be 3e c2 97 be 62 fc 27 bf
       -0.51054657 -0.18835099 -0.29640383 -0.6561948
000260 fd d2 18 be 51 55 23 3e 43 6d ec 3e f7 18 3d bf
       -0.14924236 0.15950514 0.4617711 -0.7386622
000270 0a a9 9f 3e 52 99 09 be 3f a8 81 be e8 e0 e8 bc
       0.31183654 -0.13437393 -0.25323674 -0.028427556
000280 ed ab d1 bc c4 2e 2b be c7 63 1f 3f fb ce e8 3e
       -0.025594676 -0.16717058 0.62261623 0.45470414
000290 fa 5b a3 3e ca 0d be 3c 7b 02 e5 be e5 8e b3 be
       0.3190611 0.023199935 -0.44728455 -0.35069957
0002a0 c9 3f b6 be c0 5f 04 3e 6a 95 02 3f 0a d2 81 3f
       -0.3559554 0.1292715 0.5100924 1.0142224
0002b0 0c eb d8 3c e9 93 41 be 8a b5 69 3e ba 91 a7 be
       0.026479267 -0.1890408 0.22823158 -0.32728368
0002c0 cc cd 05 be 3c 90 7b 3e a1 79 10 bf 25 e3 b5 be
       -0.13066787 0.2456674 -0.5643559 -0.3552486
0002d0 0f 16 3c 3e ea c2 ca bc 06 7a 7e 3d 61 02 f6 be
       0.1836779 -0.024751145 0.06212809 -0.4804869
0002e0 cb 0b 09 3f ea 4a e7 be 99 5c 09 be 3e 34 91 3e
       0.5353362 -0.45174342 -0.1341423 0.2836017
0002f0 55 b1 cf be e6 e0 14 be 23 f2 f0 3e 77 09 a8 bd
       -0.4056498 -0.14538917 0.47059736 -0.0820493
000300 8d e5 7f be 7e 7e 21 bf e8 d3 0c 3f 49 a2 d0 3e
       -0.2498991 -0.63083637 0.55010843 0.40748814
000310 cf e6 95 3e ab ef 94 3e 55 98 13 bd fd 28 fc 3d
       0.29277655 0.29089102 -0.036033947 0.123125054
000320 fd 97 aa 3e c2 25 08 bf 70 ed 7b 3e e1 c1 fc 3e
       0.33319083 -0.53182614 0.24602294 0.49366668
000330 ee 5d 3d bf 39 9f 7a be 0c af f8 bb ad 24 86 bc
       -0.7397145 -0.24474801 -0.0075892266 -0.01637491
000340 df 26 c2 3e 4d 5a 83 bd b2 2b d5 be d2 8f 7d be
       0.3792028 -0.06413708 -0.416349 -0.24761894
000350 3c 81 4b 3e e9 bc e1 3d 3b 5e cf be e5 f9 a4 3e
       0.19873518 0.1102236 -0.4050158 0.32221904
000360 ff 6c 85 3d 89 2b 1a 3e 34 e1 66 3e 4c f9 23 3f
       0.0651493 0.1505567 0.22546846 0.6405227
000370 f6 8a a4 3d 5f ed bb bb e4 15 22 3e b5 ab 37 bf
       0.08034317 -0.005735084 0.15828663 -0.7174638
000380 dc d2 d5 bd ba b2 88 be 24 ca c1 3e 9f c3 09 bf
       -0.10440609 -0.26698858 0.37849534 -0.5381412
000390 e1 ae c8 be 22 70 86 3e 42 a3 20 3f fc d3 3a be
       -0.39195922 0.26257426 0.6274911 -0.18244928
0003a0 76 ab 48 be 79 9f 98 be 4b 46 92 3d 93 db 09 3f
       -0.19596657 -0.29809168 0.071423136 0.5385067
0003b0 9e f9 77 3e 36 ea a8 be 78 c5 09 3f 56 03 f5 3e
       0.24216315 -0.3299119 0.5381694 0.47854108
0003c0 55 8f 9f be f6 cc 00 3c 60 37 c1 3d b7 c9 d1 be
       -0.3116404 0.0078613665 0.0943439 -0.4097421
0003d0 ce 8f 87 3e 61 ba c9 3d 6c 30 6d 3e a9 d6 65 be
       0.26476902 0.09850002 0.23163003 -0.22445168
0003e0 3c 79 a5 be 16 6d 98 be fb d7 23 bf ca df 41 bc
       -0.32319057 -0.29770726 -0.64001435 -0.011833141
0003f0 41 ee b6 be ae 0d ad be 66 c6 0d 3e d8 91 b0 be
       -0.35728648 -0.337995 0.13845214 -0.3448627

fc.0.bias f4 [128]
000000 ca 80 ba be 46 22 e1 be d7 50 be 3e 60 c1 36 3e
       -0.36426383 -0.4397146 0.3717105 0.17847204
000010 1a c3 63 be a5 6d a4 bc 2f 60 cd be b2 45 62 be
       -0.22242394 -0.020071814 -0.40112445 -0.22096899
000020 59 4b c3 bd cf 33 5a be c9 4d 15 3e f9 5d 41 3e
       -0.09535856 -0.21308826 0.14580454 0.18883504
000030 26 f8 ab 3e 59 99 0b be 82 53 92 be 56 8e e9 be
       0.3358776 -0.13632716 -0.28579336 -0.45616406
000040 ad 39 e6 be 7f 03 96 3d 43 87 ce 3e 82 f3 ff be
       -0.44965878 0.073248856 0.40337572 -0.4999047
000050 7d 90 cb 3d ac 0f ff 3e ac e2 71 bd e9 a0 04 bf
       0.09939668 0.49816644 -0.05905406 -0.5180803
000060 f3 c9 a5 be 04 a1 db 3d 69 84 1b 3d b5 c0 18 be
       -0.32380638 0.10724071 0.037968073 -0.14917262
000070 c1 89 6d be d6 a5 e7 3d 1c 59 5a be 34 e9 09 be
       -0.2319708 0.113109276 -0.21323055 -0.13467866
000080 7a 69 e2 be 27 1b 85 3d 14 04 c9 3d b9 49 92 be
       -0.44221097 0.064993195 0.09815231 -0.2857187
000090 96 ce fe 3e 85 d5 ff be 4a fb 1d bf fd ba 5f 3e
       0.49766988 -0.4996759 -0.6171156 0.21848674
0000a0 56 76 5f 3e 4f cc dc be a1 92 90 be 04 66 10 bf
       0.21822485 -0.43124625 -0.2823687 -0.56405663
0000b0 9f b9 84 3d e8 b6 c5 bd 47 f6 c3 be 33 4d e6 3e
       0.06480717 -0.09654027 -0.38273832 0.44980773
0000c0 2f 88 05 be f3 88 68 3e 6b 15 ff 3d 0d 11 c5 3e
       -0.13040231 0.22708492 0.12455257 0.3848957
0000d0 cb 38 55 be a6 ec 94 3e fd a1 a3 be 3f 47 5c 3d
       -0.20822446 0.29086798 -0.31959525 0.053778883
0000e0 67 8a de 3d fd 49 8f 3e 1f e1 06 3f 9a ff b4 3e
       0.10866242 0.27986136 0.5268726 0.3535126
0000f0 75 b0 e4 be 74 d0 72 bd 58 f1 cb be a1 90 d6 bd
       -0.44665876 -0.059280828 -0.39832568 -0.104768045
000100 f4 fe 6b bd 9b c1 66 3e 40 07 ee 3e 02 c4 f8 bd
       -0.05761619 0.22534792 0.46489906 -0.121467605
000110 b4 2c 9b 3d 9d 35 3d 3d 85 b7 08 bd 41 86 5a be
       0.07576886 0.046193708 -0.033378143 -0.21340276
000120 2d a1 9b be 74 c2 c8 be 12 b7 4b bc c4 cf 54 3d
       -0.30396405 -0.39210856 -0.012433784 0.051955953
000130 55 6b 74 3e 06 4c f5 be 1c 7f b9 3e 21 89 7a be
       0.23869069 -0.47909564 0.3622979 -0.24466373
000140 f9 5a d1 be b2 97 32 be 4f 92 1e be d8 28 e2 3e
       -0.4088972 -0.1744068 -0.154855 0.44171786
000150 0a b0 b8 bd 37 68 9c be 55 cc 32 3f ce 86 33 3d
       -0.09017952 -0.3054826 0.69843036 0.04382973
000160 77 7a 9b be 9c 7c d8 be cc ac dc be b6 7b c2 be
       -0.3036687 -0.4228257 -0.43100584 -0.3798501
000170 65 bd f7 3d 35 4a 05 3f 07 67 af be 80 93 4b 3e
       0.12096671 0.52066356 -0.3425829 0.19880486
000180 bb 76 dd 3e 11 c9 8a 3d 55 a3 9c 3e c7 b7 bb 3e
       0.43254647 0.067766316 0.30593362 0.36663648
000190 89 55 56 3e 10 d4 52 bf 7c e9 94 3e 26 13 ea be
       0.20931067 -0.8235483 0.29084384 -0.45717734
0001a0 c2 51 14 3e 75 c5 e0 be ac 1f 05 bf f3 69 b0 3e
       0.14484313 -0.43900648 -0.5200145 0.34455833
0001b0 7e af 0a 3e b2 77 ea ba 1f 37 f8 3e 3b 34 22 3e
       0.13543507 -0.0017888455 0.48479554 0.15840237
0001c0 f8 d9 9d 3e e5 bb 33 3f c7 6f ae 3e d0 51 a1 be
       0.3083036 0.7020858 0.34069654 -0.3150773
0001d0 c7 c8 26 bf 34 06 eb 3e 24 d4 cf 3d 95 d8 46 bc
       -0.6515011 0.4590317 0.101478845 -0.012136598
0001e0 9d 0f 5b 3e a7 b4 97 be 63 9f 19 3f 11 76 7f 3e
       0.21392675 -0.29630014 0.6000883 0.24947383
0001f0 f4 c9 0a be ac ec 31 bd 94 80 0f be cd 81 da bd
       -0.13553602 -0.0434386 -0.14013892 -0.10669289

fc.2.weight f4 [2, 128]
000000 dc e8 78 be 01 6d b8 be 19 29 29 bd 95 5e c4 be
       -0.24307579 -0.36020663 -0.04129896 -0.3835341
000010 eb c6 21 3e 2e 19 87 bd bd 83 2d 3e c3 5c 97 3d
       0.15798537 -0.065965995 0.16944785 0.0739074
000020 e8 6f 13 3e 0f 5d 03 be 47 d5 7f be 42 11 57 be
       0.14398158 -0.12828468 -0.24983703 -0.21002677
000030 0c ee d3 be f3 21 e8 3c 5d 01 4c 3c f8 92 29 3d
       -0.41392553 0.0283365 0.012451497 0.041399926
000040 46 a3 0c be b1 85 2a 3e 7a 95 90 3d db 82 88 be
       -0.13734159 0.16652562 0.070597604 -0.26662335
000050 f1 d1 d0 3d 90 a1 d3 3e 74 f2 04 be f8 44 c6 bc
       0.10196293 0.413342 -0.12983114 -0.024202809
000060 dc 23 c7 be 1c 2a 4c bd a2 c2 60 3e 18 99 1f be
       -0.38894546 -0.049844846 0.21949247 -0.15585744
000070 16 91 d4 3d d1 97 f8 bd d9 c8 52 3e b1 ec 6f 3d
       0.103792354 -0.12138332 0.2058443 0.058575336
000080 c3 78 eb bc a9 a9 fa bc f4 c1 50 bd 6e 31 74 be
       -0.028744107 -0.030598478 -0.050966218 -0.23846981
000090 8d dc 5b be 45 04 66 3e 79 11 e3 bb 50 53 40 bd
       -0.21470852 0.22462566 -0.006929573 -0.046954453
0000a0 2d 85 a3 be 52 ca 0b be 82 19 5f bb 8d 04 2a 3e
       -0.31937543 -0.13651398 -0.0034042303 0.16603298
0000b0 80 df c7 3d a9 34 91 bd e9 c7 b7 bd 97 a3 fb 3d
       0.09759426 -0.07090122 -0.08973677 0.12287062
0000c0 02 4e 38 3d 12 cb 0b bf d2 3d 44 3e e4 f1 55 be
       0.04499627 -0.54606736 0.19164208 -0.20893055
0000d0 5f 5c 96 3e eb 17 26 be b5 cf a3 3d 37 94 10 3e
       0.2936735 -0.16220061 0.07998601 0.1411904
0000e0 1a be 15 3e 5d 7e 92 bb 8e 60 35 be f4 22 db 3d
       0.14623299 -0.00447063 -0.17712614 0.10700026
0000f0 fa 4b 7a 3e fb 24 fd bd b7 6c 04 bd 53 cf a0 3e
       0.24443045 -0.12360569 -0.03233024 0.31408176
000100 31 5b cd 3e 7d 51 d1 3e ca be 08 be 9f 79 b5 3e
       0.40108636 0.40882483 -0.1335403 0.35444352
000110 e9 1a 4f bd 8a fc 99 3d 7b 2a 38 be 7c 06 2a be
       -0.050562773 0.07518871 -0.17984955 -0.16604036
000120 50 17 47 3e e7 f1 77 bd ab 0e 08 be 39 5f 23 3e
       0.19442487 -0.06053343 -0.13286845 0.15954293
000130 0f 5d 9e 3e e5 e6 0a be f0 80 a8 3d 3c 24 31 be
       0.30930373 -0.13564642 0.08227718 -0.17298979
000140 bc 43 cc bd fe 90 f8 3d 67 59 94 3e f3 c0 3c bd
       -0.09973857 0.1213703 0.2897446 -0.04608245
000150 06 73 d7 bd 75 55 34 bd 8c 6b 16 be 2e e3 25 be
       -0.10519986 -0.04402681 -0.14689463 -0.16199943
000160 d1 e3 40 be c6 76 8e 3d 8f fd d4 3d 8e 29 0e 3e
       -0.18836905 0.06956248 0.10399925 0.1388304
000170 2c c2 f8 3e b1 51 dc 3e 58 27 25 bd f8 da 0e 3e
       0.4858564 0.43031076 -0.040320724 0.13950717
000180 40 56 03 bd 42 21 79 3e 08 d1 cf bc 41 c2 13 3d
       -0.032064676 0.24329093 -0.025368229 0.036073927
000190 0f d4 fd be 60 a9 dd 3e bf 28 ed bd 30 f3 a1 3c
       -0.4957585 0.43293285 -0.11580037 0.019769281
0001a0 c8 aa 19 3d d2 fc e7 3b 9a 87 f2 bd ea 25 31 3e
       0.037516385 0.007079699 -0.1184227 0.1729962
0001b0 a3 8c 18 bd 6b aa 7c 3e 3d 87 13 3f 42 57 09 3d
       -0.037243497 0.24674384 0.5762823 0.03353048
0001c0 83 fd 07 3e 31 e3 18 3e a6 7e 3e 3e 0a 83 cd bc
       0.13280301 0.14930417 0.18603 -0.025086898
0001d0 00 00 5e be 69 2d 1e bd 07 f5 5f be a1 c6 b1 bd
       -0.21679688 -0.038617525 -0.21870814 -0.086804636
0001e0 fb fd c8 be 8a 13 ff ba c4 30 41 3d d7 99 26 3e
       -0.39256272 -0.0019460779 0.047165647 0.16269623
0001f0 d7 40 d7 be 11 c6 5f be 1c 6d 17 3e 1a 13 c3 bd
       -0.42041656 -0.218529 0.14787716 -0.09525128
000200 33 32 9a 3e 8b d4 c3 bd 1f 31 1e 3d cf 10 e1 3e
       0.30116424 -0.09562024 0.038621064 0.43958136
000210 a5 01 fc 3d 52 9f bd 3d 60 65 7d 3e e0 4b 58 bd
       0.12305001 0.092589036 0.24745703 -0.052806735
000220 ff 94 9e be 2d 71 fc bd 69 fa 41 3e 13 ef 8c be
       -0.3097305 -0.12326274 0.1894318 -0.2752615
000230 39 31 f8 3e 7f 68 6e 3d 99 d0 92 3e 0f ab 10 3e
       0.48475054 0.058205124 0.28674772 0.14127754
000240 b5 06 b7 be 72 73 a5 bd cf b7 a1 bd d1 39 72 3d
       -0.35747305 -0.0807866 -0.07896387 0.05913717
000250 0e 52 a7 3e c5 4b e2 bd b6 43 ce bd 84 1a 2f 3d
       0.3267979 -0.11049608 -0.100715086 0.042749897
000260 30 4e 54 be 09 85 ff 3c 50 bb 9f 3b 0e e7 bf 3e
       -0.20732951 0.031191366 0.0048746243 0.37480968
000270 be d4 5c 3e e3 1c 35 3e 8f 3b 9d 3e f4 24 84 3d
       0.2156553 0.176868 0.30709502 0.06452361
000280 3f 2b a0 3d 80 bf d0 bd 51 9c a4 bd e6 c7 41 bc
       0.078207485 -0.10192776 -0.080376275 -0.011827445
000290 0a d2 fa 3d b9 0c 82 bb 3c e1 72 3e 8a 67 d6 bd
       0.12247093 -0.003968802 0.23718733 -0.10468967
0002a0 2d f8 da 3c ca 9e de 3d 18 ae 7a 3e 64 3d 50 3e
       0.026729668 0.1087013 0.24480474 0.20335919
0002b0 21 62 03 3d 63 ce 34 3e 91 eb be 3e 17 68 f9 3c
       0.032076005 0.17656855 0.37289098 0.030445142
0002c0 15 8c 8d 3d 95 b9 a5 bd e6 83 e8 3e 83 72 5c be
       0.06911484 -0.080920376 0.4541313 -0.21528058
0002d0 58 e6 18 bd 9b 4d 38 3d 80 65 7a 3e f2 8e 7f 3d
       -0.037329048 0.044995885 0.24452782 0.062392183
0002e0 9f 76 5c 3d 1c 36 9b 3e 96 e1 96 bb 57 e8 5e 3e
       0.053824063 0.3031472 -0.0046045287 0.21768318
0002f0 6a 97 f0 3d 85 16 d4 3d 90 04 42 3e 06 62 8c 3e
       0.1174763 0.10355858 0.18947053 0.27418536
000300 7a 20 8e bc 0f b4 73 be 6b bb ea 3c 4c 8e 10 3e
       -0.01734947 -0.23799156 0.028653821 0.14116782
000310 d3 29 4a 3e 46 09 18 be 76 7a c8 3d 94 03 bc 3c
       0.19742517 -0.14847288 0.097889826 0.022950925
000320 f2 f3 cf bd 75 5a 1c be e4 81 89 be d0 3a 86 be
       -0.10153951 -0.15268882 -0.2685691 -0.26216745
000330 69 12 23 be 7b a9 8d be 55 47 6c 3e 9a 73 0f 3e
       -0.15924992 -0.27668366 0.23074086 0.14008942
000340 ad 69 bd be b4 ea 4c bd ad 74 d8 3e 08 63 ec be
       -0.36994687 -0.050028518 0.42276517 -0.46169305
000350 4b c0 e8 3c 85 66 07 bb d7 16 89 3e 02 e1 3f 3e
       0.028412005 -0.0020660472 0.26775238 0.18738177
000360 f6 45 84 3e e0 7e 0e 3c 79 15 15 3e 52 ac 46 bd
       0.25834626 0.008697242 0.14558972 -0.04850418
000370 82 dc 31 3d 62 72 d9 bc c3 99 2a be 47 44 b1 be
       0.043423183 -0.0265438 -0.16660218 -0.34622404
000380 2b 99 31 be 9f 05 2e be 20 72 cc be 24 1e 54 3e
       -0.17343585 -0.16994332 -0.3993082 0.20714623
000390 63 9e 72 3e 45 94 68 3d ca 95 a6 be 3b 23 8c bd
       0.23693232 0.056782026 -0.32536155 -0.06842657
0003a0 b1 ef 16 be 91 46 20 be 4b 96 97 3d 56 b1 ae 3d
       -0.14739873 -0.15651919 0.07401713 0.08529918
0003b0 b5 d4 77 3c b1 fc 2c be b4 76 0e be 85 65 b3 3d
       0.015126397 -0.16893269 -0.13912469 0.08759598
0003c0 d6 64 87 3d 3a 6a 24 3e 95 bb 57 be 2f 9d 7d be
       0.0661103 0.16056147 -0.2106765 -0.24766992
0003d0 2d 50 68 bd 6b 28 ef bc 9c 65 08 bd 8d 91 42 be
       -0.056717087 -0.029194077 -0.033300027 -0.19000836
0003e0 f4 21 77 3e e2 d7 5f be f8 a2 aa be c0 be 41 3d
       0.24134046 -0.21859697 -0.3332746 0.047301054
0003f0 ea 7e 25 be 50 a0 8d be bd 2d 65 3d 6b 64 99 3d
       -0.16161695 -0.2766137 0.055951823 0.07489856

fc.2.bias f4 [2]
000000 eb ac be bd 34 bf fd 3d
       -0.09310325 0.12389985
