crossover_annealing_model.pth (torch, 5391 bytes, 4 tensors)

fc.0.weight f4 [128, 4]
000000 af cb 81 bc 4b 3d 89 3f 77 15 96 bf 9b c9 20 be
       -0.015844194 1.072183 -1.17253 -0.15701906
000010 43 04 25 3e 74 28 ca 3e 40 81 2b 3f 93 2b a5 bf
       0.16114907 0.39483988 0.66994095 -1.2903923
000020 f9 f2 d9 be a5 7b d8 be 3d 65 78 bf cf 76 cc 3f
       -0.42568186 -0.42281833 -0.9702948 1.5973758
000030 b7 c0 43 c0 9b 20 31 3f c2 2c 91 3e 67 7f 95 bf
       -3.0586374 0.69190377 0.2835446 -1.1679505
000040 9e 46 b4 bd 1e c6 05 3f 82 d5 e7 3e fc 3c 6f be
       -0.08802532 0.5225543 0.4528008 -0.23363107
000050 83 12 a7 bf 13 b1 57 be 76 47 9f be 10 13 24 bf
       -1.3052524 -0.21063642 -0.31109208 -0.6409159
000060 a1 b7 02 3e cd 8a 9d 3e 81 96 88 3f 28 83 bd bf
       0.12765361 0.3076996 1.067093 -1.4805651
000070 f9 0a 7b 3f c7 4d af bf 6f d7 ae 3f 3e e0 35 3f
       0.9806362 -1.3695611 1.3659495 0.7104529
000080 94 57 aa 3f 18 38 12 bf 08 eb e6 be 16 22 0e 3d
       1.3307977 -0.5711684 -0.4510119 0.034700476
000090 19 1e 3a bf ec 6f bc 3f 97 fb e9 be 5a 11 91 3f
       -0.72702175 1.4721656 -0.4569976 1.133342
0000a0 27 d4 2d bf 3e fa 8d bf 63 31 5a bf ec d4 85 bf
       -0.67901844 -1.1091993 -0.8523161 -1.0455604
0000b0 b6 70 8a 3f a6 eb 46 3e 31 10 29 bf 1d 6a b2 3c
       1.0815647 0.1942583 -0.6604033 0.021779114
0000c0 6e d4 bd 3e a0 f9 00 3f fe 5f 00 be 45 80 8f be
       0.37076133 0.503809 -0.12536618 -0.2802755
0000d0 a4 6a 05 bf 3a bb 63 3f 52 bc 5d 3f c3 5d 95 3f
       -0.52115846 0.8895756 0.8661548 1.1669239
0000e0 c4 83 68 bf 56 eb 0e 3e 64 87 a2 bf a5 0b bb bd
       -0.9082606 0.13956961 -1.2697568 -0.091330804
0000f0 37 ff 65 3f f1 b5 7e be 80 55 42 bf 92 93 98 bf
       0.8984255 -0.24874093 -0.7591171 -1.1920035
000100 69 ca 16 c0 00 70 b6 3f 38 22 45 bd e7 0d 51 3f
       -2.3561041 1.425293 -0.048128337 0.8166184
000110 a7 9d c4 3f fd 85 8b be 06 fe e4 be a2 3b 82 3f
       1.5360612 -0.27250662 -0.44725055 1.0174448
000120 89 ce 4f bf 9d 32 e2 3f 86 f6 ca 3e 10 d4 4b 3e
       -0.8117452 1.7671696 0.39641207 0.19905114
000130 12 44 de 3e 14 24 a5 bf 07 56 e4 3d 86 71 8c bf
       0.4341131 -1.2901635 0.11149221 -1.0972145
000140 9e 3a 36 be a2 fa 92 3d 50 da 69 3f f0 20 88 bf
       -0.17795798 0.07176711 0.91348743 -1.0635052
000150 8c be a0 be cf a6 4e bf 80 55 a0 bb 02 d8 73 3f
       -0.31395376 -0.8072328 -0.004893005 0.95251477
000160 c5 86 f8 3e 63 af c7 3f ba 6e 70 be 6d f4 c0 be
       0.4854032 1.5600399 -0.23479739 -0.37686482
000170 e9 06 96 3f 42 e9 ae be 88 ad 83 be 9f 2d b6 3e
       1.1720859 -0.34162337 -0.2571833 0.3558168
000180 bb 73 fe bd f2 b7 0c bf 90 68 02 c0 1d 68 00 be
       -0.124244176 -0.5496818 -2.037632 -0.12539716
000190 6c 1e 5c 3f 7d 65 4d 3e ba 83 65 bf 7b ea 9a bf
       0.8598392 0.20058246 -0.89654124 -1.2102808
0001a0 45 79 b3 3f 97 9e 4c 3f dc f5 95 be 48 08 a5 bd
       1.4021384 0.7992949 -0.29289138 -0.0805822
0001b0 f4 2d 24 40 00 d7 ae 3f 1f bc d4 be 48 27 77 3f
       2.5653048 1.3659363 -0.41549775 0.96544313
0001c0 e5 c7 b3 bd e2 62 99 be ae 71 96 3e 0d 13 94 bf
       -0.08778361 -0.29958254 0.29383606 -1.1568314
0001d0 77 ee 2a 3f 24 2e b6 bd bb 43 0b 3e a0 52 4d 3e
       0.6677012 -0.088955194 0.13600056 0.2005105
0001e0 6d 14 6f 3f d5 ab 55 bf 09 bd 2b 3f a5 73 0e 3d
       0.9339054 -0.8346532 0.6708532 0.034778256
0001f0 19 ae 08 40 35 41 82 3f 06 1a 09 bd a3 90 00 3e
       2.135626 1.017615 -0.033472084 0.12555175
000200 06 78 b1 be 8d 85 c8 bf aa fb cb bf 13 84 16 c0
       -0.34661883 -1.5665756 -1.5936177 -2.3518112
000210 21 74 4c bf 23 2b ec be ed 73 88 bf 37 a4 5d be
       -0.798647 -0.4612666 -1.0660378 -0.21644674
000220 2a 32 c6 bf 42 66 99 3f 7d d0 68 3d bb 87 b9 3f
       -1.5484059 1.1984332 0.056839455 1.4494547
000230 b6 2a ac be 19 42 4d bf 54 1d b7 3f c6 2b b2 bf
       -0.33626336 -0.8017898 1.4305825 -1.3919609
000240 05 40 36 3f 26 4b 1d bf 11 ac 80 bf 72 a7 8a bf
       0.71191436 -0.6144279 -1.005251 -1.083235
000250 18 b8 30 3f 31 47 a3 bf 72 de 8e be 07 49 2a c0
       0.69030905 -1.2756101 -0.27904087 -2.6607072
000260 7f 1c f8 3e b4 7d 2c 3f 6b 48 08 bf a5 9b 98 bd
       0.4845924 0.6737931 -0.532355 -0.07451562
000270 c6 3b 05 bf 8c 94 5b be 5e 20 2e be 31 a5 0a 3f
       -0.5204433 -0.21443385 -0.17004535 0.5415831
000280 9f b1 ad bd 5e a3 96 bd 92 00 0c 3f f5 df 39 bf
       -0.08481144 -0.073553786 0.5468837 -0.72607356
000290 f9 d9 9f bf e9 8a d9 3e 4d 57 51 be c8 c3 13 bf
       -1.2488395 0.42488793 -0.20443459 -0.57720613
0002a0 d5 b5 62 3f 15 ae 80 bf 75 25 9e 3f f7 2c e4 bf
       0.88558704 -1.0053126 1.2355181 -1.7826222
0002b0 2c ec ca 3f 1a fd 78 bf 24 0e 13 3f 78 0b c1 3e
       1.5853324 -0.972612 0.5744345 0.37704062
0002c0 f8 ec b1 3e 4b d2 fa be 1f d7 79 3d 01 5a 6d bf
       0.34751105 -0.48988566 0.06099617 -0.9271546
0002d0 15 bd 34 3e af 2c 07 40 12 0b 96 bf c1 79 6c be
       0.17650254 2.1121023 -1.1722128 -0.2309332
0002e0 0c ae 79 bf 32 04 c1 bf f7 6e 62 3f e1 13 b7 bf
       -0.975312 -1.5079405 0.8845057 -1.4302942
0002f0 1b 66 3e 3f 4a 55 43 bf 36 37 92 bf 00 db d1 3e
       0.7437455 -0.76302016 -1.1423099 0.40987396
000300 68 90 d7 3f 94 83 5c bf 08 a7 6c 3f 66 19 4a bf
       1.6840944 -0.8613827 0.9244237 -0.78945005
000310 ec 54 83 3d 11 15 a5 bf 0e 1a b7 3d 11 89 57 bf
       0.06412682 -1.2897054 0.089405164 -0.8419352
000320 31 9d 29 bf 34 47 a7 bf 74 4c 4f bf de e1 be bd
       -0.6625548 -1.3068604 -0.80976033 -0.093204245
000330 fa 25 a5 be f0 92 08 bf 2a 0b 01 bf 76 42 54 3d
       -0.32255536 -0.5334921 -0.5040766 0.051821195
000340 65 b7 eb 3d ae cd c7 3d a3 bc 12 3e 5b 37 1a bf
       0.11509589 0.09756027 0.14329772 -0.60240716
000350 0e 93 96 bf c0 d9 b7 be 80 c3 bc be 49 33 a9 3f
       -1.1763628 -0.35908318 -0.36867905 1.3218776
000360 83 a4 1a be 8f e4 fb 3d 50 a2 b8 3e 3b ea 3a bf
       -0.15101819 0.122994535 0.36061335 -0.7301366
000370 13 74 b6 bf ab 95 00 bf ed b5 8f 3f 06 25 72 bf
       -1.4254173 -0.50228375 1.1227394 -0.94587743
000380 ef 2e a3 bf 77 72 97 bd cd 30 d4 3f 1a 7c 13 3f
       -1.2748698 -0.07394879 1.6577393 0.5761124
000390 1a a6 39 be ea e3 95 bf be b8 57 bf d8 62 11 3f
       -0.18129769 -1.1710179 -0.8426627 0.5679145
0003a0 4f 61 68 bf 62 35 a7 3f cd a1 62 3e 5c a3 be be
       -0.9077348 1.3063166 0.22132035 -0.37234008
0003b0 da e6 5b 3f b8 34 9c bf d4 7b 6d bf 16 5f 17 bf
       0.85899127 -1.2203588 -0.9276707 -0.59129465
0003c0 0b 42 9b 3e f2 66 ef 3f 35 63 90 bf 50 1e 43 3e
       0.30323824 1.8703291 -1.1280276 0.19054532
0003d0 c7 e7 91 3d f6 ff 94 3d 74 7a 2e bf f8 0c fe 3e
       0.07124286 0.07275383 -0.681556 0.4961927
0003e0 36 74 47 be 45 bf 89 3e 43 9a 9e bf dd 4f 54 3f
       -0.19477925 0.2690374 -1.2390827 0.8293436
0003f0 8f a2 9d 3e 8c dc 8d be 62 c1 d5 3e 82 de 46 bf
       0.30788085 -0.27707326 0.41749102 -0.7768327

fc.0.bias f4 [128]
000000 85 d3 0c be ae d4 78 3e 82 1d 98 3d 2c e3 c1 bf
       -0.13752563 0.24299881 0.07427503 -1.5147452
000010 75 b9 2d bf c6 73 45 3e d0 f3 05 3e e3 45 9d bf
       -0.6786111 0.19282445 0.13081288 -1.2286953
000020 40 0c 97 3e 67 11 4c 3e 64 40 41 bf 0d b3 c2 be
       0.29501534 0.19928513 -0.7548888 -0.3802723
000030 26 2a 07 3f fd db 1a bf be 76 99 3f a2 a1 69 be
       0.5279869 -0.60491925 1.1989362 -0.22815564
000040 f7 f3 c0 3e 26 70 d0 3e 9c 42 dc bf 30 0f 61 be
       0.3768613 0.40710562 -1.7207828 -0.2197845
000050 cb b2 87 bf b3 4f 0e bf 57 0b 17 3f 03 38 7f 3e
       -1.0601438 -0.5559036 0.5900168 0.2492371
000060 09 1d 0c 3f cf 87 47 bf d2 e9 5e bf 40 9a cd 3f
       0.54731804 -0.779416 -0.8707553 1.6062698
000070 5d ad 08 3f dd f2 11 3f 9b 4a 9b bf 40 41 16 3f
       0.5338953 0.57011205 -1.2132143 0.58693314
000080 69 4e 46 3f 30 7c cc bf 4b 0c 7a bf 68 0a 60 be
       0.77463394 -1.5975399 -0.9767501 -0.2187897
000090 2e 43 d6 bf 90 bd d8 be 55 9f 81 be 55 67 65 3f
       -1.6739252 -0.42332125 -0.25316873 0.896108
0000a0 a2 0d a2 bf cb 6f 6f 3f 3a 72 c7 bf d6 41 8b 3e
       -1.266041 0.9352996 -1.5581734 0.27198666
0000b0 9e c3 5b 3d 45 71 91 bd 89 50 32 3f e8 d4 12 be
       0.053653352 -0.071016826 0.69654137 -0.1433903
0000c0 4f a3 0f bf 6d 69 ee bf 6c 48 08 3f ef 08 10 3f
       -0.56108564 -1.8625923 0.53235507 0.5626363
0000d0 a9 f2 a8 bd 00 9e c9 bf 6a 77 cb be 32 4f c6 bf
       -0.08249409 -1.5751343 -0.39739543 -1.5492918
0000e0 b7 a0 3e 3f ad 6c ee bf 99 6b 35 bf 52 44 e9 be
       0.7446398 -1.8626915 -0.70867306 -0.45559937
0000f0 df a5 d7 3f 82 28 10 bd ad a7 25 be 7b 8c 37 3e
       1.6847495 -0.03519488 -0.16177244 0.17924683
000100 59 7c 3b 3f 0a dd 05 bf 5e 3c 5a 3e 80 76 6d bf
       0.73236614 -0.52290404 0.21312091 -0.9275894
000110 0f 43 b1 3e e9 19 41 be 35 62 85 be 6e 2e 9a 3f
       0.34621474 -0.1885754 -0.2605149 1.2045419
000120 7b 96 9d bf 9b 13 fb 3e f9 bc af 3e 6f fa 4d bf
       -1.2311548 0.49038395 0.34323862 -0.80460256
000130 f3 d6 96 bf ce cf 8b bf c3 6f 4f bf b9 4b d9 3e
       -1.1784347 -1.0922792 -0.8102991 0.42440584
000140 b6 7e ce bd c8 e3 13 3f 16 23 54 be e3 10 f0 bc
       -0.10082762 0.5776944 -0.20716509 -0.029304927
000150 b9 e2 49 3f a1 dd 07 40 dd 97 85 be 3d 44 af 3f
       0.78861576 2.1229022 -0.26092425 1.36927
000160 8b e4 87 3f 9c d0 0d 3f 4d 94 e6 3d b3 a4 e0 3e
       1.0616621 0.5539644 0.11258755 0.43875656
000170 28 c4 fb 3f ff a6 43 bf a5 9e 0f 3f 32 1f 98 3f
       1.9669237 -0.7642669 0.5610145 1.188452
000180 be b9 f3 3d 3d 68 f6 3e 75 39 a9 be cf 59 99 be
       0.11900662 0.48126402 -0.3305165 -0.2995133
000190 c0 40 1d c0 e6 5b 8c 3f 81 dd 89 bf a4 02 ab bf
       -2.457077 1.0965545 -1.0770723 -1.3360181
0001a0 56 74 cb 3f d8 c4 36 3f 0c f3 1a c0 be 19 eb 3e
       1.5894878 0.7139411 -2.4210844 0.45918077
0001b0 1f 85 cb be 8a c2 ea bf 88 0d 4c 3e fe c9 b7 be
       -0.3975 -1.8340619 0.19927037 -0.35896295
0001c0 60 5e 3d 3f 65 0b 49 3e 77 e9 a6 be 40 12 32 c0
       0.7397213 0.19633253 -0.32599995 -2.782364
0001d0 ef 86 e0 be 7a 64 b7 3e bb de a4 3f 54 93 c7 3e
       -0.43852946 0.35818845 1.2880472 0.3897959
0001e0 75 0c 8b bf ae 50 70 3f 57 ae 48 3f 18 de 93 3f
       -1.0863177 0.9387311 0.7839102 1.1552153
0001f0 e7 2d dd 3f 39 7d dc bf 2e 6c 27 bd 0f 2d 4a 3e
       1.7279633 -1.7225715 -0.040874653 0.19743751

fc.2.weight f4 [2, 128]
000000 36 31 14 bf df e8 84 3f 0a 35 8b bd b4 10 8e 3e
       -0.5788759 1.0383567 -0.06797226 0.27747118
000010 af 1c 0e 3f 62 df b7 bd 2b 09 9d be cc 0a d7 bf
       0.5551252 -0.08978154 -0.30671057 -1.680017
000020 2a f6 a4 be c7 cc c9 bd 1c 21 bc 3e 73 2c 93 3e
       -0.32219058 -0.09853511 0.3674401 0.2874485
000030 d5 16 94 3f 28 a2 02 bf dd 7e 3b 3d de 10 c8 3e
       1.1569468 -0.5102868 0.045775283 0.3907537
000040 14 c1 69 3e 2a 94 91 3e 23 69 c9 3f f1 f9 7e 3e
       0.2282756 0.28433353 1.573521 0.24900033
000050 25 b6 83 3e 53 6c 3b bf 2b 48 4a 3f b8 7b 8f bf
       0.25724903 -0.73212165 0.7901637 -1.1209631
000060 e4 b9 3f bf f7 18 16 3f cb 10 3b 3f 02 1e 0a bf
       -0.7489302 0.58631843 0.730725 -0.5395204
000070 d9 78 a0 be b6 ac 28 3e b0 fa 92 3f 60 ba 34 be
       -0.313422 0.16472134 1.1482754 -0.17649221
000080 9c 31 7c 3f 7d 78 79 3d ca 3f b1 3e dc e5 8a 3f
       0.985132 0.060905922 0.3461898 1.0851398
000090 a3 02 13 3e 7f 48 f0 bd 4f ea 3a bf cb 33 14 bf
       0.14356475 -0.117325775 -0.73013777 -0.5789153
0000a0 43 9a 8e bf 8f 3f a9 3e d4 fd 1f bf 65 ea 0f bf
       -1.1140827 0.33056304 -0.62496686 -0.5621703
0000b0 35 b3 b0 bd de 3f ec bf 9e 33 b0 3f d5 25 eb be
       -0.08627931 -1.8456991 1.3765752 -0.459273
0000c0 8f 4b 2b 3e d4 3b 8d bf 4d 5e 0e bf 4e 1f a2 3e
       0.16728042 -1.1033883 -0.5561264 0.3166451
0000d0 69 96 91 3e 3c ac b8 3e 1d 9c d3 3e 2a 88 c3 be
       0.28435066 0.36068904 0.41330042 -0.38189822
0000e0 6d aa e2 bf 71 82 01 40 42 c6 04 c0 05 32 aa 3e
       -1.770826 2.0235865 -2.0746007 0.33241287
0000f0 fa a4 df 3d 60 b5 4b 3f 2a 49 77 be b6 d1 a2 3b
       0.10920139 0.7957363 -0.24149004 0.004968847
000100 f8 d4 bd bf 41 46 fa 3e 28 85 a3 3c e3 2a b2 3f
       -1.4830618 0.48881724 0.019960955 1.3919338
000110 e3 4e be be 85 4f d9 3f ae 32 28 be ff e9 8b be
       -0.3716956 1.6977392 -0.16425583 -0.27326962
000120 6a 76 8a 3d 3b b8 e8 bd a5 ed 3e 3f 27 b9 cf 3d
       0.06760867 -0.11363264 0.74581367 0.10142737
000130 82 09 d1 be b8 58 af 3e dd db 9a 3e 7c 5c 04 bf
       -0.40827566 0.34247375 0.30245867 -0.5170362
000140 86 d7 d6 be 62 7f e5 3e 81 a7 51 bf 50 c5 03 bd
       -0.41961306 0.44823748 -0.81896216 -0.032170594
000150 47 e0 43 3f 17 d5 40 bf 80 ff ad be f3 5e f4 3e
       0.76514095 -0.7532515 -0.33983994 0.4772869
000160 74 b2 33 3f bb 72 bd 3f 50 4e 1d bf 86 75 74 bf
       0.7019417 1.4800638 -0.6144762 -0.95491827
000170 11 e5 bc bf 62 a5 9e 3f 8c df 30 bf 21 17 b4 3e
       -1.4757406 1.2394221 -0.69091105 0.35173896
000180 a9 04 23 be 2b 97 a6 be 68 6e 9d 3c ef 9b a6 3d
       -0.15919746 -0.32537207 0.019217685 0.08135211
000190 68 d2 b5 bf f7 2c 2e be 4b 26 4e 3e 82 96 c1 be
       -1.4204836 -0.1700934 0.20131795 -0.3781014
0001a0 4a 9d c6 bd a1 6c c6 3e 92 08 85 3e ce d1 95 be
       -0.09697969 0.38754752 0.259831 -0.2926163
0001b0 92 7a 6b bf 62 a8 bd 3e 9d 45 88 3e 34 57 d0 bd
       -0.919839 0.37042528 0.2661561 -0.10172883
0001c0 17 85 ae 3f 55 fe 05 be c9 c9 ad be 2d 92 c2 3d
       1.3634366 -0.13085301 -0.33943012 0.09500537
0001d0 24 14 7a 3e 35 d9 e0 3c ca f2 85 3f 50 91 96 be
       0.24421746 0.027447322 1.0464718 -0.2940774
0001e0 8f 4c 5b 3f 74 38 6a bf a7 ff f2 3e b5 c7 0f 3f
       0.85663694 -0.9149239 0.47460672 0.56164104
0001f0 ee f2 27 3e 7f aa 01 bf 59 7f 18 3f 32 99 57 3e
       0.16401264 -0.5065078 0.5956932 0.21054533
000200 30 31 cd 3e e0 38 58 be 91 a5 1a be 70 3d b3 3c
       0.4007659 -0.21115446 -0.15102221 0.021879882
000210 81 55 15 c0 d5 62 9b bd c6 5a 48 bf e4 1f 8e 3f
       -2.3333437 -0.0758721 -0.7826351 1.1103482
000220 85 b0 c3 bd 80 04 77 3e 98 a8 4f bf 4f 8f 69 bf
       -0.09555153 0.2412281 -0.8111663 -0.91234297
000230 f1 2a 2f 3f e7 74 76 be 2e 5f 4c bf 72 c0 a4 3e
       0.684249 -0.24068032 -0.7983273 0.32178074
000240 11 a2 72 3f 1b 6f 15 3f 88 8d af 3f 5a 05 f9 3f
       0.94778544 0.5837266 1.3715067 1.9454758
000250 e0 b1 d0 3f 02 3f 37 3f c0 72 ed bf 28 18 28 bf
       1.6304283 0.7158052 -1.8550644 -0.6566186
000260 90 fb 59 bf 4e c4 f6 be cf 60 68 bf 44 76 7b 3e
       -0.8514948 -0.48196644 -0.9077272 0.24556834
000270 d4 bf 48 3f cf 4f 0c 3f b4 7a 02 3f 45 23 e9 3f
       0.78417706 0.5480928 0.5096848 1.8213888
000280 31 05 34 3f 7f cc b0 3f 63 cf 60 3f aa d1 76 bf
       0.7032042 1.3812407 0.87816447 -0.9641367
000290 24 73 7d bf 36 4a f6 be 0e 04 3d 3d 9f 6b 05 be
       -0.99003816 -0.48103493 0.046146445 -0.13029335
0002a0 ea 7d f6 be 73 eb d2 be 7c 1d 00 3f 3b fc bb bf
       -0.4814294 -0.41195258 0.5004499 -1.468635
0002b0 be 1a fa 3e 60 fb ff 3e be bc 0d bf 03 d6 71 3f
       0.48848528 0.4999647 -0.5536612 0.9446718
0002c0 b0 c8 6b bf 51 6b d0 bf c6 e0 35 3d a8 be 23 3f
       -0.921031 -1.628275 0.044403814 0.63962793
0002d0 22 27 91 bf ba 8d 3a 3f 63 c1 81 bf 3a 86 49 3e
       -1.1340067 0.7287251 -1.0137142 0.1968011
0002e0 28 40 e2 3e 92 ab b7 3e c8 dd 5a 3f 34 bd 0a 3f
       0.44189572 0.35873085 0.8549466 0.5419495
0002f0 c2 78 14 3e d6 3e 3f bf 27 8c ab 3e bb 00 8a bf
       0.1449919 -0.74705255 0.33505365 -1.0781473
000300 8e 3f 5e 3f 58 7b 60 3f 48 dd cb bd 1a 76 33 bf
       0.86815727 0.8768821 -0.099543154 -0.70102084
000310 6f 61 60 3f a6 d2 55 bf b1 c9 f1 3d bc 1d 29 3f
       0.8764867 -0.8352455 0.11806048 0.66060996
000320 53 12 20 be 47 14 6c bf c7 45 3e 3f aa a7 fe 3e
       -0.1563199 -0.9221844 0.7432522 0.49737293
000330 2b c3 09 3e 21 4a 47 bf a6 2a 4c 3f e8 ef b5 3e
       0.13453357 -0.77847487 0.79752576 0.35534596
000340 71 01 8f 3f 9d 95 41 bf 12 a9 83 bf b6 ed f7 3d
       1.1172315 -0.75618917 -1.0285971 0.12105887
000350 61 ae 26 3f 60 5f 78 be 27 8f c2 be 05 49 32 bf
       0.6510983 -0.24255133 -0.37999842 -0.6964267
000360 72 9b 63 3e 05 5d e8 bf 5f 9d 64 3f 0e cb 49 3f
       0.22227266 -1.8153387 0.8930263 0.7882546
000370 e0 7e 71 be a4 e2 84 bf 20 dd df bf ee ec 05 3f
       -0.23583555 -1.0381665 -1.7489357 0.5231465
000380 3a 19 34 bf e3 34 40 be 0b 05 1f 3e f9 7b 95 3f
       -0.7035099 -0.18770175 0.15529267 1.1678458
000390 d2 c6 7b 3f ea af eb be 36 96 8d 3f a8 6a 46 bf
       0.9835025 -0.4603265 1.1061466 -0.77506495
0003a0 3c bc 9d be e6 6b 6d bf ae 17 1a bf 0d f1 21 be
       -0.30807674 -0.92742765 -0.6019238 -0.1581461
0003b0 30 48 cc 3e a9 e9 31 3e 01 4d 1b bf 74 d5 56 be
       0.39898825 0.1737429 -0.60664374 -0.20979863
0003c0 bc 0d 15 bf bb 3a a9 be 70 43 7b 3e b5 57 5b bf
       -0.5822408 -0.3305262 0.24537444 -0.85680705
0003d0 51 01 cb 3d e0 b7 ec be 61 21 ef be b2 75 b0 bf
       0.099123605 -0.46234035 -0.46705154 -1.3785918
0003e0 e9 64 00 bf 88 83 8d bf e5 aa 0c 3f 2e b7 79 3f
       -0.50153977 -1.1055765 0.54948264 0.97545135
0003f0 b1 3f bd 3d 02 92 d9 3e da 4a 6d bf 9a 98 3b be
       0.09240664 0.42494208 -0.9269234 -0.18319932

fc.2.bias f4 [2]
000000 74 ef 32 bf 4f 28 6c 3f
       -0.69896626 0.92249006
