dqn_best_policy.pth (torch, 171303 bytes, 20 tensors)

conv1.weight f4 [16, 3, 5, 5]
000000 65 61 81 40 ae ff 1f 40 a5 b7 89 c0 a4 d0 a2 40
       4.043139 2.4999804 -4.3036675 5.087969
000010 48 dc 92 3f b1 91 8b bf a1 21 da bf 28 9c 1c 3f
       1.1473475 -1.0903836 -1.7041513 0.61175776
000020 17 a4 4b 3d b9 f7 e4 be 06 9c 4a 40 b3 30 be bf
       0.049717035 -0.44720247 3.165773 -1.4858612
000030 76 35 87 40 2c 09 86 c0 2f ea 96 bf 70 18 02 40
       4.225276 -4.1886196 -1.1790217 2.0327415
000040 7a 57 74 c0 b6 e1 f7 bf 20 53 c0 3f b9 f3 8f 3f
       -3.8178391 -1.9365757 1.5025368 1.1246253
000050 ac 82 d5 3d bc 73 7e be a2 7f a9 3f 96 61 86 bd
       0.10425314 -0.24848837 1.3242075 -0.06561582
000060 23 e7 09 c0 90 19 b4 bf a8 f7 3d be 70 c5 a8 c0
       -2.1547325 -1.4070301 -0.18551505 -5.2741013
000070 e3 65 b2 40 cb 9b 8a 40 9f 96 bb c0 fd ce 87 bf
       5.5749373 4.3315177 -5.8621364 -1.0610043
000080 ef bb de 3c ab 18 9f 3f 61 92 0f 3d 2f a0 4d be
       0.027189223 1.2429403 0.035051707 -0.20080636
000090 48 4f d2 bf ed 99 29 40 44 29 13 c0 c6 38 2e bf
       -1.6430445 2.65002 -2.2993937 -0.6805538
0000a0 d3 cf 27 40 8b f5 8e bf 69 21 f9 be 88 d0 d1 bd
       2.6220596 -1.1168684 -0.48658302 -0.10244852
0000b0 39 04 1b bf fe 42 ea 3e ab b0 13 40 33 5c e7 3f
       -0.6055332 0.45754236 2.307658 1.8075012
0000c0 c2 8f e6 bf c2 47 12 c0 67 b9 52 c0 2e 27 29 bf
       -1.8012621 -2.2856297 -3.292566 -0.6607541
0000d0 d4 33 ba c0 3a 28 a8 40 1d 57 9f 40 a7 53 f6 c0
       -5.8188267 5.2549105 4.979384 -7.6977115
0000e0 96 1a 2a bf 8e a0 7c be 65 7e 59 3f 37 04 f0 be
       -0.66446817 -0.24670622 0.8495849 -0.46878216
0000f0 52 15 bc bf 9e 92 03 c0 65 e6 c0 3f 27 a4 df bf
       -1.4694006 -2.0558238 1.5070311 -1.747197
000100 55 b3 80 be 98 6d 40 40 4d 8c 23 be f5 ae 2d 3e
       -0.2513682 3.006689 -0.15971489 0.16961272
000110 d5 e9 89 bf d3 b8 75 bf 1c 94 18 be e7 ec 4b 40
       -1.0774485 -0.95985144 -0.14900249 3.1863344
000120 28 41 16 40 b6 08 2e c0 6d bd 23 c0 09 ae 8e 3f
       2.3477268 -2.7192817 -2.5584366 1.1146861
000130 89 68 87 3f 54 61 1f 3e cb 56 bf bf ee 96 a4 bf
       1.0578777 0.15564471 -1.4948362 -1.285856
000140 1c 39 15 c0 4f fd c1 c0 ef 35 16 c0 56 1f 15 40
       -2.3316107 -6.0621715 -2.3470418 2.3300376
000150 24 ce 41 40 a9 6b 2f 40 ad f5 e9 40 b2 19 12 40
       3.0282068 2.740946 7.3112397 2.2828183
000160 20 28 a6 3f 8f 7b 7b 40 2b 44 58 40 f9 79 e7 bf
       1.2980995 3.9294164 3.3791606 -1.8084098
000170 21 0a df be 8a f0 f0 bf 54 2d 65 c0 12 b9 49 c0
       -0.43562415 -1.8823407 -3.5808916 -3.1519208
000180 50 5a 8c bf 00 0c ce 3e 28 ec 14 40 bd 9e a3 40
       -1.0965061 0.4024353 2.3269138 5.113127
000190 6c 88 c2 bf 52 fd 68 bf e8 f1 db 3d c2 e6 fd bf
       -1.5197883 -0.91011536 0.10739499 -1.9836047
0001a0 cb 32 c7 bf e0 c4 2d c0 1a 00 f1 c0 0e 27 bc bf
       -1.5562376 -2.7151413 -7.5312624 -1.4699419
0001b0 00 fe 18 40 03 b1 f4 3f 4d 27 87 3f da 4e c1 40
       2.390503 1.911652 1.0558869 6.0408754
0001c0 48 bf bc 3f ae 64 9b 3f 6c 49 20 40 04 77 57 40
       1.4745874 1.21401 2.5044813 3.3666391
0001d0 5e 44 43 be e6 b3 b6 be 9a 7f 49 c0 41 88 87 c0
       -0.19069049 -0.35684127 -3.1484132 -4.2353826
0001e0 08 d4 46 bf 23 49 fc be ca 45 fc 3e 80 90 9d 3e
       -0.77667284 -0.4927455 0.49271995 0.30774307
0001f0 4e c2 fb 3f 92 e6 b0 bf 68 b2 b5 bf d1 85 6a 3f
       1.9668672 -1.3820364 -1.419507 0.9161044
000200 d5 d7 fc bf 89 58 2f c0 5b 45 06 c0 bb 64 d9 c0
       -1.9753367 -2.7397788 -2.0979831 -6.793546
000210 9e a1 b8 bf 73 35 ae 3f 2a 31 2d be 7b 5a 37 3f
       -1.4424322 1.3610061 -0.16913286 0.7162244
000220 89 da ab 40 19 38 60 3f b5 08 93 3f ea 16 28 40
       5.3704267 0.875856 1.1487032 2.6263986
000230 a3 28 4a 40 7f 76 3d 3f 0c 84 a3 3b 5e 17 97 c0
       3.1587303 0.74008936 0.0049901064 -4.7216024
000240 58 bc 8c c0 32 ea e8 bd e2 7c 0c bf f2 e1 88 3f
       -4.397991 -0.11372794 -0.54878056 1.0693953
000250 1f 6e 2c 3f 41 f2 f9 3e 99 ae b7 bf ec 59 a2 c0
       0.6735553 0.48817638 -1.4350158 -5.073477
000260 c8 65 2d 40 14 ae 5f bf c0 1e 9d 3f 09 72 16 bf
       2.7093372 -0.87375 1.2275009 -0.58767754
000270 7e 94 1e bf 38 fa d3 40 82 d3 85 c0 01 7d 3c bf
       -0.6194533 6.6242943 -4.182069 -0.7362824
000280 73 f9 8c 3f 53 75 20 c0 d7 9d b7 40 d2 f2 8a c0
       1.1013626 -2.507161 5.7380176 -4.342141
000290 1f 90 44 40 9d 41 a1 40 d2 f5 af c0 00 3f db bf
       3.0712965 5.0392594 -5.4987574 -1.7128601
0002a0 18 7a 2d c0 4a b9 1f 40 58 d7 44 40 37 c4 a5 c0
       -2.710577 2.4956841 3.0756435 -5.180202
0002b0 f2 63 02 40 4f f6 f0 bf d1 bb 09 40 7e ef 80 c0
       2.0373502 -1.8825167 2.1520884 -4.029235
0002c0 91 51 a9 c0 09 91 29 40 30 f8 ec 3f af 88 a4 3f
       -5.291207 2.6494772 1.8513241 1.2854213
0002d0 95 97 e9 bf 16 72 11 3e 0a 17 9c 40 1f 49 d4 bf
       -1.8249384 0.14203677 4.8778124 -1.6584815
0002e0 08 60 ad bf 37 1b 2f bf 07 bd c0 bf 8b bd 5f 40
       -1.3544931 -0.684009 -1.5057687 3.4959438
0002f0 ca 45 b9 be cd 42 4f 40 52 ee 7d 40 bc df b2 bf
       -0.36186057 3.2384522 3.967671 -1.3974528
000300 c9 2b 0a bf cf 61 d2 bf a1 bb 69 bf 64 8d 3f 40
       -0.5397306 -1.6436099 -0.91301924 2.9930048
000310 43 84 75 c0 b0 52 54 3f d3 46 27 bf 09 d4 0a 3f
       -3.8361976 0.8293867 -0.65342444 0.5422979
000320 3c 2b 94 c0 51 1a 90 c0 ac e4 03 40 60 bc 29 40
       -4.6302776 -4.5032125 2.060832 2.6521225
000330 2e bf dc 3f 4d 4b 0e c0 64 b0 03 3f da c7 66 40
       1.7245843 -2.223346 0.51441026 3.605948
000340 24 b3 6c bf 2f 79 9d bf 40 a9 c6 bf 89 5a a3 bf
       -0.92460847 -1.2302607 -1.5520401 -1.2762004
000350 6b 62 d2 3f 84 04 5e 3f 1c f2 73 40 c0 d3 60 40
       1.6436285 0.8672564 3.8116522 3.5129242
000360 e3 d5 83 be f6 e7 a9 3c 91 3c 87 bf 83 40 d2 bf
       -0.2574912 0.02074049 -1.0565358 -1.6425937
000370 ab 8e 0d 40 43 3e 14 c0 69 b9 ad 3d a8 f6 4d 3f
       2.2118328 -2.3163002 0.0848263 0.8045449
000380 f7 7e 23 3f f2 0a f7 3e 5c b3 ad bf 39 61 2e 40
       0.6386561 0.48250538 -1.3570361 2.724684
000390 3f c4 64 3f 59 a5 a4 3f b0 26 97 40 02 6c a9 c0
       0.8936195 1.286296 4.7234726 -5.2944345
0003a0 ad d7 e4 be 16 d5 d5 bf 07 03 80 c0 96 f7 d6 3f
       -0.44695798 -1.6705654 -4.0003695 1.6794307
0003b0 53 d9 10 3f f0 82 b8 40 14 67 93 40 99 30 9e 40
       0.5658161 5.7659836 4.606333 4.9434323
0003c0 bd 02 bd 3f 8b b2 76 bf ce 73 bd c0 07 68 a7 40
       1.4766461 -0.96366185 -5.9203863 5.2314487
0003d0 a4 ec f0 3e 0d f7 96 c0 fd 7c 2f 40 c8 8c 7a bf
       0.47055542 -4.7176576 2.7420037 -0.97871065
0003e0 42 51 88 bf 7e 76 87 bf 08 3e 2c 3f ca cf 6d bf
       -1.0649798 -1.0583036 0.6728215 -0.92895186
0003f0 3d e3 61 3d 3e 8e 80 bf 2d 50 f7 3e cc 9f 27 40
       0.055148352 -1.0043409 0.48303357 2.6191282

conv1.bias f4 [16]
000000 08 55 17 40 42 fb 99 40 72 80 4a 40 79 0b 8d 40
       2.364565 4.811921 3.1640897 4.4076505
000010 e2 1f d3 c0 67 3e 2e 40 78 19 c6 3d fa 0a 9f bf
       -6.597642 2.7225587 0.096728265 -1.2425225
000020 52 61 b0 3f ac 8f 14 40 a8 88 68 bf 28 23 10 bf
       1.37797 2.321269 -0.9083352 -0.56303644
000030 c9 19 c2 bf 22 ae 58 3e b3 3c 0f 40 d1 8d 68 bf
       -1.5164119 0.21160176 2.2380798 -0.90841395

bn1.weight f4 [16]
000000 db cd 21 40 5f 3a 8a 40 b9 89 9d 3f 30 dc 22 40
       2.5281894 4.3196254 1.2307655 2.5446892
000010 3b ef 72 40 59 88 2d 40 9f b2 28 40 80 18 fb 38
       3.7958515 2.711447 2.6359022 0.00011973176
000020 40 df f9 3f ce 6b 1e 40 6a d2 21 3f 9f 19 86 40
       1.9521255 2.4753299 0.6321169 4.1906276
000030 f2 39 54 40 ae 88 a5 3f 46 be cf 3f d5 23 1b 40
       3.3160367 1.2932336 1.6229942 2.424062

bn1.bias f4 [16]
000000 43 4b 93 c0 65 e2 4a 40 10 be 01 c0 ca da 04 40
       -4.602937 3.170068 -2.0272255 2.0758538
000010 17 0a 6c 40 51 fc 28 40 3d 8b 2e 40 42 83 80 bd
       3.6881158 2.6404002 2.7272484 -0.062750354
000020 11 2a 25 c0 fc 1e cb c0 37 39 5d 3f 1c 1c 34 40
       -2.5806925 -6.3475323 0.8641543 2.8142157
000030 14 bd b1 bf bb 2a 37 3f e2 7b ef 3f ab 12 6e c0
       -1.3885827 0.71549577 1.8709681 -3.7198894

bn1.running_mean f4 [16]
000000 95 0b 17 40 46 bf 9b 40 58 57 4b 40 e3 0d 8d 40
       2.360082 4.867099 3.177206 4.407945
000010 e6 7d d3 c0 f9 d1 2f 40 5f 48 9f 3d 42 1a 9f bf
       -6.6091185 2.7471907 0.077774756 -1.2429888
000020 f2 c5 ae 3f 1e 9d 13 40 04 ac 6d bf 5c 9f 0c bf
       1.3654158 2.3064647 -0.928406 -0.54930663
000030 ed 06 c4 bf f7 83 49 3e 2b bb 0e 40 5c c5 65 bf
       -1.5314614 0.19679247 2.2301738 -0.8975427

bn1.running_var f4 [16]
000000 cd ac 82 3e 9b 4c 68 3d 15 ff 1b 3f b9 98 cb 3d
       0.25522462 0.05671368 0.609361 0.09941239
000010 f6 de 4c 3d be 31 8c 3d 6b 6f 06 3e f2 0f 92 3e
       0.05001732 0.06845425 0.1312844 0.2852779
000020 b0 80 22 3f 9d 15 5b 3f cd 23 e8 3e 21 ae 83 3d
       0.6347761 0.85579854 0.45339814 0.06429697
000030 d6 27 83 3d bf 1f 50 3e 3b 11 66 3e 94 99 0b 3f
       0.064040825 0.2032461 0.2246751 0.54531217

conv2.weight f4 [32, 16, 5, 5]
000000 b1 9b 41 bf 04 f2 ac bf 44 fa 41 3f 75 c3 66 40
       -0.7562819 -1.3511357 0.757725 3.6056798
000010 76 07 dd 3f 27 69 aa 3f 28 2b 31 40 b9 a8 7c c0
       1.7267902 1.331334 2.768259 -3.947798
000020 83 34 95 40 21 b8 bc 3f 19 5e 86 3d 42 2d 98 3f
       4.66266 1.4743692 0.065609165 1.1888812
000030 e7 ca a2 c0 07 40 27 40 95 f5 87 40 9d dc a0 3f
       -5.0872684 2.613283 4.2487283 1.2567326
000040 5a b6 e0 bf 8e 49 8d 3c 6a 65 8d c0 c9 aa 9f 3f
       -1.7555649 0.017246988 -4.4186296 1.2473994
000050 42 94 83 bf 5c 8c 90 3f d9 20 8c bd 48 eb 90 3f
       -1.027962 1.1292834 -0.06842203 1.1321802
000060 20 6c 17 bf 14 44 54 3f a3 0b ad bf 9e 9c 6d c0
       -0.5914936 0.8291638 -1.3519176 -3.7126842
000070 9f 83 ae be c9 e1 9f c0 06 ed c8 40 ad 70 a3 bf
       -0.34084794 -4.9963117 6.2789335 -1.2768761
000080 8a b1 25 bf 0e 81 bb c0 b0 3f 8a 40 5b f3 45 bf
       -0.6472403 -5.8595037 4.3202744 -0.77324456
000090 2b a7 a1 3f d8 16 9d c0 c0 2e 2a c0 5a 05 33 40
       1.2629141 -4.9090385 -2.6591034 2.7972016
0000a0 17 c6 12 c0 3f 91 da 3f 41 a5 a1 40 7c fe c9 bf
       -2.2933404 1.7075576 5.0514226 -1.5780787
0000b0 12 28 dc bf 41 95 ab 3f e3 bb 2e bf 92 ce b3 3f
       -1.7199728 1.3404924 -0.6825544 1.4047415
0000c0 cf 39 0f 40 23 0a c6 3f 1e 43 2a 40 da 37 12 bb
       2.2379034 1.5471843 2.6603465 -0.0022311122
0000d0 49 3c f4 bf 67 b3 b3 3f 7c 0a 28 40 12 a6 95 40
       -1.9080898 1.4039124 2.62564 4.6765223
0000e0 c8 75 99 bf 4a e6 f6 bf ca 4c 0d 40 a1 9a 64 40
       -1.1989069 -1.9289029 2.2078118 3.5719378
0000f0 50 77 f5 3f 4e 54 d6 3f 86 8a f6 bf b6 94 12 40
       1.9177036 1.6744478 -1.9261024 2.2903266
000100 bf 78 5c 3f 9c 91 5f 3f 32 6c 96 40 54 ee a6 bf
       0.86121744 0.8733156 4.7007074 -1.3041482
000110 e8 4f df 3f 5a d2 3f c0 33 8e 63 3f cf 35 37 40
       1.744626 -2.9972138 0.88888854 2.8626592
000120 09 6a 0e c0 c4 d5 4b 40 4e 35 da c0 97 13 39 bf
       -2.2252219 3.1849222 -6.819007 -0.72295517
000130 6c 81 28 40 d0 74 83 c0 eb e0 aa bf f4 1d 65 40
       2.6328993 -4.1080093 -1.334989 3.5799532
000140 94 01 98 40 fc 9a 69 be c0 8b 52 c0 74 0a 71 bf
       4.7501926 -0.22813028 -3.2897797 -0.94156575
000150 3d f2 cf 3f 92 dd 4f bf ac 47 1a c0 11 64 f6 3d
       1.62458 -0.81197464 -2.4106245 0.12030805
000160 29 47 27 3f 63 bb 12 40 19 28 25 c0 54 d4 8e c0
       0.65342957 2.2926872 -2.5805724 -4.463419
000170 80 bf 38 3f c1 95 d5 3f 9d 8e 00 40 37 ea 2c c0
       0.72167206 1.6686326 2.0087044 -2.7017953
000180 1c ee a0 3c f7 67 04 40 97 c2 36 40 67 f5 9d 3f
       0.01964479 2.0688455 2.8556268 1.2340516
000190 b7 34 eb c0 f5 32 8d 40 0d 98 9b c0 64 4a ae 40
       -7.350185 4.4124703 -4.862311 5.446581
0001a0 e2 f2 5b 40 a3 7b a0 c0 46 1e 2c bf a7 42 89 40
       3.4366994 -5.0150924 -0.67233694 4.2893863
0001b0 e0 38 ff 3f 07 e6 da 3f 61 d9 b8 bf f3 76 87 c0
       1.9939232 1.7101449 -1.4441339 -4.23327
0001c0 32 a1 ac 40 16 1b 08 3f bf 32 d1 be 7a 41 1b c0
       5.394677 0.5316633 -0.4085903 -2.4258714
0001d0 38 2f 27 bd 00 61 fb 3d 01 47 da 3f 2e fa d0 bf
       -0.040816516 0.12274361 1.7052919 -1.6326349
0001e0 1c d1 78 c0 e7 76 94 40 b0 77 01 3f 2f 58 24 c0
       -3.887763 4.6395144 0.50573254 -2.5678823
0001f0 5e b6 49 40 89 8a 24 c0 09 35 f4 bf f6 52 85 c0
       3.1517558 -2.5709555 -1.9078685 -4.166377
000200 0a 0e c5 3f 5d 11 90 40 91 22 64 c0 4f 12 89 40
       1.5394909 4.5021195 -3.5646098 4.283485
000210 b8 dd 04 3f 48 ca ba 3d b5 79 bd bf 52 d6 29 3d
       0.51900816 0.09120613 -1.4802767 0.041464157
000220 b2 0b 9f c0 95 60 25 40 ac 13 3a be b0 a0 31 40
       -4.9701777 2.58402 -0.18171567 2.7754326
000230 91 24 2a 40 41 9c 31 3d a1 fa 36 c0 c2 c1 0a 40
       2.6584818 0.043361906 -2.8590472 2.168076
000240 f8 ea 06 40 e5 9f 30 c0 6f db 27 3f 39 73 09 3f
       2.1080914 -2.7597592 0.65569204 0.5369144
000250 7f 6a d7 bf 59 97 a2 3f 7f a1 85 3e d5 0c 13 3f
       -1.6829375 1.2702438 0.26099774 0.57441455
000260 8e 5b 2a 40 c2 64 8c c0 c0 ad 02 40 13 32 0f c1
       2.661838 -4.3872995 2.0418549 -8.949725
000270 42 63 94 40 28 d1 af c0 de 68 1c 3f bf 51 ab bf
       4.6371164 -5.494282 0.61097515 -1.3384322
000280 83 a4 bd bf a4 3b 2f 40 8e 2a 8a c0 7b db 9b bf
       -1.481583 2.7380152 -4.3176947 -1.2176355
000290 23 49 23 bf 82 ee c2 c0 f0 30 d9 bf 7a 29 54 c0
       -0.6378347 -6.0916147 -1.696806 -3.3150315
0002a0 68 4c 15 40 c1 34 59 be 88 c7 32 bf 58 7b 84 c0
       2.3327885 -0.2121153 -0.6983571 -4.1400566
0002b0 c6 02 96 3f d0 8b 86 40 e7 50 4b 40 cc 7a 77 3e
       1.1719596 4.204567 3.176813 0.24167937
0002c0 30 69 4e 3f 8d b8 57 bf 8c 70 56 bf 1d d4 17 3f
       0.80629253 -0.8426598 -0.8376548 0.59308034
0002d0 90 4e 59 3e df 93 4f 3f 71 6a 7f bf 69 e6 ba be
       0.21221375 0.8108501 -0.9977179 -0.36503914
0002e0 71 62 ed 3e 6a af ad be 3a 56 47 3f e4 db f0 be
       0.46364167 -0.33922893 0.77865946 -0.47042763
0002f0 8b 02 27 bf ee ec 4a 3e cd c1 77 bf 22 c4 23 3f
       -0.65238255 0.19816944 -0.9678009 0.6397115
000300 59 34 f7 be 1c 86 14 bf c4 cc 68 be d0 32 ff bf
       -0.48282126 -0.58017135 -0.22734362 -1.9937382
000310 32 ca ae 3e 81 0f 1c be c1 2e 4a be 55 ce 04 bf
       0.34138638 -0.1524029 -0.19744398 -0.5187734
000320 5c bf b4 be ac 38 83 3f eb 61 ae 3e 92 ce 23 40
       -0.35302246 1.025167 0.3405908 2.559483
000330 88 f3 b9 3f 7a ad 27 c0 a2 20 d7 be fd 88 44 c0
       1.4527445 -2.6199632 -0.42017084 -3.070861
000340 91 d3 bb 40 09 e0 3f 3f e0 e4 87 c0 24 33 47 bf
       5.869576 0.74951226 -4.246689 -0.7781241
000350 c1 b8 81 bf 42 48 83 40 3a c5 a2 be ca 71 91 3f
       -1.0134507 4.1025705 -0.31791097 1.1362851
000360 b2 2f 09 40 b5 d8 10 40 12 c9 16 3e ea c5 ec 3f
       2.143536 2.2632267 0.1472514 1.8497899
000370 1a b2 4b 40 18 fc dd be 6c b0 0b c0 bd 4f b1 c0
       3.1827455 -0.43356395 -2.182643 -5.5409837
000380 5e 89 27 3e cd 7d 56 40 95 bb 87 bf b9 06 9e bf
       0.16360995 3.3514283 -1.060412 -1.2345802
000390 92 a5 8d bf 2d 75 65 40 33 53 0c 40 60 3e 1e c0
       -1.1066153 3.5852768 2.192578 -2.472557
0003a0 a1 b2 c9 bf a4 82 ae 3f 9b 63 fb bf cd 88 01 40
       -1.5757638 1.3633618 -1.9639772 2.0239747
0003b0 a7 8e 39 3f fb ad 69 bf 84 09 ce bf 51 90 b7 3e
       0.72483295 -0.912811 -1.6096654 0.35852292
0003c0 3f d4 0f 40 7b ac 44 3f b8 17 dc be 9d 5a 3e 3f
       2.2473295 0.76825684 -0.42986846 0.74357015
0003d0 10 dc 93 bf b9 f4 4e 3f a6 6d 0d 3f 3d 88 c0 be
       -1.1551533 0.8084217 0.55245435 -0.37603942
0003e0 cd 1c 97 3f 14 af 6e c0 ec 72 6b 40 53 40 3d bf
       1.1805664 -3.729436 3.6788893 -0.73926276
0003f0 9e 2c 88 bf b9 72 b0 bf 6f 96 6a 3f 78 62 07 bf
       -1.0638616 -1.378501 0.91635793 -0.52884626

conv2.bias f4 [32]
000000 bc 3f 3f 3f f4 53 c2 bf 2f d9 af bf 56 b9 e2 bf
       0.74706626 -1.518187 -1.3738154 -1.771281
000010 5e 3b 19 bd d9 ca a6 3f e0 f6 a0 40 6d 0e af 3f
       -0.037410133 1.3030654 5.030136 1.3676277
000020 1a 50 83 3c 73 62 4c 40 c4 02 17 bf 49 05 a8 3e
       0.016029406 3.1935089 -0.58988595 0.32816532
000030 ec ae 23 3f bf e7 3e bf 2a 35 d5 3f 47 3f 93 be
       0.63938785 -0.74572366 1.6656849 -0.28759214
000040 c5 53 bb bf 7e a5 4d bf 34 62 a1 c0 5e 84 69 3c
       -1.463494 -0.80330646 -5.0432377 0.01425275
000050 e2 90 63 be 88 7e d7 c0 ae 1c b1 3f 2d 84 bc bf
       -0.22223237 -6.7341957 1.3836877 -1.4727837
000060 c1 0d 82 40 c9 1c 8f 40 94 1f c8 bf da 91 29 bf
       4.064179 4.472264 -1.5634637 -0.66238177
000070 58 ec 91 be 39 21 58 3e 02 66 73 bf 2a 8b 0c bf
       -0.28500628 0.21106423 -0.95077527 -0.5489985

bn2.weight f4 [32]
000000 de 6b b0 3f cb 42 79 40 98 05 a4 40 d7 8c cb 40
       1.3782918 3.8947017 5.125683 6.3609424
000010 1e e4 73 40 05 1c a9 40 a4 6a aa 40 fa c3 8d 40
       3.8107982 5.2846704 5.3255177 4.430173
000020 a0 45 a4 bb 6f 65 52 40 89 30 81 40 95 73 c6 40
       -0.0050131828 3.287441 4.0371747 6.201609
000030 50 8e c3 3f de d4 94 40 ad a9 aa 40 07 15 e5 3f
       1.5277805 4.650985 5.3332124 1.7897042
000040 2e 72 8a 40 ac 09 bc 3f a9 e6 58 40 04 e2 be bb
       4.326438 1.4690452 3.3890784 -0.005825283
000050 59 ad a0 40 0d 1b 98 40 89 f8 a6 40 e7 a9 c7 3f
       5.0211606 4.753302 5.217839 1.5598725
000060 3f 33 94 40 8b 36 a4 40 f7 bd 42 40 2b 11 91 40
       4.6312556 5.131658 3.0428445 4.5333457
000070 2a ff d4 40 7b 4e 8e 40 29 30 a1 3f c8 f2 bd 40
       6.656148 4.44708 1.2592822 5.9358864

bn2.bias f4 [32]
000000 54 c6 09 c0 41 dc e5 3f c8 2c a8 bf cb 15 26 bf
       -2.15273 1.7957841 -1.3138666 -0.64877003
000010 82 20 36 bf 0f ec ac bf 9e e4 ba bf b6 3c 14 be
       -0.71143353 -1.3509539 -1.4601018 -0.14476284
000020 7a 4e 21 bf 88 59 0a c0 39 02 5d bf da a4 7d bf
       -0.6301037 -2.1617146 -0.86331517 -0.9907967
000030 44 53 79 c0 05 ec 9a bf 3b fc b3 bf 09 f8 5b c0
       -3.8957071 -1.2103277 -1.406135 -3.4370139
000040 41 24 8b bf 63 f2 cd bf a6 4c 6a bf 17 05 c4 be
       -1.0870439 -1.6089596 -0.91523206 -0.38285133
000050 34 3f 33 bf 54 76 9b bf 7e 7a 9e bf a1 e9 71 c0
       -0.70018315 -1.2145486 -1.2381132 -3.7798846
000060 f3 0f 81 bf 15 e9 a9 bf 6c 4c 02 3f a0 c0 fd 3e
       -1.0082992 -1.3274256 0.5089786 0.49561024
000070 d7 06 af bf 06 f2 49 bf fe 48 2c c0 81 3f a9 bf
       -1.3673962 -0.78884923 -2.691955 -1.3222505

bn2.running_mean f4 [32]
000000 f0 85 aa c1 6c f6 11 c4 27 9f 93 c3 c4 6c 09 c4
       -21.3154 -583.85034 -295.24338 -549.69946
000010 fe dc a3 c2 b4 92 8e c3 b5 cc 8b c3 a4 7f be c3
       -81.931625 -285.14612 -279.59927 -380.9972
000020 5a cd f1 41 29 45 6b c3 9c a8 79 c3 6a 03 f4 c3
       30.22527 -235.27016 -249.65863 -488.02667
000030 c3 c2 6c 43 a8 f4 e9 c3 13 3b 99 c3 1c 7b 2a 42
       236.76079 -467.91138 -306.46152 42.620224
000040 82 f1 9e c3 68 e1 67 43 fb 75 a8 c3 46 e8 39 43
       -317.88678 231.8805 -336.92172 185.90732
000050 8d 86 bd c3 4f 93 82 c3 5a 9b 8a c3 c8 3b 27 42
       -379.05118 -261.15085 -277.21368 41.80838
000060 6c 96 b2 c3 ed f4 9e c3 1f f9 9b c3 2d a3 36 c4
       -357.17517 -317.91348 -311.94626 -730.5496
000070 2e 6b 0a c4 08 e0 ae c3 fa 0e 11 44 82 ac ce c3
       -553.6747 -349.75024 580.234 -413.34772

bn2.running_var f4 [32]
000000 46 21 8a 46 cd 14 62 47 03 4f be 46 f4 6b 39 47
       17680.637 57876.8 24359.506 47467.953
000010 24 47 86 46 3b 49 89 46 48 a0 a7 46 db c5 dc 46
       17187.57 17572.615 21456.14 28258.928
000020 56 51 b6 44 47 93 96 46 c2 36 a4 46 71 f8 02 47
       1458.5417 19273.639 21019.379 33528.44
000030 00 3e 62 46 84 44 0b 47 d7 f5 c6 46 5a f5 48 46
       14479.5 35652.516 25466.92 12861.338
000040 d8 e4 c2 46 c3 1e 8c 46 53 89 d1 46 fd ec 7b 45
       24946.422 17935.38 26820.662 4030.8118
000050 f4 05 09 47 45 7f 70 46 4c d6 b4 46 bd 18 42 46
       35077.953 15391.817 23147.148 12422.185
000060 dd 91 95 46 a4 cf a5 46 e8 8f e7 46 0a 7f a6 47
       19144.932 21223.82 29639.953 85246.08
000070 4e 2d 27 47 d9 77 a4 46 3b 20 14 47 6f c4 01 47
       42797.305 21051.924 37920.23 33220.434

conv3.weight f4 [32, 32, 5, 5]
000000 b0 68 c1 3e 23 bf 01 40 95 36 a0 be 00 f4 be bf
       0.37775183 2.027291 -0.31291643 -1.4918213
000010 d6 8c 21 40 10 ef 96 3f e7 db 12 40 30 38 ea 3f
       2.524221 1.1791706 2.2946718 1.8298397
000020 46 fe 8f be db 22 d9 c0 d9 06 bb bf d9 38 ae bd
       -0.28123683 -6.785505 -1.4611465 -0.085069366
000030 fe a0 77 c0 a0 8b 25 bf 97 4d bd c0 bd c3 c9 3f
       -3.8692012 -0.64666176 -5.9157214 1.576286
000040 44 5c a7 bf 95 83 84 c0 10 be c0 3f b8 e8 87 c0
       -1.3075032 -4.1410623 1.5058002 -4.247158
000050 c3 5b a7 3e a0 1a 86 c0 0a 9b 1a c0 ca 5d 31 40
       0.32687196 -4.19075 -2.4157128 2.7713494
000060 b5 0e 6a bf 6b ed 14 c0 1e 74 b8 bf 7b 41 6d c0
       -0.9142869 -2.3269908 -1.4410436 -3.7071216
000070 ca ff 47 40 8d ba c1 bf 2f a8 37 c0 fb 7a 2c 3f
       3.1249871 -1.5135056 -2.86964 0.67375153
000080 d2 f5 1e c0 bb 37 83 3f 34 84 ee bf af 42 ee 3e
       -2.4837537 1.0251383 -1.8634095 0.4653525
000090 18 c7 d7 bd 9f 3e 12 be 48 63 3d 40 1a f8 6b 3f
       -0.10536021 -0.142817 2.9591846 0.9217545
0000a0 97 cf fb 3f 16 47 52 c0 0c 78 9a 3e d4 84 49 40
       1.9672726 -3.2855887 0.30169713 3.1487322
0000b0 f4 4f e2 bf 09 3b 72 3e 45 b7 54 c0 de a8 5a 40
       -1.768065 0.23655333 -3.323686 3.4165568
0000c0 fe f1 a0 3f eb 31 12 bf 25 34 36 c0 fd 2f 91 c0
       1.257385 -0.5710742 -2.8469326 -4.537108
0000d0 6b fa db bf 48 33 e6 3e ab 49 72 40 6b c9 38 bf
       -1.7185796 0.44961 3.7857463 -0.7218234
0000e0 f3 71 8f c0 ae 7e 51 40 73 c8 87 40 6e 2f 3e c0
       -4.48266 3.273357 4.243219 -2.9716449
0000f0 34 e7 1a 3f 27 8e b9 3f 04 c0 86 bf 95 c6 02 3e
       0.6050904 1.4496506 -1.0527349 0.12771066
000100 c5 89 d7 3e a0 f1 aa 40 62 4c 4c c0 29 42 1d 3f
       0.42097297 5.3419952 -3.192162 0.6142908
000110 07 38 a1 c0 13 b7 d8 bf 12 f8 62 c0 18 6f e8 3d
       -5.0380893 -1.693087 -3.546391 0.113493145
000120 fe d2 84 40 41 54 07 40 8c c3 b8 c0 ee bd 3a c0
       4.150756 2.1145175 -5.7738705 -2.9178424
000130 ba 75 72 40 ce 79 0e 40 d5 ae 84 c0 7e 20 3a 40
       3.7884355 2.2261844 -4.146342 2.9082332
000140 c6 83 c8 c0 70 88 18 40 43 38 8d 40 37 fc 8e c0
       -6.2660856 2.3833275 4.413118 -4.468288
000150 dc b6 39 c0 ef 90 b4 3e c0 85 12 40 51 b9 1d c0
       -2.9017859 0.35266826 2.2894135 -2.4644358
000160 18 bd 9c c0 f4 ae ae 40 e0 b4 85 c0 66 96 0b 40
       -4.8980827 5.4588566 -4.1783295 2.1810546
000170 a9 36 89 40 de 36 01 c0 5c 73 df 40 7f bf c7 bf
       4.2879224 -2.0189738 6.982832 -1.5605315
000180 94 26 ca c0 ff 3d 9e 40 d2 bc 1b bf 64 e1 19 c0
       -6.3172092 4.945068 -0.6083499 -2.4043818
000190 51 5c e9 c0 5e 36 73 bf f8 e1 b4 bf 04 67 0d c0
       -7.292519 -0.9500483 -1.413146 -2.2094126
0001a0 59 87 aa 3e 72 63 1a bd 14 61 5e be 91 d9 05 c0
       0.33306387 -0.037692495 -0.2171672 -2.0914042
0001b0 54 f6 0e c1 d5 f2 80 c0 7d 6b e3 bf 1e 71 03 bf
       -8.935139 -4.0296426 -1.7767178 -0.5134448
0001c0 63 71 eb be 89 15 42 40 51 7e 0c c0 7d bd 3a 40
       -0.45984945 3.0325644 -2.1952097 2.9178154
0001d0 fd 01 2d 40 d5 33 8c bf e7 51 23 40 ed 95 0f c0
       2.7032464 -1.0953318 2.551874 -2.2435257
0001e0 97 e6 60 bf 11 df 26 bf 55 37 28 3f c9 42 c3 3f
       -0.8785185 -0.6518412 0.6570943 1.5254756
0001f0 bb c4 de bf 9e 3b 38 c0 d0 37 85 3e 48 47 4a 3f
       -1.7403787 -2.8786387 0.26019144 0.79015017
000200 dd 9a b3 be 46 52 cc 3f c9 a7 79 c0 db ee ed 3f
       -0.3507909 1.5962608 -3.9008658 1.8588518
000210 f8 f3 d9 bc 83 30 02 c0 f4 db a1 c0 5a 28 3e c0
       -0.026605591 -2.034211 -5.0580997 -2.9712129
000220 45 0f 0c c0 6a fa e8 bf 25 4a db 3f 3a 1b 6a c0
       -2.188432 -1.820142 1.7132002 -3.6579118
000230 85 22 3a c0 d7 f9 cd 3f dc 75 fb 3f 73 24 2f bf
       -2.908357 1.609187 1.9645343 -0.6841499
000240 45 00 1a be 92 a1 94 c0 3d da 46 3f 12 90 bc 3d
       -0.15039165 -4.644723 0.77676755 0.09207167
000250 aa 6a 30 40 a1 c5 d2 bf 03 d6 88 c0 32 3f 7f c0
       2.7565103 -1.6466562 -4.2761245 -3.9882321
000260 38 cf 5c bf ab 26 1d c0 70 cf 99 40 fe 54 1d bf
       -0.8625369 -2.455485 4.806572 -0.6145781
000270 46 29 3a bd 57 bd c6 bf ea 91 1c 40 35 18 3c 3f
       -0.045449518 -1.5526532 2.446406 0.73474437
000280 7b 93 0c 3f df 12 2e c0 de 59 a9 40 3d 26 51 3f
       0.5491254 -2.7199018 5.29222 0.8169897
000290 b1 cf 0a 3f a1 3a 02 40 20 cd be bf 55 08 44 40
       0.5422316 2.0348284 -1.4906349 3.0630085
0002a0 92 ff 51 3f 19 2f ae be 4b 2e 2d bd c5 3d d8 c0
       0.82030594 -0.34020308 -0.042280477 -6.75754
0002b0 f4 93 f5 3f 23 f2 b2 c0 66 d4 c1 3f ac 66 b7 c0
       1.9185777 -5.5920577 1.5142944 -5.731283
0002c0 95 58 5e c0 cb c5 59 40 90 bf c3 c0 43 d3 67 40
       -3.4741566 3.4026973 -6.117134 3.6222694
0002d0 78 f5 86 c0 ce 2e 5e 40 46 92 9f 3f 5d fa b0 3f
       -4.2174644 3.4716067 1.2466514 1.3826405
0002e0 c9 46 b2 bf 32 3e 5e be 5d 8f d8 be 33 ae 9a 40
       -1.3927852 -0.21703413 -0.42296878 4.8337646
0002f0 76 16 a4 bf 40 08 d7 bf 95 62 bb bf 7b f7 83 bf
       -1.2819355 -1.6799393 -1.463946 -1.03099
000300 00 12 88 bf 49 be f6 bf 37 99 1e c0 c7 27 f9 bf
       -1.0630493 -1.927682 -2.4781015 -1.9465264
000310 e1 58 4c 40 4d 09 4a 40 e3 f4 80 40 3a 60 cc be
       3.1929247 3.1568177 4.0298934 -0.39917165
000320 de 85 e5 3c 84 d5 85 3d b1 47 48 bd 90 09 ea bd
       0.028017934 0.065348655 -0.048896495 -0.11427605
000330 bf ca b1 3c 15 5d 20 3e 90 4d 3e 3e fe 6c 02 3c
       0.021703122 0.15660508 0.18584275 0.007960556
000340 75 c9 d6 3d 4e 13 a4 3d 84 f5 34 3e 1f a0 39 3e
       0.10487644 0.080114946 0.17671782 0.18127488
000350 d6 dd 13 3c 55 50 6e bd de 68 b3 3e 7c 3c 2c 3e
       0.009025058 -0.05818208 0.35040945 0.16819948
000360 bf 6d 51 bc 46 fa ae 3c 90 b3 50 3e 1e ad 05 3f
       -0.012782513 0.021359574 0.20380998 0.5221728
000370 09 05 cd 3d 2a dd 86 be e3 c8 e6 3e 06 6c a2 be
       0.10010726 -0.2634061 0.4507514 -0.3172304
000380 f7 33 03 3f 87 ef 4f c0 3d d2 12 40 b2 a9 3d 3f
       0.5125117 -3.2489946 2.294082 0.7408706
000390 26 20 a4 bf 80 63 07 40 58 06 ea bf 6d 08 57 40
       -1.2822311 2.115448 -1.8283186 3.3598893
0003a0 6b a9 35 be ed 56 63 bf 23 39 2b c0 27 78 fa 3f
       -0.17740409 -0.88804513 -2.6753623 1.9567918
0003b0 10 4a 32 40 26 ad 73 3f 40 97 61 bf 6d 85 38 bf
       2.7857704 0.9518608 -0.88121414 -0.7207859
0003c0 b7 f9 a4 bf aa b4 f8 be e8 c7 cf bf 85 04 ab be
       -1.2888707 -0.48575336 -1.6232882 -0.33401886
0003d0 cd cd 94 3d 48 cf bc 3f d4 ce ef bf ed 1c 7b bf
       0.07265816 1.4750757 -1.8734994 -0.9809101
0003e0 c4 ed 01 c0 19 44 82 40 22 86 5b 3f 5e 1e 84 c0
       -2.030137 4.0708127 0.85751545 -4.128707
0003f0 ca 24 21 c0 b6 e4 0f c0 0e 54 e1 c0 59 dd 62 40
       -2.5178704 -2.2483344 -7.0415106 3.54476

conv3.bias f4 [32]
000000 ce 3f 82 bf 30 0e 74 be a3 87 55 3f 5b 89 89 be
       -1.0175722 -0.23833537 0.8341009 -0.26862606
000010 c5 4f b5 3e d0 b0 57 3f 3f 95 50 c0 b4 7f e7 bf
       0.35412422 0.8425417 -3.2591093 -1.8085847
000020 5a a2 90 3f b8 2c 20 bf af 11 94 3f 29 56 49 3e
       1.1299546 -0.62568235 1.1567897 0.19661774
000030 85 c1 ba bf 1b e3 ab 3f cc c0 31 c0 d7 36 c8 3e
       -1.4590307 1.3428682 -2.7773924 0.3910434
000040 c0 77 0e 3d e2 a5 dc 3d 2c 5e 43 bf 77 a2 3c 3d
       0.03478217 0.10773827 -0.7631557 0.046053376
000050 54 49 ab be cc ec 13 be cc 79 6e bf 43 2c d0 3e
       -0.33454382 -0.144458 -0.931546 0.4065877
000060 7a dc 64 3e 20 b1 26 bf 65 35 ca 3f 00 69 af 3b
       0.2234973 -0.6511402 1.5797545 0.005353093
000070 b3 c2 80 3f 5c 12 dd 3f 61 ee 05 3f 34 83 ce bc
       1.0059417 1.7271228 0.5231686 -0.025209047

bn3.weight f4 [32]
000000 81 2c 21 40 6a 56 3e 40 f7 26 5d 40 a5 52 83 40
       2.5183413 2.9740243 3.4555032 4.1038384
000010 23 6c 7a 40 15 49 7a 40 77 36 8a 40 40 88 38 40
       3.9128501 3.9107106 4.3191485 2.883316
000020 c9 50 56 40 6d d9 8c 40 93 c0 0c 40 88 6e 55 40
       3.3486807 4.401541 2.1992538 3.3348713
000030 7a 98 5e 40 3b 6f 81 40 62 07 3b 40 5b 56 4a 40
       3.4780564 4.044828 2.9223256 3.1615207
000040 53 36 85 3e e8 fa 19 40 7f 0c 69 40 65 61 81 40
       0.2601801 2.405939 3.6413877 4.043139
000050 f0 b0 71 40 24 99 4a 40 0f 80 6e 40 f2 1b 70 40
       3.7764244 3.165597 3.726566 3.7517056
000060 58 3d 37 40 93 a7 6c 40 20 6a 7a 40 93 97 98 3e
       2.8631191 3.697728 3.9127274 0.29803142
000070 34 c9 87 40 01 12 6b 40 76 6f 74 40 c0 f0 6b 3e
       4.243311 3.6729739 3.819303 0.23041058

bn3.bias f4 [32]
000000 8a ba ef bf 65 bf 8c c0 8c 72 34 c0 06 00 86 c0
       -1.8728802 -4.3983636 -2.8194914 -4.187503
000010 53 a9 91 c0 4c 3f 92 c0 5c 8a 8a c0 d2 29 61 c0
       -4.5519195 -4.5702267 -4.3293896 -3.5181775
000020 a0 0e 78 c0 46 e6 7e c0 55 11 2c c0 a8 e7 64 c0
       -3.8758926 -3.9828048 -2.6885579 -3.5766392
000030 c4 58 44 c0 ee a5 90 c0 0e bc 84 c0 65 35 2e c0
       -3.0679178 -4.520255 -4.147956 -2.722009
000040 48 c4 3d bf 7d 5a b2 bf da 31 92 c0 7e 7c 70 c0
       -0.74127626 -1.3933865 -4.5685854 -3.7575984
000050 6e 8b 96 c0 1e bd 4f c0 84 2a 71 c0 32 6c 9b c0
       -4.70452 -3.2459178 -3.76822 -4.8569574
000060 06 65 44 40 c1 db 89 c0 80 84 82 c0 14 9e 4e bf
       3.068666 -4.3080754 -4.0786743 -0.8070996
000070 ed 36 84 c0 f4 8e 8d c0 da 8b 94 c0 e8 ea 28 bf
       -4.131705 -4.4237003 -4.6420717 -0.6598344

bn3.running_mean f4 [32]
000000 d7 59 15 c3 5c 77 af 42 90 91 44 c0 3d 26 8a 40
       -149.35094 87.73312 -3.0713844 4.3171678
000010 b7 09 e9 42 e1 9a b2 41 04 64 49 42 1b 8a 19 42
       116.518974 22.325624 50.34767 38.38487
000020 80 15 dc 42 22 a8 4b 42 d6 61 6b c3 38 ca 68 43
       110.04199 50.914192 -235.38217 232.78992
000030 57 fd 89 c2 c6 93 e1 40 4c 41 4c 42 1e 3a ab c1
       -68.994804 7.0492887 51.063766 -21.403378
000040 4e c8 5f 41 e8 04 8a c3 57 1a ef 42 e6 d9 aa c1
       13.9864025 -276.03833 119.551445 -21.356396
000050 18 15 bc 42 6a 96 07 c0 bb 3b d1 c1 61 1e 83 42
       94.0412 -2.1185555 -26.154165 65.55933
000060 6c d5 08 43 1e ec 01 c2 c5 bc b0 c1 ec 49 07 42
       136.83368 -32.480583 -22.092173 33.82219
000070 30 f4 3b 41 b4 2b 85 c0 a1 32 40 c2 56 13 98 42
       11.747116 -4.161585 -48.049442 76.037766

bn3.running_var f4 [32]
000000 cb c8 81 46 a6 c0 27 46 a3 d6 9d 46 18 de 93 46
       16612.396 10736.162 20203.318 18927.047
000010 eb ae 89 46 9a eb 9d 46 46 ae bb 46 0f ac 3c 46
       17623.459 20213.8 24023.137 12075.015
000020 21 4c a5 46 79 1f 06 46 96 8a 75 46 ad 9c aa 46
       21158.064 8583.868 15714.646 21838.338
000030 79 f9 8a 46 82 d8 83 46 d0 ec 66 46 35 3a b6 46
       17788.736 16876.254 14779.203 23325.104
000040 be 83 9b 44 14 ac 61 46 25 97 85 46 1f 18 7c 46
       1244.117 14443.02 17099.572 16134.03
000050 9a 6e 51 46 e0 44 a4 46 25 a3 ad 46 af 76 75 46
       13403.65 21026.438 22225.572 15709.671
000060 74 3c ca 47 c1 8a 76 46 38 ea 95 46 30 55 11 44
       103544.91 15778.688 19189.11 581.33105
000070 01 8a a9 46 a0 81 8a 46 d2 d8 76 46 3d 5a 21 45
       21701.002 17728.812 15798.205 2581.64

head.weight f4 [2, 512]
000000 58 7c 56 3f a0 00 40 40 fc d1 69 bd f3 cf 84 3e
       0.83783484 3.0000381 -0.057085022 0.25939903
000010 53 64 1f be e0 dc fa bd cd 9d b7 bf 34 0d 8a 3e
       -0.15565614 -0.1224916 -1.4345032 0.26963198
000020 5a 8c 18 3f 5e 41 d6 3e 00 d6 92 40 75 8e 9f 3e
       0.5958916 0.41846746 4.588623 0.31163374
000030 4b a8 3c c0 62 41 19 bd 0e 61 93 3f a8 72 a4 bf
       -2.9477718 -0.03741587 1.1513994 -1.284749
000040 ea f2 8c 3f f5 cc 0a 40 1b ab bd bd aa 85 4e bf
       1.1011631 2.1687596 -0.092611514 -0.80672705
000050 b7 3b 4b c0 48 49 c1 c0 cd e7 8c 3f b7 d7 c2 bf
       -3.1755197 -6.0401955 1.100824 -1.5222081
000060 2b 6b c1 bf 38 58 a9 bd 80 f5 e2 3f 57 c2 f2 3e
       -1.511083 -0.082687795 1.7731171 0.47413895
000070 b8 c2 09 40 d4 c4 d4 bf bd c5 6c 3f c6 38 b6 3f
       2.1525097 -1.6622567 0.92489225 1.4236076
000080 17 d7 ca 40 70 1d fb 3f c6 0f 6c be dc 66 0b c1
       6.338756 1.9618359 -0.23052892 -8.712612
000090 04 a5 84 bd b0 65 b5 c0 d6 59 d3 be 6c a0 83 40
       -0.06476787 -5.668663 -0.41279477 4.1133327
0000a0 1a 75 a9 3f 07 f2 c9 bf 0b 5d 86 bf e5 4d 2e c0
       1.3238862 -1.5776986 -1.0497144 -2.7235043
0000b0 1f aa 82 c0 cb ee 25 40 fd 19 0a c0 9e 98 6a bf
       -4.0832667 2.5926998 -2.1578362 -0.91639125
0000c0 a7 ea af bf 2c d0 e6 be 7c fd a5 3f da ad 9b c0
       -1.3743485 -0.45080698 1.2967982 -4.864972
0000d0 23 7e b9 c0 2d e8 25 bf cd 3f ec be a6 de 98 3f
       -5.7966475 -0.648074 -0.46142426 1.1942947
0000e0 3c 86 40 bf 06 58 e3 be 39 78 13 c0 10 90 cc c0
       -0.75204825 -0.44403094 -2.3042128 -6.3925858
0000f0 b8 14 e2 be 16 41 d3 40 1f 63 8c 3d 8a f4 4c 3f
       -0.44156432 6.601695 0.06854843 0.80060637
000100 67 c3 74 3f 12 a8 dc 3f 43 9c 07 3f 3a af 6e c0
       0.9561066 1.7238791 0.5297281 -3.729445
000110 7f 3f 82 c0 b6 56 b4 c0 40 d3 1c 3f 84 57 a0 be
       -4.070251 -5.635585 0.6125984 -0.3131677
000120 97 a0 9f bf 29 fe 2c 3f 9c 9c b2 c0 20 9c 4a c0
       -1.2470883 0.6757532 -5.5816174 -3.165779
000130 a5 51 bf bf 01 90 26 c1 06 3d f9 3f 64 fe 95 3f
       -1.4946791 -10.410157 1.9471748 1.1718259
000140 22 ee f9 bd 91 ab 83 3f 3b 09 08 bd 82 32 b9 c0
       -0.12203623 1.0286733 -0.033211928 -5.7874155
000150 51 ae 7a c0 2a ae 34 bd cc a8 bb c0 d0 08 a0 c0
       -3.9168894 -0.04411141 -5.864355 -5.0010757
000160 18 8f 6a bf 55 39 78 bf 4b de 61 40 21 c8 4f 3f
       -0.91624594 -0.9696248 3.5291927 0.8116475
000170 f0 cf 2d c0 d5 f8 94 40 2e ef 4e 3f 50 9d 01 bf
       -2.7158165 4.655375 0.8083371 -0.50630665
000180 96 1a 0c 3e e4 ff fc 3f d0 4e b5 3f ba 81 bc c0
       0.13682017 1.9765592 1.4164677 -5.890836
000190 73 55 c0 c0 bc e7 09 c1 98 5e 77 40 94 5f 05 3f
       -6.010431 -8.619076 3.8651485 0.52098966
0001a0 66 b7 ca 3d b9 86 c8 3e ce ca 5a bf 5d f4 a3 40
       0.09898262 0.39165285 -0.85465705 5.1235795
0001b0 88 a7 77 3e 7f 7a bc c0 3a de 73 bd 84 ec ad 3e
       0.24185002 -5.889953 -0.059538104 0.3396951
0001c0 f7 8b 5e 3f 59 3f 4c 40 d4 1b db be 10 68 4c c0
       0.8693232 3.1913664 -0.4279467 -3.1938515
0001d0 3d 09 60 be b9 65 d5 bd 08 dc 9c 3e 42 48 d0 be
       -0.21878524 -0.10419793 0.3063662 -0.40680128
0001e0 25 18 24 40 fe e9 8d bf 22 9b 33 40 d4 77 97 40
       2.5639737 -1.1087034 2.8063436 4.7333775
0001f0 9d f8 67 c0 96 94 a8 c0 c4 29 dd 40 67 df 74 3f
       -3.6245492 -5.268138 6.9113483 0.95653385
000200 cd 39 39 c0 3d e3 60 bf 79 85 38 bf 10 d1 8f c0
       -2.8941529 -0.8784674 -0.72078663 -4.4942703
000210 7d 73 fa be df a4 58 c0 c9 d9 c7 c0 38 c2 bc 3d
       -0.48916236 -3.385063 -6.245335 0.09216732
000220 3d a8 84 bf 9a f9 79 bf a4 7b eb bf f0 ae ac c0
       -1.0363842 -0.97646487 -1.8397107 -5.3963547
000230 64 49 9e 3e bd af b2 c0 88 32 16 c1 56 cc 69 bf
       0.30915368 -5.5839524 -9.387337 -0.91327417
000240 4a f7 dc 3f ea 91 5b be b4 db 2f 40 c2 80 18 40
       1.7262967 -0.2144238 2.7477846 2.3828588
000250 67 d9 04 c0 1d 1e a7 be 59 52 dd bf 81 4a 5f be
       -2.0757692 -0.32640162 -1.7290756 -0.21805765
000260 d2 be 8f bf 12 28 07 40 67 ad d5 c0 4e 6a 9e c0
       -1.1230109 2.1118207 -6.6774173 -4.9504766
000270 2a b5 dc 3e 19 f5 07 c1 b4 b0 cc be 12 a3 e2 3f
       0.43106967 -8.497338 -0.39978564 1.7706015
000280 19 dd fa be 59 5c 69 3e a7 2a 27 40 e0 15 3a bc
       -0.4899681 0.22789134 2.6119783 -0.0113577545
000290 3f 87 bd c0 ee f8 77 bf 73 77 e6 bf f4 4c 4b 3f
       -5.9227595 -0.9686421 -1.8005203 0.79414296
0002a0 0c 02 2e bf eb 4a 23 40 65 51 9c 3f ac 04 eb 3e
       -0.67971873 2.5514476 1.221234 0.45902002
0002b0 ea b9 38 40 bf bc a7 40 f9 89 90 3f 6a 82 20 40
       2.8863473 5.2417903 1.1292106 2.5079598
0002c0 54 69 ee bf 87 6b 4e bf a1 0f 69 be a9 5c 00 3e
       -1.8625894 -0.80632824 -0.22759868 0.12535347
0002d0 69 0a 05 40 6e ae 58 c0 36 52 5a bf 36 1e e7 be
       2.0787604 -3.3856463 -0.85281694 -0.45140237
0002e0 05 6c ca 3e 6e 64 25 3e 42 04 24 c0 60 8d 78 bf
       0.39535537 0.16151592 -2.5627599 -0.9709072
0002f0 4c b2 a0 c0 d5 3a df 3f fe 42 96 3f 52 aa d2 bf
       -5.0217648 1.7439829 1.1739194 -1.6458228
000300 38 39 0f 40 a9 c9 dd 3e d5 3e 18 40 44 bb 35 bf
       2.2378674 0.43317917 2.378835 -0.7098887
000310 14 4a 47 bc 04 b4 9a bc 3d 72 5e c0 fd 26 f6 bf
       -0.012163658 -0.018884666 -3.4757226 -1.9230648
000320 e6 be c2 3f aa bd cc be 19 04 9b 40 28 e7 a7 c0
       1.5214508 -0.39988452 4.84425 -5.2469673
000330 e2 ef 42 40 46 50 ff c0 5c 8d 49 3f 1d 8a 15 bf
       3.0458913 -7.978549 0.7873132 -0.5841387
000340 b6 48 8e bf ef 52 9a 3f 93 03 84 c0 26 58 b4 40
       -1.111594 1.2056559 -4.1254363 5.6357603
000350 e5 c0 c5 3d d6 e0 6d 3f 57 33 3b c0 34 f0 2f 3d
       0.09655932 0.929212 -2.9250085 0.042953685
000360 6f ae b9 be 61 e9 25 bd 0d 47 1c c0 2a 43 0c c0
       -0.36265895 -0.04050577 -2.4418366 -2.1915994
000370 e2 ab 75 c0 68 02 10 3d 38 05 0f c0 41 d2 8a 3f
       -3.838616 0.035158545 -2.2346935 1.0845414
000380 4b 1c 1b c0 05 7d 98 3e 6d d5 35 3f 7c cf 8d 40
       -2.4236019 0.29782882 0.71028787 4.4315777
000390 9a da a8 c0 02 ef 0e 40 c2 d4 7d 3f c2 5e 9f 3e
       -5.2766848 2.2333379 0.9915277 0.31126982
0003a0 a2 36 07 3f db 32 28 c0 6f 17 b6 40 02 18 16 c0
       0.5281774 -2.628104 5.6903605 -2.3452153
0003b0 d2 b0 1d 3f f2 60 8d 40 cf 78 09 c0 33 98 16 40
       0.6159793 4.418084 -2.1479986 2.3530395
0003c0 31 60 a5 be 1e 33 01 3d 21 ae 59 40 5b bc f3 c0
       -0.3229995 0.03154289 3.401253 -7.6167426
0003d0 b3 f5 91 c0 b0 b8 1f c1 77 bc 97 c0 16 e6 7f c0
       -4.5612426 -9.98259 -4.741756 -3.9984183
0003e0 00 f2 0c bf cb 00 58 40 0d 36 4e bf bf 4f 97 c0
       -0.5505676 3.3750484 -0.80551225 -4.7284846
0003f0 7a 16 99 40 1a 38 91 40 c9 ef cb 3f 18 16 50 40
       4.7839937 4.5380983 1.5932552 3.2513485

head.bias f4 [2]
000000 af f4 98 40 66 0d 91 40
       4.7798686 4.5328856
