dqn_best_target.pth (torch, 171303 bytes, 20 tensors)

conv1.weight f4 [16, 3, 5, 5]
000000 d5 8e 82 40 c3 0e 1c 40 67 07 8e c0 6f f1 a3 40
       4.0799356 2.438401 -4.4384036 5.123222
000010 16 36 a1 3f 46 2e 86 bf f5 a0 d0 bf 64 5e 03 3f
       1.2594631 -1.0482872 -1.629912 0.51315904
000020 19 a3 8f 3d 11 1b ce be 36 e5 4b 40 5c f4 b6 bf
       0.0701353 -0.40255025 3.185865 -1.4293323
000030 7d 78 84 40 a6 83 85 c0 50 e6 90 bf e9 3e f9 3f
       4.139708 -4.1723204 -1.1320286 1.9472324
000040 12 6b 70 c0 eb ef f3 bf fb 72 c8 3f 74 88 81 3f
       -3.756535 -1.9057592 1.5660089 1.0119767
000050 65 22 29 bc 36 ae 9d be fe 36 a8 3f 83 55 a8 3d
       -0.010323142 -0.30796975 1.3141782 0.08219435
000060 91 67 0c c0 99 c8 ab bf c7 4a 69 be 05 c3 ab c0
       -2.1938212 -1.3420593 -0.22782432 -5.367556
000070 83 5b b2 40 e2 c3 8d 40 e3 b0 b8 c0 86 47 7c bf
       5.573671 4.4301615 -5.7715926 -0.98546636
000080 72 29 9e bd 49 0a 9d 3f 45 89 8a 3d 49 6e 22 be
       -0.07722749 1.2268764 0.06764463 -0.15862383
000090 f6 9b c9 bf 46 bf 23 40 33 e4 12 c0 5c e8 22 bf
       -1.575072 2.5585494 -2.2951782 -0.636358
0000a0 76 0a 22 40 4b b0 84 bf 1e d1 e6 be ea 8d a4 bd
       2.5318885 -1.03663 -0.4508142 -0.080348805
0000b0 cc 74 32 bf a6 19 b0 3e 61 a2 11 40 2a 4f e9 3f
       -0.6970947 0.34394568 2.2755358 1.8227284
0000c0 0a 8c d8 bf b4 94 14 c0 67 ac 4d c0 44 7b 2e bf
       -1.6917737 -2.321576 -3.2136476 -0.6815684
0000d0 79 b0 bc c0 43 38 a8 40 2d b0 a2 40 e2 aa f3 c0
       -5.896542 5.256868 5.084006 -7.6146097
0000e0 49 e2 12 bf b1 b7 ac be f1 a9 52 3f 32 81 d7 be
       -0.57376534 -0.33733895 0.8229056 -0.42090756
0000f0 6a 27 b4 bf 86 45 fe bf 9a b8 b6 3f dd 1b e2 bf
       -1.4074528 -1.9864967 1.4275086 -1.7664753
000100 09 3a 4b be 36 f5 3a 40 ad 21 88 bd c9 80 54 3e
       -0.19846357 2.9212165 -0.06647048 0.20752253
000110 b0 1e 8a bf 7a e9 84 bf bb 70 85 be 2d d0 4a 40
       -1.0790615 -1.0383751 -0.2606257 3.168956
000120 31 97 18 40 3f 70 28 c0 1a 25 26 c0 3a e8 8e 3f
       2.384228 -2.631851 -2.5960145 1.116462
000130 98 e4 75 3f 0a cb 2a 3e 36 bb b8 bf 50 64 a4 bf
       0.9605193 0.16679016 -1.4432132 -1.2843113
000140 3d b6 1b c0 a0 44 c5 c0 b6 15 14 c0 c0 f8 13 40
       -2.432998 -6.164627 -2.3138251 2.3120575
000150 84 82 44 40 2e ac 2d 40 e1 1e e6 40 ce 31 0e 40
       3.070466 2.713634 7.1912694 2.2217898
000160 20 47 b2 3f d1 da 7c 40 ef 1f 55 40 fc ce ee bf
       1.3927956 3.9508555 3.330074 -1.8656917
000170 ee c6 18 bf 19 e4 f2 bf 1f 9d 5e c0 46 53 49 c0
       -0.5967854 -1.897586 -3.47834 -3.1457076
000180 68 8a 87 bf 80 67 9f 3e 24 d2 14 40 ff 38 a7 40
       -1.0589113 0.31133652 2.325326 5.2257075
000190 46 fb bf bf 62 65 66 bf 68 aa 46 3e f1 86 f7 bf
       -1.4998558 -0.8999845 0.19400942 -1.9338056
0001a0 f8 03 c5 bf b2 4b 32 c0 5e b5 f1 c0 d7 ed b6 bf
       -1.5391836 -2.78587 -7.5533895 -1.4291333
0001b0 54 b8 16 40 1e 9a fb 3f 3e 3a 8a 3f 9a d6 bf 40
       2.3550005 1.9656408 1.0799024 5.9949465
0001c0 3d bb b7 3f 06 f6 a0 3f 8c 65 20 40 3b 3c 57 40
       1.4354016 1.257508 2.506198 3.3630512
0001d0 81 40 4d be f6 40 08 bf 06 28 4b c0 7a df 84 c0
       -0.20044138 -0.5322412 -3.1743178 -4.15228
0001e0 fd 64 34 bf 8d ae df be 83 e4 d1 3e ea 77 92 3e
       -0.70466596 -0.4368786 0.40994653 0.28607112
0001f0 c9 04 05 40 f5 4f b0 bf 43 ee b0 bf 4c 99 82 3f
       2.078417 -1.3774401 -1.3822712 1.0203032
000200 1a f5 f5 bf e7 e8 2d c0 d4 d0 0a c0 7d 69 d8 c0
       -1.9215424 -2.7173402 -2.1689959 -6.762877
000210 3e 8b b2 bf ac bc a6 3f ce 34 18 be 68 12 3b 3f
       -1.3948743 1.3026328 -0.14863893 0.7307496
000220 14 dd aa 40 26 83 5b 3f 7c a8 96 3f da ad 26 40
       5.339487 0.8574699 1.1770167 2.604361
000230 80 31 49 40 2f bc 3d 3f fb 59 23 be c3 bf 98 c0
       3.1436462 0.7411527 -0.15952294 -4.7734084
000240 5d 07 8b c0 38 5a a1 bb bd 1c fd be 19 4b 73 3f
       -4.344649 -0.004924085 -0.49435988 0.95036465
000250 56 1c 29 3f 3e cc 1d 3f 01 fe b6 bf 4b 88 a4 c0
       0.6605886 0.61639774 -1.4296266 -5.1416373
000260 0e 97 2c 40 82 a1 59 bf 9d f5 aa 3f 0b eb 03 bf
       2.6967196 -0.85012066 1.3356205 -0.5153052
000270 26 00 24 bf c7 9f d4 40 ad ca 84 c0 b9 da 2d bf
       -0.64062726 6.644504 -4.1497407 -0.6791187
000280 b8 94 8e 3f ba 7a 21 c0 98 d5 b8 40 a3 33 8a c0
       1.1139135 -2.5231156 5.7760735 -4.3188033
000290 2e 33 47 40 bf c0 a2 40 d6 83 b0 c0 ab b4 d6 bf
       3.1124988 5.0860286 -5.5160933 -1.6773885
0002a0 15 50 24 c0 e2 dd 21 40 ed 9e 42 40 88 73 a3 c0
       -2.5673878 2.5291677 3.04095 -5.107853
0002b0 b4 59 05 40 69 12 e4 bf 87 9f 08 40 e9 02 7f c0
       2.0836 -1.7818118 2.1347368 -3.9845526
0002c0 2e 06 ab c0 3d 35 29 40 55 55 ea 3f e4 f7 b5 3f
       -5.3445044 2.6438744 1.8307291 1.4216275
0002d0 15 4a e0 bf b5 90 c6 3d 9f 82 9c 40 1a 62 d5 bf
       -1.7522608 0.096955694 4.890945 -1.6670563
0002e0 5d 48 a1 bf 74 9a 2b bf 8e 58 c2 bf c5 6b 60 40
       -1.2600209 -0.6703255 -1.5183275 3.5065777
0002f0 c6 57 cc be df 83 53 40 6d be 7d 40 19 45 b5 bf
       -0.39910716 3.3049238 3.9647477 -1.4161712
000300 1e 5d 02 bf 5b 8d ca bf 64 63 58 bf b8 72 3a 40
       -0.50923336 -1.5824388 -0.8452666 2.9132519
000310 9d 2b 70 c0 17 bc 5c 3f c8 88 21 bf 44 70 11 3f
       -3.752662 0.862245 -0.63099337 0.5681193
000320 c5 91 92 c0 19 6e 91 c0 eb 5b 04 40 bf 02 28 40
       -4.580294 -4.5446897 2.0681102 2.6251676
000330 f4 08 ef 3f b2 5d 09 c0 47 46 f9 3e b1 f4 67 40
       1.8674607 -2.1463437 0.4868643 3.6243098
000340 bd 1a 72 bf 6b b0 8f bf da 10 c4 bf fe b0 a5 bf
       -0.9457205 -1.1225713 -1.5317643 -1.2944639
000350 43 90 d2 3f 49 0d 4e 3f 1c 02 79 40 4e c6 5f 40
       1.6450275 0.8048902 3.8907537 3.4964786
000360 3e 91 81 be e1 61 25 3d 7c 2a 84 bf b0 5b c8 bf
       -0.25306123 0.040376548 -1.0325465 -1.5652981
000370 32 2e 07 40 1d de 0e c0 af 65 e2 3d 2d b9 45 3f
       2.1121945 -2.2323067 0.11054551 0.7723568
000380 da 5a 2e 3f 59 d5 ba 3e b3 11 94 bf 85 d6 2d 40
       0.6810738 0.36490896 -1.1567901 2.7162182
000390 26 74 81 3f c8 f5 9c 3f bc e6 93 40 84 c7 a9 c0
       1.0113571 1.2262506 4.621916 -5.305605
0003a0 96 23 0e bf de a0 cc bf 79 ad 7a c0 f2 bf ca 3f
       -0.5552305 -1.5986593 -3.916838 1.5839827
0003b0 d1 7e 05 3f 73 96 b5 40 9f 2b 94 40 b7 38 9d 40
       0.5214663 5.6746154 4.630325 4.913173
0003c0 0f e6 a7 3f 93 09 7f bf 15 d6 c1 c0 9e 57 ab 40
       1.3117083 -0.99623984 -6.057383 5.3544455
0003d0 95 7e fe 3e 35 59 9a c0 38 d5 30 40 e1 5f 91 bf
       0.4970595 -4.8233895 2.7630138 -1.1357385
0003e0 d6 3f 51 bf 63 79 81 bf cd d0 15 3f c4 4a 41 bf
       -0.8173803 -1.0115169 0.5852173 -0.7550471
0003f0 d3 bf af 3d 63 de 7e bf ee ef c9 3e 8e 24 21 40
       0.085815094 -0.99558085 0.39440864 2.5178561

conv1.bias f4 [16]
000000 98 ef 21 40 70 53 9b 40 f4 05 4a 40 fa e6 8c 40
       2.5302486 4.8539352 3.1566133 4.4031954
000010 d2 7d d6 c0 bd 0e 46 40 6d 25 c7 3e fa 0a 9f bf
       -6.702859 3.0946496 0.3889574 -1.2425225
000020 d5 10 bd 3f 42 c0 21 40 98 0e 61 bf 64 cf 32 bf
       1.4770762 2.5273595 -0.87912893 -0.698477
000030 8d 2e d6 bf c3 7c 2d 3e e5 61 12 40 b8 bd 5d bf
       -1.6732956 0.16942124 2.287225 -0.8661761

bn1.weight f4 [16]
000000 72 83 1d 40 2f 98 85 40 5a 6d 94 3f 4e 94 27 40
       2.4611478 4.174827 1.1595871 2.6184268
000010 53 53 6f 40 e1 2d 37 40 2c 2b 27 40 80 18 fb 38
       3.7394607 2.8621752 2.61201 0.00011973176
000020 38 e0 02 40 a0 97 1e 40 e2 9b 18 3f 64 88 87 40
       2.0449352 2.4780045 0.5961286 4.2353992
000030 a1 6e 53 40 cf c1 b1 3f 65 90 d5 3f ee e8 1c 40
       3.3036273 1.3887271 1.6684691 2.451717

bn1.bias f4 [16]
000000 e8 06 97 c0 96 99 4a 40 3f b5 05 c0 3b 68 ff 3f
       -4.719593 3.1656241 -2.0891874 1.9953684
000010 dc 83 68 40 82 d0 1f 40 5c bf 2a 40 42 83 80 bd
       3.633048 2.4971013 2.6679296 -0.062750354
000020 80 5e 21 c0 a7 64 cc c0 c4 ca 42 3f 89 26 2f 40
       -2.5213928 -6.3872867 0.76090646 2.736727
000030 6a d2 b0 bf 50 95 46 3f eb e0 e2 3f 94 1c 70 c0
       -1.3814213 0.7757158 1.772489 -3.7517443

bn1.running_mean f4 [16]
000000 4c 75 22 40 f9 8c 9b 40 64 f2 4a 40 e2 cc 8c 40
       2.5384092 4.8609586 3.1710443 4.40001
000010 2b 47 d6 c0 e8 fb 44 40 88 14 b0 3e 80 d8 9e bf
       -6.6961875 3.0778751 0.34390664 -1.240982
000020 b3 7b c0 3f b2 b2 21 40 dc a9 69 bf 39 a2 2c bf
       1.503775 2.5265317 -0.9127481 -0.6743503
000030 4c ee d3 bf b9 c3 40 3e 98 40 14 40 a5 13 5a bf
       -1.6557097 0.18824662 2.3164425 -0.85186225

bn1.running_var f4 [16]
000000 21 45 83 3e 2e 77 6b 3d b7 42 0f 3f 33 a3 d5 3d
       0.2563868 0.057486705 0.55961174 0.104315184
000010 1f bb 59 3d 99 f5 93 3d ce 6c 00 3e fc 1a 8a 3e
       0.05315697 0.072245784 0.12541506 0.26973712
000020 53 c6 0c 3f 80 5d 3c 3f bc f0 eb 3e 7b bf 8b 3d
       0.5499012 0.7358017 0.46082103 0.068236314
000030 a0 3d 83 3d d8 cd 5e 3e 68 d7 3c 3e 3f cb 02 3f
       0.064082384 0.2175821 0.18441546 0.5109138

conv2.weight f4 [32, 16, 5, 5]
000000 ca ee 3f bf 97 2c ab bf 2c 62 e2 3e 20 00 63 40
       -0.7497374 -1.3372983 0.44215524 3.5468826
000010 93 5a cf 3f 0a d5 b6 3f 01 96 31 40 c6 db 84 c0
       1.6199516 1.4283764 2.7747805 -4.151828
000020 f1 0d 8e 40 ed 07 a6 3f 95 12 bc 3d 2a 19 9c 3f
       4.439202 1.2971169 0.09183232 1.219518
000030 7e 7b a1 c0 73 f2 18 40 18 de 86 40 d4 0f 9a 3f
       -5.0463247 2.389798 4.214611 1.203608
000040 82 d9 e0 bf 6a 71 67 bd 0a 88 91 c0 06 09 a6 3f
       -1.7566378 -0.056504644 -4.5478563 1.2971504
000050 9d ea 87 bf fd 19 93 3f 1c f5 14 bd 0e a2 7d 3f
       -1.0618473 1.1492306 -0.036366567 0.990754
000060 10 77 23 bf 3e 41 6d 3f 55 89 a7 bf ce 27 84 c0
       -0.6385355 0.92677677 -1.3088785 -4.129859
000070 dc 61 40 be aa 28 9b c0 be 02 c9 40 ee 06 bf bf
       -0.1878733 -4.848714 6.2815847 -1.492399
000080 48 0c 48 bf 1f b4 bd c0 91 6d 90 40 ad 56 2c bf
       -0.7814374 -5.9282374 4.513375 -0.67319757
000090 ae 21 8b 3f f7 ed a0 c0 8d ca 27 c0 31 62 31 40
       1.0869653 -5.0290484 -2.6217377 2.7716181
0000a0 b5 96 08 c0 f6 33 c3 3f 0b 15 a4 40 09 1e bc bf
       -2.1341984 1.5250232 5.1275687 -1.4696666
0000b0 83 04 db bf 88 c1 ad 3f ab 67 48 bf 0a 4d b9 3f
       -1.7110752 1.3574686 -0.78283185 1.4476635
0000c0 fc 1f 0f 40 c8 fa cb 3f 76 a6 28 40 fc 9d f8 3d
       2.2363272 1.5935907 2.63516 0.12139508
0000d0 05 c8 01 c0 14 12 ac 3f fd 0d 29 40 99 2d 94 40
       -2.0278332 1.3443017 2.6414788 4.630566
0000e0 8f aa 90 bf 47 f5 01 c0 f0 3c 01 40 6e f9 61 40
       -1.130205 -2.0305955 2.0193443 3.530849
0000f0 d9 7a ee 3f 04 f4 d9 3f 92 a1 fd bf ae a7 04 40
       1.863124 1.7027593 -1.9814932 2.0727344
000100 d4 4a 42 3f 38 91 58 3f b8 a8 92 40 f4 2b 9f bf
       0.7589543 0.84596586 4.5830956 -1.2435288
000110 99 27 c3 3f 7a 8f 48 c0 a9 4e 5b 3f b1 da 35 40
       1.5246459 -3.133757 0.856669 2.8414729
000120 c7 80 04 c0 87 c1 46 40 9a f9 e2 c0 74 cb fd be
       -2.07036 3.105562 -7.092969 -0.49569285
000130 19 a3 1d 40 7f ea 80 c0 45 a7 a4 bf b8 ab 74 40
       2.4630797 -4.028625 -1.2863547 3.8229809
000140 7f ed 9d 40 12 31 e3 be 29 a6 4b c0 4e 20 2e bf
       4.935241 -0.44373375 -3.1820166 -0.68018043
000150 bf 0a ef 3f 4b 03 04 bf 88 1c 21 c0 02 e3 85 3d
       1.8675154 -0.51567525 -2.5173664 0.06537439
000160 58 28 27 3f c9 7d 19 40 b2 e8 24 c0 81 ac 91 c0
       0.65295935 2.3983023 -2.5767026 -4.5523076
000170 25 80 01 3f 66 b4 d7 3f 54 6b fd 3f c8 c2 2c c0
       0.5058616 1.6851928 1.9798379 -2.6993885
000180 a0 36 69 bd 71 9e 01 40 75 74 40 40 66 78 a5 3f
       -0.05693686 2.0252955 3.007108 1.2927368
000190 82 bd ea c0 03 8e 8f 40 bd 66 9a c0 40 57 a8 40
       -7.3356333 4.4860854 -4.8250413 5.2606506
0001a0 89 8d 60 40 11 57 a7 c0 83 7a d8 be 18 3a 74 40
       3.5086386 -5.229378 -0.4228097 3.8160458
0001b0 ab 53 00 40 c0 c5 d1 3f b1 cb d7 bf a2 6f 84 c0
       2.0051067 1.6388474 -1.6859037 -4.138627
0001c0 3b cb a3 40 38 de 02 3f 9a 33 8d be aa 06 1e c0
       5.1185584 0.5112033 -0.2757843 -2.4691567
0001d0 87 92 9d 3d 9b dc ca 3d 7f d1 d5 3f 74 29 cf bf
       0.076939635 0.099053584 1.6704558 -1.6184525
0001e0 14 9d 7b c0 9b 2b 92 40 9d c1 0e 3f d6 8c 25 c0
       -3.9314623 4.567823 0.5576418 -2.586721
0001f0 60 bb 47 40 b0 78 2d c0 fd 38 06 c0 70 89 7d c0
       3.1208115 -2.7104912 -2.0972283 -3.9615135
000200 43 68 c3 3f 5d 96 8f 40 c9 ee 62 c0 db e9 8a 40
       1.5266193 4.487105 -3.5458243 4.341047
000210 ff f2 ed 3d 9b 85 2a 3e 3c ef c8 bf bd 4d 56 3d
       0.116186135 0.16652529 -1.5698009 0.05232023
000220 68 8a 9e c0 8a d2 27 40 eb d8 87 be 54 88 30 40
       -4.9543953 2.6222253 -0.26532683 2.7583208
000230 06 fe 1f 40 9f d2 71 3d 8f d2 33 c0 6d a6 05 40
       2.4998794 0.059038755 -2.8097265 2.0882828
000240 bd ce 0c 40 d8 4c 2c c0 21 13 28 3f 1e bc 30 3f
       2.2001183 -2.6921902 0.6565419 0.69037044
000250 c9 6f cd bf 58 f4 a9 3f 66 e2 14 3f 81 f0 a6 3e
       -1.6049739 1.3277693 0.58157957 0.32605365
000260 ae 08 2c 40 a3 89 8e c0 78 f6 eb 3f 74 93 0c c1
       2.6880298 -4.4543014 1.8434591 -8.785999
000270 00 16 96 40 61 63 af c0 ad 2f 29 3f 5c 84 c9 bf
       4.6901855 -5.480881 0.6608837 -1.5743518
000280 db 26 b9 bf 98 06 26 40 d0 44 84 c0 a5 e2 84 bf
       -1.4464983 2.5941525 -4.1334 -1.0381666
000290 2f d1 6a bf d5 d6 c0 c0 9c 97 f0 bf 8c 72 51 c0
       -0.9172544 -6.0262246 -1.8796268 -3.2726164
0002a0 a4 c0 17 40 70 2f c0 be 4e 3e 36 bf b4 1e 85 c0
       2.3711329 -0.37536192 -0.7118882 -4.159998
0002b0 be 0e 93 3f 1b 40 89 40 8a 97 3d 40 cc 7a 77 3e
       1.1488874 4.2890754 2.9623742 0.24167937
0002c0 30 69 4e 3f 8d b8 57 bf 8c 70 56 bf 1d d4 17 3f
       0.80629253 -0.8426598 -0.8376548 0.59308034
0002d0 90 4e 59 3e df 93 4f 3f 71 6a 7f bf 69 e6 ba be
       0.21221375 0.8108501 -0.9977179 -0.36503914
0002e0 71 62 ed 3e 6a af ad be 3a 56 47 3f e4 db f0 be
       0.46364167 -0.33922893 0.77865946 -0.47042763
0002f0 8b 02 27 bf ee ec 4a 3e cd c1 77 bf 22 c4 23 3f
       -0.65238255 0.19816944 -0.9678009 0.6397115
000300 59 34 f7 be 1c 86 14 bf c4 cc 68 be d0 32 ff bf
       -0.48282126 -0.58017135 -0.22734362 -1.9937382
000310 32 ca ae 3e 81 0f 1c be c1 2e 4a be 55 ce 04 bf
       0.34138638 -0.1524029 -0.19744398 -0.5187734
000320 9b 98 3d be c7 27 63 3f 99 3d 69 3e ad b6 22 40
       -0.18515246 0.8873257 0.22777404 2.5423996
000330 c3 b2 c5 3f 80 b9 2e c0 65 45 1a bf fc 68 58 c0
       1.5445179 -2.730072 -0.6026214 -3.3814077
000340 9a 46 b9 40 6e 58 62 3f 53 0d 8b c0 a1 7d 6f bf
       5.7898684 0.88416183 -4.3453765 -0.9355107
000350 2c 1e a2 bf 43 10 81 40 0b a3 92 be b6 8c 86 3f
       -1.2665458 4.033235 -0.28640017 1.0511692
000360 ef 71 04 40 88 17 01 40 79 6d 4d bd 96 1b fe 3f
       2.069454 2.0170612 -0.05015323 1.9852169
000370 b2 93 45 40 a3 9d e0 be 13 ed 0d c0 3e ba b1 c0
       3.0871396 -0.43870267 -2.2175949 -5.5539846
000380 85 bc 1e 3e d4 87 59 40 a1 1e 74 bf 44 26 ab bf
       0.15501602 3.3989153 -0.95359236 -1.3371053
000390 bb a0 9a bf 41 73 5c 40 6d 6a 0a 40 91 05 1a c0
       -1.2080301 3.4445345 2.1627457 -2.4065897
0003a0 21 4c e7 bf 3b 89 a6 3f 55 6e 03 c0 4f 0b fa 3f
       -1.8070108 1.301063 -2.0536091 1.9534701
0003b0 48 c3 40 3f f9 6f 88 bf 79 93 d9 bf 05 5b a9 3e
       0.75297976 -1.0659171 -1.699813 0.33077255
0003c0 ad af 02 40 94 0e 50 3f 49 54 19 bf 7f 61 2b 3f
       2.0419724 0.81272244 -0.59894234 0.6694564
0003d0 d4 fe a6 bf ef 55 4b 3f db c1 24 3f 6b 0a b8 be
       -1.3046517 0.79428 0.643583 -0.35945448
0003e0 06 04 94 3f 4f 50 71 c0 52 75 67 40 23 a2 54 bf
       1.1563728 -3.7705266 3.6165357 -0.830599
0003f0 8f 6a 95 bf ea c8 d8 bf d5 e9 5d 3f e0 91 07 bf
       -1.1673144 -1.6936314 0.86684924 -0.5295696

conv2.bias f4 [32]
000000 07 bc 35 3f 59 fa e8 bf 13 e6 ae bf d3 b3 f5 bf
       0.7099003 -1.82014 -1.3663963 -1.9195503
000010 67 e8 81 be ab 6e a3 3f 24 d7 a1 40 a3 8e b3 3f
       -0.2537262 1.2768148 5.0575123 1.4027904
000020 1a 50 83 3c d5 ba 45 40 7f cf ec be 51 5d cc 3e
       0.016029406 3.0895283 -0.46252057 0.39914945
000030 cc e4 2e 3f d7 67 57 bf 38 ca ed 3f e8 2a 8c be
       0.68317866 -0.8414282 1.8577337 -0.27376485
000040 ae 24 ac bf c1 3b 30 bf 8a 80 a4 c0 5e 84 69 3c
       -1.3448694 -0.6884118 -5.140691 0.01425275
000050 f8 ee 53 be 81 a4 dd c0 7d a1 b1 3f 12 be d6 bf
       -0.20696628 -6.926331 1.3877407 -1.6776755
000060 9f 8d 82 40 40 6f 8e 40 8a 10 c3 bf bd ae 3a bf
       4.0797877 4.4510803 -1.5239422 -0.7292288
000070 82 c8 8b be 35 fd 22 3e 3d 7f 8c bf 4f 55 16 bf
       -0.27301413 0.15916903 -1.097633 -0.5872392

bn2.weight f4 [32]
000000 12 78 b9 3f 8b d0 76 40 ce 19 a2 40 1a ea c9 40
       1.4489768 3.8564785 5.06565 6.309827
000010 31 ad 72 40 3f c7 a4 40 07 00 ac 40 cf 83 8e 40
       3.7918208 5.149322 5.3750033 4.45359
000020 a0 45 a4 bb 70 5c 4f 40 c7 32 82 40 40 d2 c1 40
       -0.0050131828 3.240017 4.0686984 6.0569153
000030 19 50 b9 3f b6 6a 94 40 8b 45 a8 40 bf ca e1 3f
       1.4477569 4.638026 5.258489 1.7639998
000040 cd 4c 89 40 2a 92 c8 3f a5 19 5d 40 04 e2 be bb
       4.290625 1.5669606 3.4546902 -0.005825283
000050 c0 2e 9e 40 76 d1 97 40 25 6d ab 40 26 ea c5 3f
       4.943207 4.744319 5.3570733 1.5462081
000060 f9 97 92 40 e2 26 a5 40 46 c7 3c 40 cc 23 91 40
       4.5810513 5.1609964 2.9496627 4.5356197
000070 4a 4f d6 40 71 53 8d 40 ea 2a aa 3f 0a 1d bc 40
       6.697179 4.4164357 1.3294346 5.878545

bn2.bias f4 [32]
000000 de 4e 06 c0 67 11 e9 3f 49 6a ab bf 1b 81 32 bf
       -2.0985637 1.8208436 -1.3391811 -0.6972825
000010 83 91 12 bf 60 7a a9 bf 71 16 ba bf b6 61 e5 bd
       -0.57253283 -1.3240471 -1.4538099 -0.112002775
000020 7a 4e 21 bf d3 90 05 c0 75 d6 70 bf 7b 04 87 bf
       -0.6301037 -2.0869644 -0.94077235 -1.0548242
000030 88 db 82 c0 15 d4 9e bf 46 bb bc bf 0f f5 5f c0
       -4.0892982 -1.2408472 -1.4744651 -3.4993322
000040 bd 7e 86 bf 72 49 d1 bf 93 69 56 bf 17 05 c4 be
       -1.0507427 -1.6350539 -0.83754843 -0.38285133
000050 60 7c 4e bf c7 4a aa bf be fc 9f bf 54 7e 72 c0
       -0.8065853 -1.330407 -1.2499006 -3.7889605
000060 80 3a 63 bf 35 5e b5 bf b1 4d 1c 3f 58 84 13 3f
       -0.8876114 -1.4169375 0.6105605 0.57623816
000070 7d 47 aa bf 6b bb 4b bf 58 c0 27 c0 f8 a5 a9 bf
       -1.3303066 -0.7958285 -2.6211147 -1.3253775

bn2.running_mean f4 [32]
000000 c0 1a c8 c1 54 1a 0e c4 7d 0e 95 c3 fa 47 06 c4
       -25.013062 -568.4114 -298.1132 -537.12463
000010 74 63 c4 c2 ec e1 8d c3 13 25 8d c3 3d 6b bd c3
       -98.194244 -283.765 -282.28964 -378.8378
000020 84 1f eb 41 13 a6 6f c3 50 cd 64 c3 c8 cf f1 c3
       29.390388 -239.64873 -228.802 -483.6233
000030 1e 5f 7a 43 ca 3d e3 c3 21 e9 9a c3 cd 14 97 41
       250.37155 -454.48273 -309.82132 18.885157
000040 dd 97 a6 c3 6d 8d 76 43 d0 e6 9e c3 dc be 36 43
       -333.18643 246.55244 -317.80322 182.74554
000050 0f 55 ba c3 c9 a7 87 c3 ab 9d 78 c3 0e 83 41 42
       -372.66452 -271.31082 -248.61589 48.377983
000060 46 97 b2 c3 88 58 a3 c3 64 5d 9b c3 0d f9 31 c4
       -357.18182 -326.69165 -310.7296 -711.8914
000070 fb 77 02 c4 66 af ac c3 63 48 0f 44 e5 04 d7 c3
       -521.8747 -345.3703 573.13104 -430.03824

bn2.running_var f4 [32]
000000 1c 04 84 46 51 f2 51 47 f1 ae ca 46 13 0e 32 47
       16898.055 53746.316 25943.47 45582.074
000010 f7 f5 7d 46 91 78 91 46 59 86 ad 46 e1 e9 d6 46
       16253.491 18620.283 22211.174 27508.94
000020 56 69 9c 44 8e 7d 98 46 34 a9 94 46 6e 94 0e 47
       1251.2917 19518.777 19028.602 36500.43
000030 9a 56 5e 46 41 d2 01 47 95 4e bf 46 15 c0 49 46
       14229.65 33234.254 24487.291 12912.0205
000040 c6 06 cb 46 6f 4e 89 46 cb 56 c1 46 5c 36 7d 45
       25987.387 17575.217 24747.396 4051.3975
000050 9a 55 03 47 07 92 88 46 d0 df a7 46 e0 16 3c 46
       33621.6 17481.014 21487.906 12037.719
000060 76 7e 9e 46 78 a3 aa 46 60 84 e7 46 10 b4 9f 47
       20287.23 21841.734 29634.188 81768.125
000070 07 52 17 47 d6 4a 9b 46 57 a7 17 47 25 d8 07 47
       38738.027 19877.418 38823.34 34776.145

conv3.weight f4 [32, 32, 5, 5]
000000 e0 e8 fd 3e 80 13 fc 3f 9d a5 f0 be 14 d9 bd bf
       0.49591732 1.9693451 -0.47001353 -1.4831872
000010 88 74 2a 40 4f e0 84 3f f3 71 10 40 74 da f4 3f
       2.6633625 1.0380954 2.256955 1.9129167
000020 bf fe 09 bf 9f 90 d9 c0 a2 2f b1 bf f1 56 5b 3d
       -0.53904337 -6.798904 -1.3842661 0.05354971
000030 9d d1 75 c0 48 d3 36 bf 69 c8 be c0 ad 27 dc 3f
       -3.8409188 -0.7141614 -5.961964 1.7199608
000040 f4 02 b1 bf a8 5b 89 c0 39 85 bb 3f 07 43 86 c0
       -1.3829026 -4.2924385 1.4650031 -4.195682
000050 f1 23 b0 3e 4a 1a 84 c0 e7 53 16 c0 53 7f 2d 40
       0.3440242 -4.128209 -2.348871 2.7108963
000060 1f bf 6d bf da 69 19 c0 ef ff c2 bf f7 90 6c c0
       -0.9286975 -2.3970857 -1.5234355 -3.696348
000070 a5 77 4b 40 00 74 b9 bf c1 c7 35 c0 70 0f 33 3f
       3.1791775 -1.4488525 -2.840317 0.6994543
000080 15 72 1c c0 20 e4 75 3f 24 70 e2 bf 01 b0 fb 3e
       -2.444463 0.96051216 -1.7690473 0.49157718
000090 2c 09 19 bd c8 f6 14 be e2 c3 36 40 59 a1 8d 3f
       -0.037362263 -0.14547265 2.8557057 1.1064864
0000a0 aa d2 00 40 b6 4d 55 c0 81 3a ab 3e a4 40 47 40
       2.012858 -3.332868 0.33443072 3.1133204
0000b0 bf dc e2 bf 35 42 c9 3e fe f4 59 c0 66 2b 62 40
       -1.7723616 0.39308324 -3.4055781 3.5338988
0000c0 60 63 a5 3f 20 fa f4 be 8c fc 2e c0 d8 d8 95 c0
       1.2920952 -0.4784708 -2.7341642 -4.68272
0000d0 53 fb e1 bf 49 49 9c 3e 88 99 63 40 77 31 19 bf
       -1.7654823 0.30524662 3.5562458 -0.598411
0000e0 bd 55 8d c0 2b ef 58 40 06 5c 81 40 c4 5c 3f c0
       -4.416716 3.3895977 4.0424833 -2.990037
0000f0 c3 ad ff 3e 92 f8 a9 3f 72 57 79 bf 8e 27 3b 3e
       0.49937257 1.3278983 -0.97399056 0.18276808
000100 e5 c0 37 3e 37 84 b4 40 1f c6 40 c0 e4 29 bf 3e
       0.17944677 5.6411395 -3.0120924 0.37336648
000110 49 1a a3 c0 43 c5 00 c0 15 26 5a c0 fd 73 25 be
       -5.0969586 -2.01204 -3.4085743 -0.16157527
000120 dd 92 7c 40 70 a2 06 40 42 f1 b2 c0 2b 09 38 c0
       3.9464638 2.1036644 -5.5919504 -2.8755596
000130 c4 80 5e 40 0d e5 07 40 49 a6 88 c0 e3 3e 36 40
       3.4766092 2.1233552 -4.2702985 2.8475883
000140 d3 41 c4 c0 0a 74 18 40 0a 68 8b 40 ac 49 93 c0
       -6.133035 2.3820825 4.35645 -4.602743
000150 fb cf 2d c0 57 7b 8a 3e b3 dd 13 40 6d ca 28 c0
       -2.7158191 0.27047226 2.3104064 -2.637355
000160 82 8d 97 c0 ac f1 b3 40 16 f5 85 c0 77 f9 03 40
       -4.736024 5.623251 -4.1861677 2.0621011
000170 76 3f 90 40 40 33 e3 bf c8 8b e7 40 a0 45 ba bf
       4.5077467 -1.7750015 7.235813 -1.4552498
000180 4c 9f ce c0 56 83 9e 40 bf db 43 bf ab 8a 12 c0
       -6.4569454 4.953532 -0.7650718 -2.2897136
000190 35 76 e5 c0 4a 92 5a bf 18 98 b7 bf 74 d6 03 c0
       -7.1706796 -0.8537947 -1.434329 -2.0599642
0001a0 30 27 a1 3e b2 62 76 3d d8 d0 1a be af 14 02 c0
       0.3147521 0.060152717 -0.1511873 -2.0325124
0001b0 5c 92 0f c1 7f 4b 80 c0 37 cf c7 bf ac de 46 bf
       -8.973232 -4.009216 -1.5610112 -0.7768352
0001c0 e9 b5 b3 be e9 f0 44 40 3e 40 10 c0 4a 03 31 40
       -0.35099724 3.077204 -2.253921 2.7658257
0001d0 f3 77 26 40 13 f3 96 bf 42 ad 13 40 03 82 0b c0
       2.6010711 -1.179293 2.3074498 -2.1798103
0001e0 d6 ee 49 bf c8 40 15 bf d1 63 2a 3f cd fa c3 3f
       -0.7888006 -0.58301973 0.6655856 1.5310913
0001f0 c2 b7 ef bf 19 cb 35 c0 be 73 3b 3e 59 be 47 3f
       -1.8727953 -2.840521 0.18305871 0.7802482
000200 0e e7 d7 be bc d9 ae 3f 2c 1d 81 c0 6a 4c f1 3f
       -0.42168468 1.3660197 -4.034811 1.8851445
000210 9d f7 58 bd f4 db 02 c0 31 3b a6 c0 94 44 33 c0
       -0.052970517 -2.0446749 -5.1947255 -2.8010607
000220 c1 e1 15 c0 02 7a dd bf 6e 68 e6 3f 1e 91 71 c0
       -2.341904 -1.7302859 1.800062 -3.7744823
000230 36 d8 31 c0 42 8f d6 3f fe e4 01 40 75 ea 32 bf
       -2.7788215 1.6762469 2.0296016 -0.69889003
000240 4e b5 ba 3d b6 d0 a2 c0 dc 25 43 3f e6 a7 ab 3e
       0.091166124 -5.0879774 0.76229644 0.33526534
000250 bc 79 3c 40 52 eb ca bf a3 34 8b c0 3b 7b 75 c0
       2.94493 -1.5853064 -4.3501754 -3.8356464
000260 9e ba 5a bf 74 7b 2b c0 ec b3 9b 40 42 0f 14 bf
       -0.85441005 -2.67941 4.865713 -0.5783578
000270 78 31 8a bc 58 e6 e2 bf de 1b 17 40 df dc 51 3f
       -0.016869292 -1.7726545 2.3610759 0.8197765
000280 4f 0a 3f 3f a1 f3 3e c0 d9 1a ab 40 02 5e 78 3f
       0.74625105 -2.98362 5.3470273 0.97018445
000290 c1 f3 07 3f 51 33 f7 3f f5 dd a7 bf a3 c5 42 40
       0.53106314 1.9312536 -1.3114611 3.0433128
0002a0 80 75 37 3f 83 71 0b bf 5d 21 15 3d 50 fd d1 c0
       0.71663666 -0.5447008 0.03640877 -6.562172
0002b0 32 c4 f0 3f 35 24 b6 c0 8a dc c5 3f 89 4c bc c0
       1.8809874 -5.69192 1.5457928 -5.8843427
0002c0 22 df 5d c0 74 63 67 40 f4 a8 be c0 1c e2 5d 40
       -3.466744 3.6154451 -5.958124 3.4669256
0002d0 26 ea 8d c0 fa 70 5a 40 52 d1 aa 3f 12 b2 dd 3f
       -4.4348326 3.4131455 1.334513 1.7319968
0002e0 51 d2 b8 bf 9c 23 87 be 94 d9 98 be 14 84 9a 40
       -1.4439183 -0.26394355 -0.298535 4.828623
0002f0 b4 11 9e bf 4b 67 bd bf 1b 78 ce bf e7 ba 66 bf
       -1.2349153 -1.4797148 -1.6130403 -0.9012894
000300 27 3d 5e bf 9e bc b6 bf f5 3c 1f c0 12 ec c7 bf
       -0.8681206 -1.4276311 -2.4880955 -1.5618918
000310 7f a0 3d 40 1f a2 40 40 a3 4c 81 40 c0 24 dc be
       2.962921 3.009895 4.040605 -0.42996788
000320 de 85 e5 3c 84 d5 85 3d b1 47 48 bd 90 09 ea bd
       0.028017934 0.065348655 -0.048896495 -0.11427605
000330 bf ca b1 3c 15 5d 20 3e 90 4d 3e 3e fe 6c 02 3c
       0.021703122 0.15660508 0.18584275 0.007960556
000340 75 c9 d6 3d 4e 13 a4 3d 84 f5 34 3e 1f a0 39 3e
       0.10487644 0.080114946 0.17671782 0.18127488
000350 d6 dd 13 3c 55 50 6e bd de 68 b3 3e 7c 3c 2c 3e
       0.009025058 -0.05818208 0.35040945 0.16819948
000360 bf 6d 51 bc 46 fa ae 3c 90 b3 50 3e 1e ad 05 3f
       -0.012782513 0.021359574 0.20380998 0.5221728
000370 09 05 cd 3d 2a dd 86 be e3 c8 e6 3e 06 6c a2 be
       0.10010726 -0.2634061 0.4507514 -0.3172304
000380 f7 33 03 3f 6f a9 56 c0 93 d1 13 40 f9 30 2e 3f
       0.5125117 -3.3540914 2.3096664 0.68043476
000390 1c a5 a6 bf c2 91 0a 40 92 ce e7 bf 94 4e 4a 40
       -1.3019137 2.1651464 -1.8109915 3.161046
0003a0 d6 bf 28 be 62 52 62 bf 21 71 21 c0 a0 a1 f1 3f
       -0.1647943 -0.88406956 -2.5225298 1.8877449
0003b0 98 aa 3a 40 b0 22 46 3f d1 28 5b bf 1c 5c 50 bf
       2.9166622 0.7739668 -0.85609156 -0.8139055
0003c0 29 b3 75 bf 6c bd 41 bf 2c 23 c2 bf b4 d3 d2 be
       -0.959765 -0.7567966 -1.5166984 -0.41177142
0003d0 e3 2a dd 3d 31 b6 bf 3f 4c 64 f2 bf 7e 6d 57 bf
       0.107991956 1.4977475 -1.8936858 -0.84151447
0003e0 43 13 00 c0 e8 12 82 40 1f c7 46 3f fb a8 82 c0
       -2.0011756 4.064808 0.77647585 -4.0831275
0003f0 34 90 2a c0 09 02 17 c0 13 36 dd c0 45 08 65 40
       -2.6650515 -2.3594992 -6.912851 3.5786297

conv3.bias f4 [32]
000000 7e 00 80 bf 31 09 49 be 59 a5 4e 3f 4c 69 7c be
       -1.000015 -0.19632412 0.8072105 -0.24649543
000010 0d 4e a3 3e a3 06 4d 3f 34 e7 4d c0 0a 15 ed bf
       0.31895486 0.8008825 -3.2172365 -1.8522046
000020 69 44 92 3f 36 93 15 bf fa 49 9b 3f 3e 88 39 3e
       1.1427127 -0.5842775 1.2131951 0.18118379
000030 36 79 c3 bf 00 e8 a8 3f 86 f5 36 c0 e0 8a a3 3e
       -1.5271366 1.3195801 -2.8587356 0.3194189
000040 c0 77 0e 3d 3d 81 c2 3d 99 f2 4b bf e4 70 f3 bc
       0.03478217 0.094973065 -0.7966705 -0.029716916
000050 77 c5 9a be 97 f5 ef bc c8 53 6e bf 0a e9 be 3e
       -0.3022878 -0.029291911 -0.9309659 0.3728717
000060 0c 6a 91 3e 6b df 40 bf 97 0d ce 3f 00 69 af 3b
       0.2840122 -0.7534091 1.6097897 0.005353093
000070 3a b9 6e 3f ee 78 d6 3f 85 55 ff 3e 34 83 ce bc
       0.93251383 1.6755655 0.49869934 -0.025209047

bn3.weight f4 [32]
000000 6e 2c 1f 40 4f ce 3e 40 67 72 5f 40 82 14 85 40
       2.4870868 2.981342 3.4913576 4.1587534
000010 f6 90 76 40 0a cc 7b 40 57 b4 89 40 7e 05 39 40
       3.8525977 3.9343286 4.303264 2.8909602
000020 69 33 55 40 5c 08 8c 40 ff f1 11 40 2e 22 55 40
       3.3312628 4.3760204 2.2803953 3.3302112
000030 42 f6 59 40 5e 9a 80 40 2f 2d 3a 40 6b 87 48 40
       3.4056554 4.0188437 2.9090078 3.1332653
000040 53 36 85 3e 35 0c 1c 40 9b 74 6b 40 58 57 82 40
       0.2601801 2.438245 3.678992 4.073162
000050 a8 1c 71 40 2c 2d 4a 40 25 2c 70 40 60 e9 74 40
       3.767374 3.159007 3.7526944 3.826744
000060 91 f1 39 40 02 46 66 40 84 bc 7c 40 93 97 98 3e
       2.905369 3.598023 3.949006 0.29803142
000070 03 60 87 40 fd 92 6a 40 8b 2a 75 40 c0 f0 6b 3e
       4.23047 3.6652215 3.8307216 0.23041058

bn3.bias f4 [32]
000000 2f 69 e4 bf db 64 8a c0 ba e4 31 c0 b0 7e 82 c0
       -1.78446 -4.3248115 -2.7795854 -4.077965
000010 c5 a7 92 c0 69 d3 90 c0 34 62 88 c0 55 b2 5e c0
       -4.5829797 -4.525807 -4.2619877 -3.4796345
000020 61 0e 77 c0 dd ce 79 c0 23 27 2b c0 f2 27 64 c0
       -3.8602526 -3.903251 -2.6742637 -3.564938
000030 53 73 4c c0 2f 2c 91 c0 99 bc 81 c0 60 2e 2d c0
       -3.1945388 -4.5366435 -4.054272 -2.7059555
000040 48 c4 3d bf 03 34 b1 bf 83 61 8e c0 37 0a 6d c0
       -0.74127626 -1.3843998 -4.4494033 -3.7037485
000050 0f a1 96 c0 00 79 4e c0 89 4f 6e c0 01 53 99 c0
       -4.7071605 -3.2261353 -3.7236044 -4.7913823
000060 15 0b 47 40 6a e1 8b c0 bb 2c 81 c0 14 9e 4e bf
       3.1100514 -4.3712664 -4.0367103 -0.8070996
000070 74 f3 82 c0 61 74 8c c0 10 68 92 c0 e8 ea 28 bf
       -4.0922184 -4.3892064 -4.575203 -0.6598344

bn3.running_mean f4 [32]
000000 2d a2 11 c3 38 3e a1 42 45 a3 a2 40 cd 00 14 41
       -145.6335 80.62152 5.0824304 9.2501955
000010 cb b9 ee 42 e3 3a 6d 41 0e dc 5d 42 eb f4 0e 42
       119.36288 14.826877 55.464897 35.739178
000020 3d 6e dd 42 2e cd 7b 42 18 4b 6a c3 02 8f 63 43
       110.71531 62.95037 -234.29333 227.55862
000030 c5 d9 78 c2 41 58 f1 40 ef ee 38 42 87 20 98 c1
       -62.212666 7.542023 46.233334 -19.015882
000040 9a 86 45 41 89 c9 87 c3 c8 d1 ed 42 ee b6 ae c1
       12.345362 -271.5745 118.90973 -21.839321
000050 6d d9 a2 42 5d d8 47 c0 b4 52 60 c1 7c b4 7b 42
       81.42466 -3.1225808 -14.020191 62.926254
000060 34 51 17 43 e8 c7 e0 c1 e0 22 f1 c0 3c cb 01 42
       151.3172 -28.09761 -7.535507 32.44847
000070 96 7e 81 41 15 49 0f c1 ce 09 0f c2 61 a9 8f 42
       16.18681 -8.955342 -35.759575 71.83082

bn3.running_var f4 [32]
000000 fe 99 6c 46 55 84 19 46 7b 2b 8a 46 38 e1 79 46
       15142.498 9825.083 17685.74 15992.305
000010 ab 47 52 46 f6 24 93 46 91 14 a4 46 fd cb 2a 46
       13457.917 18834.48 21002.283 10930.997
000020 91 21 a0 46 c5 28 04 46 e9 8d 4c 46 33 1d 9a 46
       20496.783 8458.192 13091.478 19726.6
000030 5c a5 89 46 84 7e 6c 46 9d 96 58 46 12 53 b0 46
       17618.68 15135.629 13861.653 22569.535
000040 95 8e 91 44 01 41 49 46 a9 d2 7e 46 74 7d 5d 46
       1164.4557 12880.251 16308.665 14175.363
000050 1d ed 35 46 48 f1 92 46 5c aa 9c 46 e4 2b 36 46
       11643.278 18808.64 20053.18 11658.973
000060 b2 cd c0 47 6d d5 5b 46 7e 6a 83 46 18 c4 03 44
       98715.39 14069.356 16821.246 527.06396
000070 70 3c ac 46 be 6f 82 46 bd 32 73 46 8a 0e 18 45
       22046.219 16695.871 15564.685 2432.9087

head.weight f4 [2, 512]
000000 5e 39 05 3f 2d f2 48 40 94 02 50 bc 10 b3 27 3f
       0.5204066 3.1397812 -0.012695927 0.655076
000010 18 d0 83 be 1a c3 9a bd f6 7a 93 bf 34 0d 8a 3e
       -0.257447 -0.07556744 -1.15219 0.26963198
000020 2b 4b 01 3f 2d 06 9d 3e 37 1f 93 40 b3 9c 10 3f
       0.5050532 0.30668774 4.5975604 0.56489104
000030 38 2a 3d c0 96 6b d6 3b 40 6c 9e 3f a8 72 a4 bf
       -2.9557018 0.006543587 1.2376785 -1.284749
000040 f7 84 98 3f f5 cc 0a 40 31 f9 5e be a3 44 40 bf
       1.1915578 2.1687596 -0.21774746 -0.7510473
000050 b7 3b 4b c0 48 49 c1 c0 46 1f 80 3f b7 d7 c2 bf
       -3.1755197 -6.0401955 1.0009544 -1.5222081
000060 90 67 ae bf 5c d0 01 be 3f 0d d0 3f 97 76 26 3f
       -1.3625355 -0.12677139 1.6254042 0.65024704
000070 b8 c2 09 40 6d f8 01 c0 bd c5 6c 3f c6 38 b6 3f
       2.1525097 -2.0307877 0.92489225 1.4236076
000080 eb 8b d2 40 1e 1a fa 3f 31 40 ba be fe 6b 0b c1
       6.57958 1.953922 -0.363771 -8.713865
000090 8a 1b 44 bc 89 0f ae c0 35 ba 2e bf 6c a0 83 40
       -0.011969456 -5.4393964 -0.6825288 4.1133327
0000a0 f1 54 ac 3f b7 96 c9 bf 2e 9d 8e bf 49 53 27 c0
       1.3463422 -1.574912 -1.1141717 -2.6144583
0000b0 d0 cc 85 c0 8f 28 21 40 d9 6e 0f c0 9e 98 6a bf
       -4.1812515 2.5181005 -2.2411406 -0.91639125
0000c0 a7 ea af bf 2c d0 e6 be 06 5d b2 3f 66 5d 9c c0
       -1.3743485 -0.45080698 1.3934639 -4.886401
0000d0 13 28 be c0 9f 51 23 bf 30 a4 dc be a6 de 98 3f
       -5.942392 -0.6379642 -0.43094015 1.1942947
0000e0 3c 86 40 bf 7d e8 0a bf 39 78 13 c0 c0 64 c8 c0
       -0.75204825 -0.54261 -2.3042128 -6.2622986
0000f0 15 12 08 bf b7 b5 dc 40 35 c9 b9 3d 8a f4 4c 3f
       -0.5315259 6.897182 0.0907158 0.80060637
000100 ff 9f 79 3f cc ca e8 3f e5 66 d0 3e d7 ef 79 c0
       0.9750976 1.8186889 0.40703502 -3.9052637
000110 7f ee 7a c0 1f 97 ae c0 40 d3 1c 3f 84 57 a0 be
       -3.9208066 -5.4559474 0.6125984 -0.3131677
000120 09 f7 9c bf 47 44 41 3f 99 ab b1 c0 22 25 4d c0
       -1.2262889 0.7549481 -5.552197 -3.2053914
000130 fd 88 ad bf 8c 1e 26 c1 f8 6f ff 3f 64 fe 95 3f
       -1.355743 -10.382458 1.9956045 1.1718259
000140 04 5b 38 3d 91 ab 83 3f b7 ec 07 bd 8e 00 bb c0
       0.045008674 1.0286733 -0.033184733 -5.8438177
000150 ef ad 70 c0 05 ff a7 bd ee 88 bd c0 d0 08 a0 c0
       -3.760616 -0.08202938 -5.922965 -5.0010757
000160 18 8f 6a bf 45 6a 83 bf 42 52 63 40 5b e7 09 3f
       -0.91624594 -1.0266806 3.5518956 0.53868645
000170 f0 cf 2d c0 7d 20 99 40 0c d2 40 3f 50 9d 01 bf
       -2.7158165 4.785216 0.75320506 -0.50630665
000180 5d f9 b4 3e dd 31 f3 3f 18 c0 ca 3f fa 2d bc c0
       0.353465 1.8999592 1.5839872 -5.8806124
000190 8b 60 bd c0 ee 37 07 c1 af 85 80 40 94 5f 05 3f
       -5.918035 -8.451155 4.016319 0.52098966
0001a0 16 d0 cc 3d 5a 3e d0 3e 12 5d 62 bf e4 05 a8 40
       0.10000627 0.4067257 -0.88423264 5.250719
0001b0 e9 77 98 3e 50 2f b8 c0 3a de 73 bd 84 ec ad 3e
       0.29778984 -5.7557755 -0.059538104 0.3396951
0001c0 a3 f3 71 3f c7 a9 43 40 4f 81 1b bf a4 c9 57 c0
       0.94512385 3.0572374 -0.60744184 -3.3716822
0001d0 ac 8f 11 be bb ea 11 be af c2 58 3e 42 48 d0 be
       -0.14214963 -0.14249699 0.21168016 -0.40680128
0001e0 7e 3d 23 40 fe e9 8d bf c7 4f 36 40 f4 22 96 40
       2.5506282 -1.1087034 2.8486192 4.6917667
0001f0 af 04 69 c0 68 2e ae c0 21 32 d4 40 67 df 74 3f
       -3.6409109 -5.443165 6.6311193 0.95653385
000200 cd 39 39 c0 3d e3 60 bf 41 a5 5f bf d5 0f 94 c0
       -2.8941529 -0.8784674 -0.8736153 -4.6269326
000210 55 63 15 bf 69 59 5e c0 4c 0b c6 c0 38 c2 bc 3d
       -0.58354694 -3.4742072 -6.188879 0.09216732
000220 3d a8 84 bf 9a f9 79 bf c2 12 ab bf 65 5a a8 c0
       -1.0363842 -0.97646487 -1.33651 -5.2610345
000230 ad a2 b8 3e 39 4a ae c0 b9 e5 15 c1 56 cc 69 bf
       0.36061612 -5.4465604 -9.368585 -0.91327417
000240 4a f7 dc 3f ea 91 5b be d9 c3 13 40 fa d2 15 40
       1.7262967 -0.2144238 2.3088286 2.341002
000250 d7 5b f2 bf 96 f4 b2 be f0 46 f8 bf 81 4a 5f be
       -1.8934277 -0.3495223 -1.9396648 -0.21805765
000260 3b 1e 83 bf f9 a2 11 40 ef 18 d2 c0 7b 86 9a c0
       -1.0243601 2.275572 -6.5655437 -4.828916
000270 3f 0d d0 3e 93 85 06 c1 d4 dc f5 be 12 a3 e2 3f
       0.40635106 -8.407611 -0.4802004 1.7706015
000280 32 64 29 bf 8b d3 bd 3e ae fb 1f 40 0c e9 87 3d
       -0.6616851 0.37075457 2.4997363 0.06636247
000290 af 39 ba c0 26 66 23 bf 06 74 e0 bf f4 4c 4b 3f
       -5.8195415 -0.6382774 -1.7535408 0.79414296
0002a0 26 04 2d bf b4 b2 2c 40 38 c8 97 3f 07 54 f3 3e
       -0.67584455 2.6984072 1.1857977 0.47525045
0002b0 1c 24 3d 40 b5 f6 b0 40 14 2e 97 3f 6a 82 20 40
       2.955329 5.5301156 1.1810937 2.5079598
0002c0 54 69 ee bf 87 6b 4e bf 58 9f f1 be fa 79 72 3e
       -1.8625894 -0.80632824 -0.47191882 0.23679343
0002d0 49 7f 0f 40 fa 03 48 c0 f0 6a 36 bf 36 1e e7 be
       2.2421439 -3.1252427 -0.71256924 -0.45140237
0002e0 55 12 03 3f 6e 64 25 3e ca 51 23 c0 a1 b6 63 bf
       0.5119985 0.16151592 -2.551867 -0.88950545
0002f0 4c b2 a0 c0 64 1e fc 3f fe 42 96 3f 52 aa d2 bf
       -5.0217648 1.9696774 1.1739194 -1.6458228
000300 f1 c6 12 40 7b 23 cf 3e a9 96 11 40 f9 28 1f bf
       2.2933924 0.40456757 2.2748206 -0.62171894
000310 08 bc 0a 3e d5 f3 fa 3d 56 22 53 c0 fd 26 f6 bf
       0.1354829 0.122535385 -3.2989707 -1.9230648
000320 dc 6c ce 3f 39 42 22 bf a7 22 a2 40 cb ba a6 c0
       1.6126971 -0.633823 5.06673 -5.210302
000330 4b 10 3f 40 f9 fb 02 c1 3a bf 6e 3f 1d 8a 15 bf
       2.9853694 -8.186517 0.9326054 -0.5841387
000340 c4 71 69 bf 71 4f a3 3f 53 9a 8a c0 88 c8 af 40
       -0.9118922 1.2758619 -4.3313384 5.493229
000350 be af 38 bb 80 fd 8f 3f 57 33 3b c0 34 f0 2f 3d
       -0.0028180922 1.1249237 -2.9250085 0.042953685
000360 60 db 05 bf f3 c3 9c be b3 19 20 c0 9a 44 08 c0
       -0.52287865 -0.30618247 -2.5015686 -2.129187
000370 fa a9 76 c0 a1 98 29 bd b0 cf 0b c0 41 d2 8a 3f
       -3.8541245 -0.041405324 -2.1845512 1.0845414
000380 93 ad 1a c0 e6 94 a7 3d 1a bb 23 3f e8 6f 8c 40
       -2.4168441 0.08182697 0.6395737 4.3886604
000390 d1 0e a8 c0 75 74 21 40 c2 d4 7d 3f c2 5e 9f 3e
       -5.2518086 2.522733 0.9915277 0.31126982
0003a0 6f 5e df 3e 0a 51 19 c0 af 0d b9 40 62 5e 17 c0
       0.43626735 -2.3955712 5.7829204 -2.3651357
0003b0 4b 98 f1 3e 71 25 83 40 0c 3a 1a c0 33 98 16 40
       0.47186503 4.0983205 -2.409793 2.3530395
0003c0 31 60 a5 be 34 d7 40 3c fe b2 47 40 aa e2 f8 c0
       -0.3229995 0.011770058 3.1202998 -7.777669
0003d0 a8 35 8d c0 dd 77 1e c1 7d c3 97 c0 16 e6 7f c0
       -4.4128 -9.9042635 -4.7426133 -3.9984183
0003e0 11 c9 0c bf d4 bb 59 40 8d 0a b9 be 40 db 9e c0
       -0.54994303 3.402089 -0.36140862 -4.964264
0003f0 fa 0e 9c 40 d6 c6 90 40 a0 fd ba 3f 18 16 50 40
       4.876828 4.524272 1.460865 3.2513485

head.bias f4 [2]
000000 41 cb 9a 40 18 b1 94 40
       4.8373113 4.646618
