original_model.pth (torch, 5391 bytes, 4 tensors)

fc.0.weight f4 [128, 4]
-0.35052347 -0.73048836 0.21792242 -0.10749337 0.14896424 -0.41656405 0.20338021 0.3225268
-0.31811506 0.43901306 -0.3597658 -0.38058168 0.26897824 -0.37975085 -0.5188279 0.39400482
0.0058673187 -0.23193792 -0.121590376 -0.13652341 -0.018408997 -0.045623273 0.249941 0.35044882
-0.40779012 -0.22161132 -0.26420566 0.11348479 -0.09507507 0.3877219 -0.2185857 0.10526408
0.1446134 -0.09820856 -0.25872093 -0.5092694 0.25754872 0.13117652 -0.13074796 0.26703256
-0.47649026 -0.35431212 -0.13297598 0.3298514 0.1897339 -0.43374562 -0.07692534 0.5029824
-0.053986233 0.48830715 0.19545962 0.024661763 -0.16585635 -0.38099295 -0.17765677 -0.5399476
0.11070596 -0.13092759 0.39700046 0.5033456 0.1395306 0.03243917 0.51561254 -0.007304595
-0.22311594 -0.50788146 0.1998605 0.46849033 -0.3433966 -0.017175157 0.5862382 0.35001385
-0.18816403 0.45731285 0.43301997 -0.30431598 0.21923408 0.27841765 -0.12285397 0.04380915
0.28624997 0.36395007 -0.2456516 0.42361915 0.26600167 -0.16321461 -0.38898468 -0.18660524
-0.06508869 -0.1674022 0.018718971 0.1648655 -0.4299953 0.106914006 -0.19167978 0.008178272
0.32697073 0.3065488 0.14468126 0.28227004 0.04816746 -0.05774846 0.35585144 -0.49710095
0.21227363 0.28055453 -0.31667334 -0.15779305 -0.18754719 -0.3717719 0.3945798 0.34879526
-0.40997973 -0.18184671 0.15806915 0.14741702 0.66282237 0.3841482 0.032028917 0.6122289
-0.06845486 -0.1500464 0.05639897 0.3200599 0.20844878 -0.80366915 -0.29163906 -0.43729752
-0.58677316 -0.78959805 0.4323288 -0.17822514 -0.053013604 -0.27640477 -0.5193503 -0.35560346
-0.03867361 0.21743995 -0.25418407 0.43764147 0.24810949 -0.21074718 0.57510716 -0.16382113
-0.40851882 0.88130945 0.57340336 -0.21802534 0.25541753 -0.1568887 0.14557825 0.26169196
0.037034623 -0.029532878 -0.37964123 0.47336578 -0.1719761 0.032496393 0.6341426 0.34829357
-0.07934684 -0.4210465 0.14812526 0.23746623 -0.04066068 -0.33004776 0.36440745 -0.3870884
0.34734082 0.32802838 0.22668685 0.47521773 0.00025858686 0.5316795 -0.11146151 0.49005562
-0.1692806 -0.3357359 -0.17598416 0.20649448 -0.07072866 -0.5687199 0.11821849 0.15189157
-0.012848652 -0.3517196 0.083448395 0.44335157 0.38863382 -0.7693656 -0.6253612 0.38661566
0.114876255 0.32703933 -0.02777141 -0.48338217 -0.1209517 -0.3933754 -0.29943964 -0.07368942
0.2539381 -0.056021225 -0.20650357 -0.24198738 0.17226829 0.25878927 -0.40837482 0.4493055
0.46891192 0.54743415 -0.77650875 -0.29719782 -0.24277382 -0.29786986 0.27961695 -0.25243795
-0.22015285 -0.64137316 -0.10435975 0.3534991 -0.10643699 -0.014333951 0.103097446 0.023580318
0.29945648 -0.3933228 -0.6155898 0.07894692 0.018664027 -0.2598473 -0.26731375 0.37489697
-0.18166429 -0.32152975 0.03782607 -0.065488346 0.313324 -0.42975968 0.46726364 -0.49695033
-0.03017638 -0.49497396 0.05373773 0.59662044 0.16405824 -0.41925588 0.18863434 0.30098158
0.52686703 0.45989248 -0.28206664 0.54668087 0.10454621 -0.35765442 0.16631752 -0.30009463
00000000: d077 b3be 4901 3bbf 0e27 5f3e 7c25 dcbd
00000010: 158a 183e e247 d5be e742 503e 3c22 a53e
00000020: fadf a2be 52c6 e03e 3933 b8be 9adb c2be
00000030: 84b7 893e b46e c2be e8d1 04bf 00bb c93e
00000040: a342 c03b 2281 6dbe 6004 f9bd cbcc 0bbe
00000050: 77ce 96bc 78df 3abd 89f0 7f3e 076e b33e
00000060: dec9 d0be 14ee 62be f745 87be b76a e83d
00000070: b8b6 c2bd 7c83 c63e eed4 5fbe b294 d73d
00000080: 8915 143e 9221 c9bd 1277 84be 7b5f 02bf
00000090: 6ddd 833e 2353 063e cbe2 05be 7eb8 883e
000000a0: 88f6 f3be 6668 b5be db2a 08be 48e2 a83e
000000b0: 9a49 423e e813 debe 088b 9dbd 74c3 003f
000000c0: ab20 5dbd 6503 fa3e 9126 483e 7707 ca3c
000000d0: 3fd6 29be 8211 c3be a8eb 35be 023a 0abf
000000e0: ceb9 e23d e211 06be a543 cb3e 42db 003f
000000f0: 1ce1 0e3e efde 043d 2fff 033f 625b efbb
00000100: 8178 64be 8504 02bf 3ba8 4c3e f7dd ef3e
00000110: aed1 afbe eab2 8cbc b513 163f 0435 b33e
00000120: 12ae 40be e924 ea3e cbb4 dd3e 4ecf 9bbe
00000130: e67e 603e c28c 8e3e dd9a fbbd 3971 333d
00000140: 5b8f 923e aa57 ba3e 188c 7bbe 9ce4 d83e
00000150: 5f31 883e bb21 27be 0029 c7be 7215 3fbe
00000160: 384d 85bd 7b6b 2bbe 8758 993c 80d2 283e
00000170: 5828 dcbe bbf5 da3d b447 44be 29fe 053c
00000180: b568 a73e f7f3 9c3e 5327 143e b385 903e
00000190: 3e4b 453d a689 6cbd 2932 b63e 0484 febe
000001a0: 425e 593e d8a4 8f3e 0223 a2be 8094 21be
000001b0: 5f0c 40be e358 bebe 5d06 ca3e 4b95 b23e
000001c0: dde8 d1be 0636 3abe e1dc 213e 7df4 163e
000001d0: baae 293f 13af c43e c130 033d 08bb 1c3f
000001e0: 1032 8cbd c3a5 19be 9b02 673d e4de a33e
000001f0: 9973 553e 43bd 4dbf b751 95be 76e5 dfbe
00000200: c436 16bf 1923 4abf 335a dd3e a780 36be
00000210: cb24 59bd ed84 8dbe 24f4 04bf a811 b6be
00000220: 3868 1ebd 94a8 5e3e 6a24 82be 8b12 e03e
00000230: 6a10 7e3e 1cce 57be 393a 133f bac0 27be
00000240: 6129 d1be 7f9d 613f 90ca 123f 0942 5fbe
00000250: 16c6 823e 6ea7 20be 7712 153e 7dfc 853e
00000260: 9eb1 173d efee f1bc 5660 c2be 005d f23e
00000270: 811a 30be f01a 053d 2b57 223f 8953 b23e
00000280: 9980 a2bd 6893 d7be 26ae 173e 592a 733e
00000290: d08b 26bd 05fc a8be 9d93 ba3e 7330 c6be
000002a0: a8d6 b13e 56f3 a73e 9920 683e bd4f f33e
000002b0: f192 8739 261c 083f ef45 e4bd 92e8 fa3e
000002c0: e557 2dbe 93e5 abbe 3135 34be 4a73 533e
000002d0: 30da 90bd a197 11bf 891c f23d 7789 1b3e
000002e0: 2783 52bc 9714 b4be fee6 aa3d fafe e23e
000002f0: 03fb c63e 25f5 44bf ac17 20bf 7df2 c53e
00000300: 3e44 eb3d b371 a73e de80 e3bc de7d f7be
00000310: 86b5 f7bd 8068 c9be 2750 99be 7bea 96bd
00000320: 2d04 823e 8376 65bd ac75 53be 8acb 77be
00000330: 1967 303e 0780 843e 8116 d1be 5f0b e63e
00000340: 3915 f03e a524 0c3f 47c9 46bf 502a 98be
00000350: b399 78be 6682 98be f429 8f3e 8c3f 81be
00000360: c06f 61be 0831 24bf 91ba d5bd d6fd b43e
00000370: a3fb d9bd f3d8 6abc c124 d33d 832b c13c
00000380: 5c52 993e 9b61 c9be 4b97 1dbf ecae a13d
00000390: 4de5 983c b50a 85be 59dd 88be 7ff2 bf3e
000003a0: 3406 3abe 8c9f a4be 82ef 1a3d c11e 86bd
000003b0: 016c a03e 7609 dcbe 2e3d ef3e 4670 febe
000003c0: 7534 f7bc 3a6d fdbe 181c 5c3d 1ebc 183f
000003d0: e2fe 273e b5a8 d6be 5c29 413e 421a 9a3e
000003e0: c2e0 063f 0777 eb3e 0a6b 90be 47f3 0b3f
000003f0: 531c d63d 7b1e b7be 244f 2a3e 01a6 99be

fc.0.bias f4 [128]
0.57440996 -0.35561708 0.22183084 0.31010732 -0.17399101 0.2038726 -0.21243212 -0.4106037
-0.006796902 -0.10323844 -0.41560736 0.32551536 -0.18363595 0.51814115 -0.36907974 -0.5865273
0.28912136 0.13749354 0.14088337 -0.71845615 0.39777228 0.2391532 0.47499296 -0.053536337
-0.06437871 0.15969974 -0.5810845 -0.013760574 -0.0018987233 -0.08273998 0.3680055 0.54342717
0.09623092 -0.009049129 0.2944427 -0.41996282 -0.30012167 0.59797156 0.4926387 0.23765017
0.021922043 -0.11653697 0.0070165414 0.23523651 -0.019963125 -0.04490864 -0.20082067 -0.32229236
-0.054101884 -0.396119 0.72343874 -0.43130037 -0.33836424 0.38787895 -0.37767974 -0.3448194
-0.32126445 -0.2314823 -0.09456625 0.19460823 0.071980335 -0.032434203 0.11470121 -0.15818349
-0.13003501 -0.63095194 -0.24109513 0.13694385 -0.31623247 -0.21565978 -0.026731988 0.09585438
0.6713178 0.35022303 0.70833516 0.7123084 0.21484198 -0.41262883 -0.31159997 -0.34996647
-0.3967664 0.43870515 0.22784083 0.28477386 0.01537322 0.110680185 -0.6337275 0.30167317
0.13413687 0.6977744 0.35960457 0.277626 0.33535352 -0.18385407 -0.28646657 0.033589758
0.6562185 -0.43565467 0.6165171 -0.49035585 -0.11905374 0.2608245 -0.28588971 0.2623072
-0.14031899 0.10753219 -0.34741986 0.05726137 -0.083258465 0.26511055 -0.25871456 -0.3629293
0.16646856 -0.2467936 0.30767012 -0.54101104 0.1436441 -0.44502044 0.11442681 0.15894113
0.26044804 -0.06217387 -0.023184583 0.071195655 -0.26317748 -0.15570396 -0.4339665 -0.20721576
00000000: 880c 133f 7113 b6be a027 633e 63c6 9e3e
00000010: b32a 32be fbc3 503e ce87 59be a63a d2be
00000020: 8cb8 debb ad6e d3bd 7dca d4be f3a9 a63e
00000030: 100b 3cbe e6a4 043f 05f8 bcbe a726 16bf
00000040: b707 943e 1bcb 0c3e bb43 103e beec 37bf
00000050: cfa8 cb3e 94e4 743e 4732 f33e eb48 5bbd
00000060: fcd8 83bd 5488 233e f4c1 14bf 0874 61bc
00000070: 95de f8ba 9473 a9bd 386b bc3e 0b1e 0b3f
00000080: b714 c53d cc42 14bc 32c1 963e 5e05 d7be
00000090: 8ca9 99be aa14 193f 243b fc3e 915a 733e
000000a0: db95 b33c efaa eebd 04eb e53b d7e1 703e
000000b0: b589 a3bc 1ff2 37bd efa3 4dbe 8103 a5be
000000c0: f099 5dbd 1cd0 cabe 4833 393f 67d3 dcbe
000000d0: 143e adbe 1298 c63e 3d5f c1be 2b8c b0be
000000e0: c67c a4be b209 6dbe f3ab c1bd 6147 473e
000000f0: 6d6a 933d bad9 04bd 78e8 ea3d dafa 21be
00000100: e627 05be 1186 21bf a4e1 76be 023b 0c3e
00000110: 39e9 a1be ebd5 5cbe 0bfd dabc 4d4f c43d
00000120: 7cdb 2b3f 6f50 b33e 7455 353f d859 363f
00000130: 89ff 5b3e 1644 d3be 088a 9fbe ce2e b3be
00000140: f724 cbbe f69d e03e 1b4f 693e e1cd 913e
00000150: f5df 7b3c 4bac e23d f73b 22bf e874 9a3e
00000160: 2d5b 093e 58a1 323f 171e b83e ff24 8e3e
00000170: 75b3 ab3e 3e44 3cbe bfab 92be 6a95 093d
00000180: f0fd 273f 210e dfbe 11d4 1d3f ec0f fbbe
00000190: 72d2 f3bd ca8a 853e 2360 92be 214d 863e
000001a0: c8af 0fbe d639 dc3d 04e1 b1be e68a 6a3d
000001b0: 6a83 aabd 92bc 873e 3c76 84be dfd1 b9be
000001c0: bc76 2a3e 76b7 7cbe f086 9d3e b37f 0abf
000001d0: 7017 133e b8d9 e3be 9a58 ea3d 77c1 223e
000001e0: 7259 853e 07aa 7ebd 98ed bdbc 07cf 913d
000001f0: 33bf 86be dc70 1fbe db30 debe 5e30 54be

fc.2.weight f4 [2, 128]
0.041196253 0.009664574 0.27138746 0.23502488 -0.12620276 -0.4250524 0.07814245 -0.40479615
0.17005783 0.22116747 -0.4230401 -0.086433165 -0.06084598 0.28997144 -0.13195269 0.28928533
-0.14584719 -0.42513284 0.13469425 0.13514414 -0.22183834 0.4378012 -0.3639876 0.35776123
0.085333385 0.18862653 0.18531035 -0.17910497 0.11949934 0.27158865 -0.28963023 0.11924402
0.118794054 0.038300455 -0.021257 -0.15508588 -0.29296014 0.27249572 -0.40381697 -0.4239869
0.09312015 0.18305698 -0.26873273 -0.15349688 0.05876131 -0.004964778 0.047101665 -0.06332536
0.13067824 -0.09913986 0.36697987 -0.17533767 0.12402237 0.0006279828 0.2329443 -0.19082527
-0.10175978 0.099548474 0.16853072 0.12904538 -0.092081666 -0.059951924 -0.25628692 -0.13117984
-0.2401772 -0.21751294 0.04287376 -0.40979487 -0.203065 0.062476877 0.28508395 -0.032909695
0.08269852 -0.0451481 0.27325994 -0.041767944 -0.13419928 -0.20467354 -0.23291843 0.08587732
-0.17850316 0.036960304 -0.041144855 0.17447953 0.049206175 0.058788836 0.024709966 0.043872133
-0.18630958 0.04252413 -0.11746634 -0.1934093 0.4707557 -0.06258496 -0.05611929 -0.0911371
0.16061437 -0.02875765 -0.34584147 0.062065918 0.16521706 0.03788388 -0.077254884 -0.24320003
0.057204682 0.006459741 0.05518503 -0.017722894 -0.04156492 0.16078277 0.089029565 -0.12678812
-0.3131109 -0.077887274 0.16530406 -0.2094942 0.04514602 -0.24205616 0.13309516 -0.052956685
-0.010563053 0.03280015 0.06769308 -0.09358885 -0.013663848 -0.062525 -0.007507654 -0.040324513
0.2142942 0.01925122 0.107099794 -0.09391251 0.090642616 0.09393268 0.13186117 0.0074576847
-0.15769322 -0.119037785 0.21463051 0.18312839 -0.11415509 -0.16963655 -0.1260404 -0.21409987
0.32765248 0.05180732 0.015309677 -0.26450762 -0.10453074 -0.14119667 -0.07494576 -0.19710572
0.02800973 0.10884154 0.11918639 -0.26523226 -0.03411215 -0.0068804207 0.12729238 -0.25077182
-0.20182322 0.15334888 0.08505646 0.24735531 -0.102646075 0.11237774 0.30572683 0.67247075
0.1107631 -0.23817097 0.21692057 0.3688297 0.12986875 0.44207257 0.28705236 -0.21664137
-0.3316954 0.0026211012 -0.021056546 0.21935418 -0.0018134224 -0.13543619 -0.133551 -0.06774797
-0.14589445 -0.2620512 0.02690712 -0.3558802 0.058469925 -0.22959802 -0.1414635 -0.013523915
-0.24849126 0.2033629 -0.019076234 -0.04305204 0.17921883 -0.10199926 0.1703309 -0.01503503
-0.25210118 -0.117513515 -0.1951091 0.20847185 -0.08333975 -0.07090331 0.074222155 0.07812128
-0.022082767 0.21513367 -0.14324206 -0.037488613 -0.06034422 -0.2629861 -0.14441684 -0.008911517
-0.095494196 -0.14987534 -0.1183425 0.26269656 -0.15815088 0.054733213 -0.37826502 0.1636855
0.18699217 -0.07499238 0.14446355 -0.22050816 0.08962977 0.14803071 0.023396444 0.039146166
-0.06835046 -0.08179147 0.11482487 0.23217788 0.3024331 -0.1399462 0.30668938 0.48388442
0.24752077 0.19338585 0.26231438 0.29111353 -0.029613985 0.2133527 -0.0148631865 -0.07039062
-0.016167011 0.06782272 -0.22440365 -0.067102455 -0.25189584 0.10036324 0.10276838 0.25460127
00000000: 67bd 283d 2958 1e3c 4cf3 8a3e 5daa 703e
00000010: 4c3b 01be 78a0 d9be 2609 a03d 7141 cfbe
00000020: a423 2e3e ba79 623e b698 d8be df03 b1bd
00000030: a239 79bd 2377 943e 9b1e 07be 351d 943e
00000040: f758 15be 03ab d9be 4aed 093e 3a63 0a3e
00000050: 9729 63be 7b27 e03e 955c babe 7b2c b73e
00000060: 45c3 ae3d 5027 413e ffc1 3d3e 4b67 37be
00000070: 12bc f43d ab0d 8b3e 6a4a 94be 3536 f43d
00000080: 4c4a f33d f0e0 1c3d 2923 aebc d5ce 1ebe
00000090: dffe 95be 8f84 8b3e 19c1 cebe d014 d9be
000000a0: c7b5 be3d 4a73 3b3e 5697 89be 492e 1dbe
000000b0: b3af 703d 94af a2bb aded 403d bab0 81bd
000000c0: 84d0 053e d709 cbbd c9e4 bb3e b88b 33be
000000d0: 71ff fd3d 369f 243a f388 6e3e b367 43be
000000e0: 6e67 d0bd 12e0 cb3d 5193 2c3e 7924 043e
000000f0: 5095 bcbd 2690 75bd 0a38 83be 0254 06be
00000100: 03f1 75be b6bb 5ebe 659c 2f3d a2d0 d1be
00000110: 45f0 4fbe c1e7 7f3d 86f6 913e 51cc 06bd
00000120: d75d a93d 37ed 38bd bae8 8b3e dd14 2bbd
00000130: 896b 09be f195 51be 2b82 6ebe 73e0 af3d
00000140: 88c9 36be b063 173d 8287 28bd c3aa 323e
00000150: 6a8c 493d 90cc 703d 8e6c ca3c 44b3 333d
00000160: f0c7 3ebe c82d 2e3d 3192 f0bd 160d 46be
00000170: e406 f13e 8b2c 80bd 57dd 65bd 16a6 babd
00000180: 1878 243e 2a95 ebbc 2212 b1be d538 7e3d
00000190: a92e 293e 212c 1b3d cf37 9ebd 6e09 79be
000001a0: 754f 6a3d 3cac d33b b309 623d 9a2f 91bc
000001b0: fa3f 2abd 3da4 243e 2255 b63d bfd4 01be
000001c0: 1250 a0be 5d83 9fbd 7845 293e a685 56be
000001d0: 08eb 383d 92dd 77be 194a 083e 1ce9 58bd
000001e0: a810 2dbc 7359 063d aba2 8a3d 83ab bfbd
000001f0: 55de 5fbc 1b0d 80bd c402 f6bb 512b 25bd
00000200: f06f 5b3e bcb4 9d3c 2357 db3d 3455 c0bd
00000210: d6a2 b93d c75f c03d 9d06 073e 985f f43b
00000220: 557a 21be 15ca f3bd 1ac8 5b3e 0286 3b3e
00000230: 25ca e9bd 34b5 2dbe bc10 01be ff3c 5bbe
00000240: 11c2 a73e ea33 543d 71d5 7a3c 8b6d 87be
00000250: 3614 d6bd dc95 10be 2a7d 99bd 15d6 49be
00000260: a974 e53c 50e8 de3d fe17 f43d 86cc 87be
00000270: 2fb9 0bbd 2775 e1bb ef58 023e 2a65 80be
00000280: bfaa 4ebe 7d07 1d3e 1532 ae3d b64a 7d3e
00000290: 1b38 d2bd 4d26 e63d 3a88 9c3e 0b27 2c3f
000002a0: c4d7 e23d 17e3 73be 6d20 5e3e 3fd7 bc3e
000002b0: 50fc 043e 5657 e23e 87f8 923e 3cd7 5dbe
000002c0: fbd3 a9be c8c6 2b3b c77e acbc 629e 603e
000002d0: 5cb0 edba c9af 0abe 98c1 08be 73bf 8abd
000002e0: 5b65 15be 932b 86be 526c dc3c ee35 b6be
000002f0: 297e 6f3d be1b 6bbe cfdb 10be 6993 5dbc
00000300: 7e74 7ebe 5d3e 503e c345 9cbc 5657 30bd
00000310: 2485 373e fde4 d0bd 396b 2e3e 7d55 76bc
00000320: 6813 81be edaa f0bd aeca 47be a579 553e
00000330: 08ae aabd c135 91bd c901 983d 0dfe 9f3d
00000340: ebe6 b4bc 004c 5c3e 0cae 12be a98d 19bd
00000350: 802b 77bd 1da6 86be 02e2 13be 9d01 12bc
00000360: 7692 c3bd ec78 19be 8d5d f2bd 2a80 863e
00000370: 4ef2 21be ef2f 603d f4ab c1be 2c9d 273e
00000380: e07a 3f3e 9b95 99bd 41ee 133e e4cc 61be
00000390: d08f b73d 5d95 173e e6a9 bf3c bb57 203d
000003a0: 53fb 8bbd 4982 a7bd 4d29 eb3d 0ac0 6d3e
000003b0: 83d8 9a3e 0f4e 0fbe 6406 9d3e b3bf f73e
000003c0: 1676 7d3e f106 463e 124e 863e d50c 953e
000003d0: 0799 f2bc 2179 5a3e b984 73bc f528 90bd
000003e0: ae70 84bc a3e6 8a3d 12ca 65be 036d 89bd
000003f0: 7ef8 80be 3e8b cd3d 3a78 d23d 195b 823e

fc.2.bias f4 [2]
-0.01525298 -0.11324568
00000000: a3e7 79bc 5aed e7bd
