original_with_crossover.pth (torch, 5307 bytes, 4 tensors)

fc.0.weight f4 [128, 4]
0.46271577 -0.16652648 -0.14126334 -0.3273651 0.11233458 0.48348078 0.43141627 0.20967396
-0.10180513 0.21941258 -0.3350719 -0.36866975 0.34995547 -0.49246928 -0.115690455 0.08690454
0.010242376 0.044115365 -0.10127823 -0.4902961 -0.22565003 0.1540421 0.4523756 0.20787635
0.47005516 0.46484897 0.23857366 0.22913839 0.3718824 -0.063839994 -0.092687316 -0.36494997
0.2577345 -0.19985113 -0.118963465 0.08176715 -0.44250104 0.14313343 -0.34376028 -0.42203462
-0.026348362 -0.09710095 0.041825425 0.46602425 -0.3884301 -0.44439405 0.22651285 0.349235
0.11573163 0.3444523 0.34430614 0.24358681 0.37722102 0.40995082 0.2871801 0.14272419
0.15340237 -0.23367539 -0.45128688 0.10402892 -0.17757615 0.0808852 0.3614935 0.1285486
-0.15581165 -0.28909338 -0.15156375 -0.3347661 0.20883626 -0.38025177 -0.029830927 -0.3897362
-0.14226037 -0.40290028 -0.11931164 -0.2588475 0.28022438 -0.21760741 0.29902747 0.2162745
0.24749362 -0.40765524 0.064795 -0.37295112 -0.05827917 0.09410989 0.17386283 0.13361417
0.062204983 0.03599396 0.2520223 -0.034797598 -0.11227954 -0.31280762 0.36279866 0.3593969
-0.3675403 -0.44711313 0.31807378 0.17331971 0.004016277 0.24104328 0.124927334 -0.14385235
-0.12064134 0.16402952 0.42196578 -0.31354725 -0.18548073 -0.021978276 -0.013755981 -0.35602957
0.17127879 0.2754666 -0.34925544 -0.12664059 0.13454692 0.14323694 -0.109195605 0.004249247
-0.47709993 0.31077266 -0.2571989 0.24571893 -0.16933472 -0.03525377 0.21466498 -0.5001234
-0.47174352 -0.044565335 -0.4095564 0.49568495 -0.32907367 0.15704176 0.35169953 -0.33984417
0.26922205 0.062361088 -0.25663716 0.17630725 0.07018616 -0.206896 -0.25493494 -0.2050521
0.22540715 -0.30383554 -0.40726474 -0.46744293 0.12624012 -0.37809658 -0.46288732 -0.19346365
-0.039623376 0.07726734 -0.26252827 -0.032037232 -0.4455008 -0.24934176 0.21022047 0.48882204
-0.1868524 -0.3174769 -0.26322207 0.16467227 -0.14339654 -0.4389619 0.3378958 0.16523379
0.32760036 0.29750952 0.23010959 0.35848457 0.33649898 0.5128096 -0.42348137 0.42022723
0.41367152 -0.40421218 -0.24789248 0.45988688 -0.28335264 -0.4295249 0.4623845 0.42828944
0.32600376 0.3741212 -0.23638353 -0.3077166 0.16329703 0.54162884 0.29326093 -0.30272695
0.41890407 0.0707356 -0.03433874 0.38529626 -0.34881553 -0.24151675 -0.071744055 0.35406265
0.006631765 0.044089254 -0.47765067 0.02768309 0.3962059 -0.1371444 0.17750807 0.37237203
-0.12118903 0.0007040204 0.3504026 -0.28777856 -0.21640608 0.31950107 -0.22280101 0.40912718
-0.1470428 0.27296942 0.1810182 -0.097453065 0.13479112 -0.12852381 0.4962343 0.4826503
0.080664285 0.106878094 0.22018085 -0.08257703 0.470916 -0.31286275 0.17702699 0.0985356
0.18315785 -0.21756493 0.1954563 -0.4348904 -0.05772588 -0.4234347 -0.445301 0.4580448
0.18302216 0.018525515 -0.102800116 -0.18430288 0.20717561 -0.23954852 0.2246127 0.19047181
0.003927715 -0.30957562 -0.2372191 -0.23701675 -0.22729374 0.065844126 0.0728165 0.33282802
00000000: 15e9 ec3e eb85 2abe 56a7 10be 669c a7be
00000010: ac0f e63d cb8a f73e 98e2 dc3e c5b4 563e
00000020: 357f d0bd b1ad 603e 8b8e abbe 48c2 bcbe
00000030: 5d2d b33e ef24 fcbe 1eef ecbd 02fb b13d
00000040: a3cf 273c 50b2 343d f66a cfbd 1708 fbbe
00000050: cd10 67be 36bd 1d3e c69d e73e 8add 543e
00000060: 12ab f03e af00 ee3e a74c 743e 41a3 6a3e
00000070: 5f67 be3e 8bbe 82bd d9d2 bdbd b9da babe
00000080: c7f5 833e c6a5 4cbe 1ea3 f3bd 8975 a73d
00000090: 7f8f e2be 9291 123e 5901 b0be ec14 d8be
000000a0: 85d8 d7bc dddc c6bd 2351 2b3d bb9a ee3e
000000b0: 4fe0 c6be 9e87 e3be fcf2 673e eece b23e
000000c0: b404 ed3d 0d5c b03e e548 b03e d26e 793e
000000d0: 1d23 c13e 13e5 d13e 4509 933e 4a26 123e
000000e0: 8315 1d3e 9a48 6fbe 130f e7be 1d0d d53d
000000f0: 86d6 35be 24a7 a53d ad15 b93e 3fa2 033e
00000100: 178d 1fbe 0c04 94be 8733 1bbe 7666 abbe
00000110: 2cd9 553e 5cb0 c2be fd5f f4bc 818b c7be
00000120: b4ac 11be f248 cebe a959 f4bd a987 84be
00000130: 9279 8f3e 7ad4 5ebe 211a 993e 1077 5d3e
00000140: f86e 7d3e 30b8 d0be 3eb3 843d 73f3 bebe
00000150: 24b6 6ebd b0bc c03d 1909 323e 27d2 083e
00000160: a7ca 7e3d 676e 133d 1109 813e ed87 0ebd
00000170: d1f2 e5bd 5228 a0be bfc0 b93e df02 b83e
00000180: 3e2e bcbe 03ec e4be 91da a23e b97a 313e
00000190: f99a 833b 0dd4 763e e7d9 ff3d 084e 13be
000001a0: cf12 f7bd 5bf7 273e e60b d83e 4489 a0be
000001b0: a9ee 3dbe c90b b4bc c460 61bc 8249 b6be
000001c0: b563 2f3e f509 8d3e 9cd1 b2be 12ae 01be
000001d0: abc6 093e b4ac 123e f2a1 dfbd 443d 8b3b
000001e0: 7146 f4be 981d 9f3e 93af 83be be9d 7b3e
000001f0: 1566 2dbe 4266 10bd 23d1 5b3e 1608 00bf
00000200: 5e88 f1be 248a 36bd 60b1 d1be 6bca fd3e
00000210: 587c a8be 8ecf 203e f611 b43e 0e00 aebe
00000220: 79d7 893e 576e 7f3d f265 83be e389 343e
00000230: c3bd 8f3d 8cdc 53be d586 82be 2df9 51be
00000240: 22d1 663e 5590 9bbe 0185 d0be ae54 efbe
00000250: 1745 013e e095 c1be 91ff ecbe 561b 46be
00000260: 1f4c 22bd 573e 9e3d 1b6a 86be 7939 03bd
00000270: ae18 e4be 7253 7fbe 0944 573e e246 fa3e
00000280: 3c56 3fbe 558c a2be 0bc5 86be d99f 283e
00000290: 8bd6 12be 9dbf e0be ae00 ad3e 0c33 293e
000002a0: 3cbb a73e 2b53 983e d9a1 6b3e 4a8b b73e
000002b0: 9849 ac3e 7d47 033f 8dd2 d8be 0628 d73e
000002c0: c1cc d33e e6f4 cebe 87d7 7dbe 4b76 eb3e
000002d0: 9913 91be b0ea dbbe a9bd ec3e c148 db3e
000002e0: f7e9 a63e d08c bf3e 860e 72be 088d 9dbe
000002f0: 5637 273e 30a8 0a3f 4c26 963e 07ff 9abe
00000300: 987a d63e d4dd 903d c7a6 0cbd 8d45 c53e
00000310: f397 b2be 2b50 77be 8cee 92bd b347 b53e
00000320: 474f d93b ef96 343d a18e f4be a6c7 e23c
00000330: 80db ca3e 956f 0cbe adc4 353e 8ca7 be3e
00000340: f431 f8bd 028e 383a f867 b33e b657 93be
00000350: 8e99 5dbe a595 a33e f325 64be 1e79 d13e
00000360: 6392 16be a6c2 8b3e d65c 393e 7995 c7bd
00000370: af06 0a3e bf9b 03be 6c12 fe3e f11d f73e
00000380: 5133 a53d e7e2 da3d 1777 613e 251e a9bd
00000390: e71b f13e 8c2f a0be 9046 353e 08cd c93d
000003a0: bb8d 3b3e 57c9 5ebe b225 483e f4a9 debe
000003b0: f971 6cbd 6fcc d8be 7efe e3be d984 ea3e
000003c0: 296a 3b3e d2c2 973c de88 d2bd e5b9 3cbe
000003d0: d825 543e 354c 75be df00 663e 0b0b 433e
000003e0: 10b4 803b b280 9ebe 90e9 72be 85b4 72be
000003f0: b1bf 68be 49d9 863d d120 953d 6f68 aa3e

fc.0.bias f4 [128]
0.17700899 0.10333281 0.22392191 -0.41459796 0.4287771 -0.31816098 -0.2868211 0.18415387
-0.013119882 0.12922896 0.40882486 0.35492355 -0.31359792 0.21815102 0.046816356 0.15816872
0.51297456 -0.37572527 -0.39772803 -0.2106601 -0.27611834 0.37477085 0.039334618 0.32064486
0.34160003 -0.11305635 0.23499133 -0.115661144 0.17098385 0.13324872 -0.28304434 0.43556124
0.3591685 -0.15445074 0.24797963 0.26792106 0.2788549 -0.303164 -0.28152257 0.41394
0.29317042 0.09833965 -0.34456038 -0.20828244 -0.0038133906 -0.12327531 0.40602306 -0.14097816
0.36544895 0.023401491 -0.42056304 0.34499386 0.29005128 -0.16352837 0.28801662 -0.36089042
-0.07299616 -0.2283015 0.39533484 -0.006649875 -0.32501525 0.004100844 0.051016163 -0.0057463893
-0.38370597 0.0036281024 0.13133977 -0.15089983 0.29371172 0.13162386 0.4183623 -0.11274871
-0.5137615 0.448476 0.084065184 0.34791997 -0.1740101 -0.04271066 0.1829934 0.20822892
0.097386435 -0.53610086 0.41421956 0.40410972 -0.16336952 0.22479182 -0.0050758063 0.15350263
-0.43303576 0.12226627 0.106873 -0.4101754 0.246895 -0.1859641 0.40972832 -0.06532687
0.19879764 0.26733068 -0.12839523 -0.41787204 -0.137952 -0.10779334 -0.028474139 -0.35001683
0.3351785 -0.18260698 0.33868372 -0.35619017 0.12937544 -0.3501457 0.14553446 -0.037666906
0.2684145 0.4533412 -0.1529906 0.123161525 -0.441393 0.37649012 -0.09056873 0.017740546
0.34598026 -0.32296965 -0.23203522 -0.021715185 0.46680576 0.061990928 0.09633587 0.075476
00000000: d841 353e 27a0 d33d c94b 653e 2f46 d4be
00000010: ac88 db3e ffe5 a2be 37da 92be d592 3c3e
00000020: c6f4 56bc 9954 043e 7e51 d13e 8ab8 b53e
00000030: e88f a0be fb62 5f3e 82c2 3f3d fbf6 213e
00000040: 4d52 033f 105f c0be 02a3 cbbe 48b7 57be
00000050: 625f 8dbe f7e1 bf3e 561d 213d 902b a43e
00000060: 33e6 ae3e 168a e7bd 91a1 703e c0df ecbd
00000070: 6416 2f3e 5a72 083e 30eb 90be e201 df3e
00000080: efe4 b73e 5628 1ebe 5fee 7d3e f32c 893e
00000090: 12c6 8e3e 5038 9bbe ba23 90be f2ef d33e
000000a0: 6f1a 963e 4c66 c93d 386a b0be fe47 55be
000000b0: 14ea 79bb c477 fcbd 41e2 cf3e 945c 10be
000000c0: 201c bb3e 7cb4 bf3c 0a54 d7be 09a3 b03e
000000d0: 9a81 943e fb73 27be ea76 933e a1c6 b8be
000000e0: 037f 95bd dec7 69be 5469 ca3e 32e7 d9bb
000000f0: 6668 a6be 5f60 863b 53f6 503d 354c bcbb
00000100: 1c75 c4be 75c5 6d3b ef7d 063e 7c85 1abe
00000110: 6261 963e 68c8 063e 9533 d63e cce8 e6bd
00000120: e085 03bf a59e e53e 5e2a ac3d 9122 b23e
00000130: b42f 32be 5ff1 2ebd 9f62 3b3e f639 553e
00000140: 8a72 c73d e83d 09bf 9614 d43e 78e7 ce3e
00000150: 574a 27be d42f 663e f352 a6bb cb2f 1d3e
00000160: ddb6 ddbe bd66 fa3d 3be0 da3d 8302 d2be
00000170: 0bd2 7c3e 5f6d 3ebe e9c7 d13e 18ca 85bd
00000180: 9c91 4b3e 91df 883e 0a7a 03be 53f3 d5be
00000190: 4a43 0dbe c1c2 dcbd 9942 e9bc 6835 b3be
000001a0: 849c ab3e 53fd 3abe f467 ad3e 8f5e b6be
000001b0: ff7a 043e 4c46 b3be fc06 153e 9d48 1abd
000001c0: a06d 893e 561c e83e 91a9 1cbe 1c3c fc3d
000001d0: 43fe e1be 50c3 c03e 197c b9bd 9f54 913c
000001e0: 5324 b13e 475c a5be a49a 6dbe 0be4 b1bc
000001f0: 2a01 ef3e 33ea 7d3d be4b c53d 2993 9a3d

fc.2.weight f4 [2, 128]
-0.0017067512 -0.06693438 -0.026742058 -0.04903313 -0.0674144 0.004956822 0.04802258 0.058361843
-0.044436023 -0.07988147 -0.06898921 -0.028321523 -0.028091274 -0.079727754 0.0829576 -0.09532454
0.03217944 -0.029440323 -0.019613715 0.025887106 -0.0792159 0.06401804 0.004953908 0.030188762
0.005056071 -0.08034303 0.020519147 0.02771396 0.05203768 0.035909433 -0.05803181 0.07669862
0.065511316 -0.106095515 -0.04995694 0.09024961 0.13195725 -0.08625323 -0.04298773 -0.037557937
0.037400134 -0.025304727 0.01706523 0.04985813 -0.032157432 0.006167228 -0.036353502 -0.043142587
0.0027115098 -0.03611683 -0.011800364 0.007753914 0.020079197 -0.043905232 -0.068315595 -0.08198126
0.04767111 0.057944346 -0.04925001 0.043112375 -0.05305371 -0.047589537 -0.0038837476 -0.024532044
-0.029181419 0.069960654 0.08779196 -0.07265532 -0.0010825783 0.13220643 0.033837225 0.037575345
0.07344986 0.12212484 0.03702479 -0.044420592 -0.01066498 0.04021145 -0.08595265 -0.00072009227
0.031178856 0.014198407 0.076983206 0.0042628497 -0.0026368864 0.085781656 -0.013174131 0.03764105
-0.02076871 0.009256958 -0.016610315 -0.047678817 -0.096788645 -0.031516563 -0.06416581 -0.0024282383
-0.04336145 0.0050159656 0.07267903 0.007867256 0.040002972 0.029812949 -0.01861539 0.032290105
-0.040705804 -0.08489141 -0.022384323 -0.084793925 -0.00447595 -0.030967798 -0.019979276 0.085167326
-0.009640981 -0.09344305 -0.0874118 0.020647619 -0.02519712 0.0018824148 0.022683574 0.002073757
-0.022963786 0.06058283 -0.0072078863 -0.044204123 0.11338623 -0.05756857 -0.070091695 0.004762916
0.078744955 -0.06364241 -0.021826861 0.0027815066 0.055975758 0.009383083 0.08472555 -0.08628974
-0.042758323 -0.07483004 -0.04679742 0.07335186 -0.09755164 -0.0784452 0.016000777 -0.08944007
-0.023007449 0.09336909 0.06827696 0.040823054 0.00620211 -0.027644293 0.05841609 -0.051927574
-0.00434596 0.0012895472 0.033221357 -0.026236907 0.060623452 -0.018299298 -0.05896835 0.023427097
0.052212805 -0.059370894 -0.028679924 0.026646536 -0.09296691 -0.010456234 -0.10701434 0.036457006
-0.0422169 0.005417337 -0.016396493 0.02008774 -0.039991606 -0.0018129934 -0.045057938 -0.0904401
0.010277252 0.069871075 0.083779566 0.07796992 0.0021751658 0.017337104 0.0316883 0.083594315
-0.014491674 0.06252904 0.016205445 0.009990567 0.027510596 0.10458788 -0.017953938 0.024517616
-0.025653722 0.09083433 -0.088850915 0.0023911912 0.016874608 0.02299205 -0.0708849 0.010696718
0.085779205 0.0128941825 0.092473336 0.023408387 -0.050963778 -0.03869504 -0.079428606 -0.06595832
-0.017255016 0.0759389 0.05135538 -0.021405738 -0.04063889 -0.06259711 0.061673656 0.0034993386
0.08504594 0.009316812 0.04276407 0.03694674 -0.042547174 0.061872374 -0.1054158 0.016024718
0.08857003 0.0059758415 0.022479333 -0.03336673 -0.013378795 0.08422282 -0.10434608 0.079049714
-0.03289218 0.04119304 0.056207657 -0.010844599 -0.07963035 -0.05927998 -0.020092743 -0.015243464
-0.072786234 -0.08001501 -0.07808777 -0.087396495 0.07636582 -0.028625632 0.03835291 -0.041975927
-0.06898081 -0.046356693 -0.09178444 -0.028241815 0.08576929 0.06679311 -0.053810377 -0.097555935
00000000: 11b5 dfba e414 89bd 2912 dbbc f7d6 48bd
00000010: 9010 8abd d66c a23b 53b3 443d d40c 6f3d
00000020: 8c02 36bd e598 a3bd 374a 8dbd 8a02 e8bc
00000030: ac1f e6bc 4e48 a3bd ade5 a93d 8339 c3bd
00000040: 97ce 033d d52c f1bc f1ac a0bc 3211 d43c
00000050: f23b a2bd e41b 833d 6454 a23b 6c4e f73c
00000060: 66ad a53b e38a a4bd c517 a83c 6308 e33c
00000070: 7625 553d c515 133d c3b2 6dbd 2b14 9d3d
00000080: cc2a 863d 9b48 d9bd a69f 4cbd cad4 b83d
00000090: cd1f 073e 89a5 b0bd e713 30bd 5ad6 19bd
000000a0: e230 193d dc4b cfbc 62cc 8b3c 0a38 4c3d
000000b0: 83b7 03bd 7516 ca3b 69e7 14bd 48b6 30bd
000000c0: 96b3 313b 3eef 13bd 5056 41bc 8c14 fe3b
000000d0: 217d a43c f9d5 33bd 0ce9 8bbd cae5 a7bd
000000e0: c842 433d 0d57 6d3d 61ba 49bd 9a96 303d
000000f0: d94e 59bd 3fed 42bd 7986 7ebb 6df7 c8bc
00000100: df0d efbc 8847 8f3d 45cc b33d 50cc 94bd
00000110: 4de5 8dba 1f61 073e e798 0a3d 9be8 193d
00000120: e16c 963d 971c fa3d 4ea7 173d 5ef2 35bd
00000130: 2bbc 2ebc c3b4 243d f107 b0bd 93c4 3cba
00000140: cd6a ff3c 6fa0 683c 5fa9 9d3d 60af 8b3b
00000150: 9dcf 2cbb 4bae af3d 4fd8 57bc 802d 1a3d
00000160: 2423 aabc 7faa 173c 5b12 88bc dd4a 43bd
00000170: 2039 c6bd 8317 01bd 5d69 83bd 1423 1fbb
00000180: c79b 31bd f85c a43b bed8 943d aae5 003c
00000190: 28da 233d 493a f43c 4d7f 98bc a142 043d
000001a0: 21bb 26bd 8cdb adbd 545f b7bc 70a8 adbd
000001b0: fdaa 92bb 2eb0 fdbc 94ab a3bc 356c ae3d
000001c0: 35f5 1dbc 125f bfbd f504 b3bd 3225 a93c
000001d0: 316a cebc 5cbb f63a e7d2 b93c dee7 073b
000001e0: 8d1e bcbc b425 783d 2230 ecbb 620f 35bd
000001f0: 0a37 e83d 05cd 6bbd 3c8c 8fbd 3c12 9c3b
00000200: 0945 a13d f456 82bd 3fce b2bc f049 363b
00000210: d646 653d 81bb 193c 9784 ad3d adb8 b0bd
00000220: 5a23 2fbd 7e40 99bd a7ae 3fbd 8039 963d
00000230: 27c9 c7bd e1a7 a0bd 1014 833c 5b2c b7bd
00000240: 1e7a bcbc 4b38 bf3d cad4 8b3d 1336 273d
00000250: 123b cb3b 4976 e2bc b645 6f3d 02b2 54bd
00000260: 8e68 8ebb 0606 a93a 1e13 083d c8ee d6bc
00000270: 4c50 783d 69e8 95bc cc88 71bd 2fea bf3c
00000280: 18dd 553d e52e 73bd 29f2 eabc d649 da3c
00000290: 6f65 bebd a050 2bbc 562a dbbd f153 153d
000002a0: a1eb 2cbd eb83 b13b f051 86bc 0b8f a43c
000002b0: 3dce 23bd f7a1 edba ac8e 38bd a938 b9bd
000002c0: eb61 283c 9118 8f3d 9f94 ab3d b2ae 9f3d
000002d0: 3a8d 0e3b 8b06 8e3c 97cb 013d 7f33 ab3d
000002e0: 7c6e 6dbc 3a0f 803d 48c1 843c 7aaf 233c
000002f0: e75d e13c 2c32 d63d 2314 93bc 2bd9 c83c
00000300: c127 d2bc 5907 ba3d 78f7 b5bd 88b5 1c3b
00000310: 9e3c 8a3c d359 bc3c 1a2c 91bd 4941 2f3c
00000320: 02ad af3d 1f42 533c a962 bd3d f2c2 bf3c
00000330: 65bf 50bd b17e 1ebd 77ab a2bd 2815 87bd
00000340: 645a 8dbc db85 9b3d 055a 523d 165b afbc
00000350: f774 26bd ea32 80bd 849d 7c3d 2955 653b
00000360: 912c ae3d 8ba5 183c 6129 2f3d 7755 173d
00000370: f245 2ebd e36d 7d3d 3de4 d7bd 4546 833c
00000380: 3464 b53d fed0 c33b 9426 b83c 8dab 08bd
00000390: bc32 5bbc 047d ac3d 66b3 d5bd d1e4 a13d
000003a0: f3b9 06bd 08ba 283d 003a 663d 8cad 31bc
000003b0: 3d15 a3bd 90cf 72bd 8999 a4bc b9bf 79bc
000003c0: f310 95bd e9de a3bd 7bec 9fbd effc b2bd
000003d0: af65 9c3d 4d80 eabc f117 1d3d f3ee 2bbd
000003e0: d045 8dbd 84e0 3dbd 7bf9 bbbd 615b e7bc
000003f0: cfa7 af3d d3ca 883d 4568 5cbd 68cb c7bd

fc.2.bias f4 [2]
0.045866385 0.029802982
00000000: 64de 3b3d 6225 f43c
