random_model.pth (torch, 5307 bytes, 4 tensors)

fc.0.weight f4 [128, 4]
000000 82 a6 8f be a8 f7 3c 3e 7a 36 8e be 38 9a 2a 3e
       -0.28056723 0.18453848 -0.27775937 0.16660392
000010 98 ef ac bd b4 81 5f 3e b8 a7 75 3e 04 65 68 3e
       -0.084441364 0.21826822 0.23989761 0.22694784
000020 0c f3 ac be 14 41 bd be 1c b9 26 be 40 a8 d9 bc
       -0.3377918 -0.36963713 -0.16281551 -0.026569486
000030 60 a2 aa be 9e 8f ae be 36 32 e0 be 98 95 8c bd
       -0.33327007 -0.34093946 -0.43788308 -0.0686447
000040 e6 17 b2 3e f2 9e a4 be d8 03 bd be 80 d3 d7 3e
       0.34783858 -0.32152516 -0.36916995 0.4215355
000050 cc 8e ba 3e a2 11 dc be 96 ec e7 be c8 aa e1 bd
       0.3643707 -0.42982203 -0.45297688 -0.11018902
000060 14 be e4 3e 7c bc c4 3e e8 5f 97 bd c0 73 28 3d
       0.44676268 0.38425052 -0.073913395 0.041126013
000070 00 8e 55 3b c8 4a 94 3e 24 1e a1 be b2 99 c3 3e
       0.003258586 0.28963304 -0.31468308 0.38203198
000080 90 ec 9b 3e e0 a2 5e bd 90 5a 2b bd aa 4e f9 3e
       0.3045392 -0.05435455 -0.041834414 0.48692828
000090 58 f4 c2 be 28 db d1 bd 42 be af 3e f4 40 00 3e
       -0.38077044 -0.10246879 0.34324843 0.12524778
0000a0 98 59 ab be f0 17 d0 bd 40 3f e4 bd c0 f4 b3 bc
       -0.33466792 -0.10160816 -0.111448765 -0.021967292
0000b0 16 b4 ee be 7c ee ee 3e 68 9e 07 be d2 87 84 be
       -0.4662177 0.46666324 -0.13244021 -0.25884873
0000c0 00 fd 26 3c 88 c6 25 be 7e 50 f1 3e 70 3f 63 be
       0.010192156 -0.16189015 0.47131723 -0.22192168
0000d0 78 8f c9 be 6c 1e 4e be 6e f5 bf 3e e4 83 9e be
       -0.3936727 -0.20128793 0.37491935 -0.3096
0000e0 96 97 bb be c4 d7 a8 3e 7a 54 c0 3e b6 28 b5 3e
       -0.36639088 0.32977116 0.3756445 0.35382622
0000f0 d8 07 4e be e0 b6 ca bc 4c 50 25 be da 09 e5 be
       -0.2012018 -0.024745405 -0.16143912 -0.4473408
000100 40 d8 9d bd 98 6f 77 be ea f5 85 be 40 55 8b bc
       -0.07707262 -0.24163663 -0.2616418 -0.017008424
000110 f8 7f da 3d 30 90 82 bd e8 52 75 be a4 b5 4e be
       0.10668939 -0.06375158 -0.23957407 -0.20186478
000120 e8 b2 a5 be 94 90 0a 3e 1e f0 93 3e 1c 3c 38 3e
       -0.32363057 0.13531715 0.28894132 0.1799168
000130 00 24 d7 3b ec d8 f8 be f0 e9 54 3d 50 e7 01 3e
       0.006565571 -0.48602998 0.051980913 0.12685895
000140 06 72 fe be 20 1e f1 3d 28 fb 62 3e 70 83 ed 3d
       -0.49696368 0.11773324 0.22166121 0.11597335
000150 6e 23 fe be 0e 14 db be ec 1a 3a be ce 70 ca be
       -0.49636406 -0.42788738 -0.18174332 -0.39539188
000160 88 0c b4 3e 18 a2 74 3e 4e 37 ff 3e 2e 54 b0 3e
       0.3516581 0.23889959 0.49846882 0.34439224
000170 8e cd 8e be 38 f9 bc 3d 2a ca e4 3e 4c 32 30 be
       -0.278912 0.09227222 0.4468549 -0.17206687
000180 c6 1e 97 3e e2 2b d9 be 4e 7c 90 be f8 43 cf be
       0.29515666 -0.42416292 -0.28219837 -0.40481544
000190 40 bf 8a 3d d8 26 ce be cc d5 1a be 86 29 ed 3e
       0.06774759 -0.4026401 -0.1512062 0.46320742
0001a0 22 82 ad 3e fe b0 d9 3e a8 d6 de 3e 00 27 d4 be
       0.33888346 0.42517847 0.43523145 -0.41436005
0001b0 9e be 9f be a0 d2 48 3e 68 92 b7 be 6c 9f 23 be
       -0.31200117 0.19611597 -0.35853887 -0.15978783
0001c0 88 df fd be ce ac 9e be 88 3f 47 3e 96 c9 b7 be
       -0.49584603 -0.30991215 0.19457829 -0.35895985
0001d0 50 9d 14 be b0 b6 d1 be 18 f0 21 be fa 84 90 be
       -0.14513135 -0.40959692 -0.15814245 -0.28226453
0001e0 90 95 75 bd 40 49 23 3e 00 14 39 bb d0 72 67 3e
       -0.059957087 0.15945911 -0.002824068 0.22602391
0001f0 d4 b1 32 3e 74 6a 5b 3e 70 eb 8a be ca 99 d4 3e
       0.17450649 0.21427327 -0.2713275 0.41523582
000200 d4 ca 4f be ea 5a 88 be e0 9d ec 3e 1e aa 84 be
       -0.20292217 -0.26631862 0.462142 -0.2591104
000210 34 e3 e7 be 30 f7 75 3e 70 35 d3 3d 80 43 dd bd
       -0.4529053 0.24020076 0.10312927 -0.1080389
000220 56 bf c9 3e b4 e3 37 3e b0 f3 4a be 48 ff a4 be
       0.3940379 0.17957956 -0.19819522 -0.32226014
000230 00 5f 13 3b d0 f0 52 3e 10 30 9e bd 1e 15 ce 3e
       0.0022487044 0.20599675 -0.07724011 0.40250486
000240 b0 1d fc 3d 4c 98 bd be ac c3 68 3e e4 b8 24 be
       0.1231035 -0.37030256 0.22730893 -0.16086155
000250 f8 81 24 3e 70 9a ea be a8 cf f9 be 5c 1a 08 be
       0.16065204 -0.4582095 -0.48791242 -0.13291305
000260 38 ab a8 be 38 03 d4 3d a8 a6 bf bd 42 b9 ea be
       -0.3294313 0.103521764 -0.09357959 -0.45844465
000270 76 d3 a3 be 22 58 9b 3e 88 7e 98 3d 34 21 7f be
       -0.3199727 0.30340677 0.07446009 -0.2491501
000280 68 50 e9 3e bc ba f5 be 00 8b 1e 3c c0 8c 32 bc
       0.45569158 -0.4799403 0.009676695 -0.010897815
000290 7c cc 8f 3e 20 21 c6 3d ac 27 56 3e 60 53 b3 bc
       0.28085697 0.09674287 0.20913571 -0.021890342
0002a0 38 82 47 be 82 f8 f0 3e 1c af b2 3e 04 fa 1a 3e
       -0.19483268 0.47064596 0.34899223 0.15134436
0002b0 92 bd b3 be b6 22 8b 3e 54 13 93 be 88 2b ac 3e
       -0.35105568 0.2717492 -0.28725684 0.33626962
0002c0 e2 eb 81 be 44 61 3d be f0 6c 51 bd 4c f5 60 be
       -0.25375277 -0.18494135 -0.05112928 -0.21968573
0002d0 34 52 47 be 54 d4 55 3e 48 db b5 3e e0 ea 0e bd
       -0.19464952 0.20881778 0.3551886 -0.034891963
0002e0 e0 18 a4 bd 60 c8 f3 be b0 57 b3 be d4 de f0 3e
       -0.08012557 -0.47613811 -0.35027838 0.47045004
0002f0 44 bc 1b be 52 b8 cf be 92 5d fc be 70 8e 20 3e
       -0.15208536 -0.40570313 -0.49290138 0.15679336
000300 a4 9e fe 3e b8 d3 0c 3e 08 60 da bd 00 36 e0 3a
       0.49730408 0.1375264 -0.10662848 0.0017105937
000310 90 a2 f0 bd 98 93 dd 3e d8 a6 b9 be 80 bd 57 be
       -0.11749756 0.43276668 -0.36260104 -0.21068382
000320 5a 59 de be a8 3a 2c 3e d2 aa 91 be 30 20 bb be
       -0.43427545 0.1681925 -0.28450638 -0.36547995
000330 38 f7 6d be 3e 45 82 be f4 84 6e 3e 58 50 c3 be
       -0.23238838 -0.25443453 0.23292905 -0.38147235
000340 c0 4e de bd c8 d4 92 3e 7a 9e 9d 3e 04 9d f4 be
       -0.10854864 0.28677964 0.3078497 -0.47776043
000350 50 72 71 be 82 22 ea 3e 40 e2 28 3c 34 01 21 be
       -0.23578763 0.45729452 0.010307848 -0.15723115
000360 82 b3 a4 3e f8 dc 38 3e 7a b7 ad be f0 78 06 3e
       0.32168204 0.18053043 -0.33929044 0.13132071
000370 c6 c0 8a be c0 d0 2d 3d 18 9e e1 bd 7c 84 f5 3e
       -0.271002 0.042435408 -0.11016482 0.4795264
000380 98 fc 05 be 12 48 d1 be 64 af bb be e8 8d d1 3e
       -0.13084638 -0.40875298 -0.3665725 0.40928578
000390 96 aa 88 be 58 2c 9d 3d 56 9b ce 3e 30 d8 f1 bd
       -0.26692647 0.076744735 0.40352887 -0.118088126
0003a0 de 5f ac 3e 62 17 81 be dc 40 c7 3e 84 f8 77 be
       0.3366689 -0.25213152 0.3891667 -0.24215895
0003b0 e0 ea 6e bd 46 62 e7 be 78 1e 32 3e 00 69 38 bb
       -0.058329463 -0.45192164 0.17394435 -0.0028138757
0003c0 00 d2 3f bd 2a b1 ca be 3e b0 a2 be fe 3b a4 3e
       -0.04683113 -0.3958829 -0.31775087 0.3207702
0003d0 f0 64 2a be dc bb 20 be 40 2d 5f 3e 38 06 a5 3e
       -0.16640067 -0.15696663 0.21794605 0.32231307
0003e0 d2 77 be be a2 28 de 3e 84 7d a7 3e ac 7f e5 be
       -0.3720079 0.43390375 0.32712948 -0.44823968
0003f0 00 7d d0 bb be 27 89 3e 06 79 d4 3e 90 ed c4 3e
       -0.0063625574 0.26788133 0.41498584 0.38462496

fc.0.bias f4 [128]
000000 64 fc c8 3e 04 72 18 be ce a4 c3 be f0 64 5e 3e
       0.3925506 -0.14887244 -0.38211673 0.21718192
000010 20 78 f1 3d 08 be 05 3e d0 87 6b be 36 9b 95 be
       0.1179049 0.13060772 -0.23001027 -0.2921998
000020 0a bf 9c 3e bc 55 42 3e bc 4f ad 3e 40 af 99 bd
       0.306145 0.18978018 0.33849895 -0.075041294
000030 d2 56 93 be 7e c8 af be 30 51 a6 3d a0 20 26 3d
       -0.28777176 -0.3433265 0.08120954 0.040558457
000040 90 cd 74 3d 12 87 8a 3e c6 d8 cc be 28 11 f9 bd
       0.059766352 0.27056175 -0.40009135 -0.121614754
000050 98 f2 39 be 54 60 34 3e 20 ec 16 3e f0 eb 80 3e
       -0.18158948 0.17614871 0.14738512 0.25180006
000060 d4 3c 2b be 24 99 43 3e c0 f2 b7 3d e0 a4 fc 3e
       -0.16722423 0.19101387 0.08981848 0.4934454
000070 1e 19 9f 3e 6e 2d 88 be 8e 71 e8 3e 02 3f f2 be
       0.3107385 -0.2659716 0.45399135 -0.47313696
000080 28 0a 9f 3d 04 8a 08 3e 4c 79 cd 3e 34 c7 f2 be
       0.07765609 0.13333899 0.40131605 -0.47417605
000090 e8 9b 31 be 18 32 bb 3e 20 d1 67 be f2 a6 d3 be
       -0.1734463 0.36561656 -0.22638369 -0.41338307
0000a0 54 05 41 be 90 43 58 bd 84 72 f4 3e 18 fd 2c be
       -0.18849689 -0.052798808 0.47743618 -0.16893423
0000b0 a8 5e 73 3e d6 7b ba be 68 98 88 3d 80 26 53 3d
       0.23766577 -0.36422604 0.06669694 0.05155039
0000c0 f0 b7 8b 3d 00 be 6c bc 0e 53 ea 3e 70 f7 4a be
       0.06822193 -0.014449596 0.4576649 -0.19820952
0000d0 b0 b0 04 be 1c cd 36 3e 5e 63 85 be e8 cd e6 bd
       -0.12958026 0.1785168 -0.26052374 -0.11269742
0000e0 66 01 cc 3e d0 d5 88 be cc 71 31 be 30 b2 59 3e
       0.39844817 -0.26725626 -0.17328566 0.2125938
0000f0 68 4e da bd f8 20 44 3e c0 32 c0 3c 90 d4 fe bd
       -0.10659486 0.19153202 0.0234617 -0.12442887
000100 10 72 78 3d 74 4c 16 be e8 ce 0c 3e 40 aa c4 be
       0.060655653 -0.14677602 0.13750803 -0.3841114
000110 a4 a1 d7 be 74 ed 1b 3e 5a 39 b7 3e 80 d7 cd bc
       -0.4211551 0.152273 0.35785943 -0.025127172
000120 68 77 60 be a4 58 97 3e e4 48 bb be 00 1c 7e be
       -0.2192055 0.29559815 -0.3657905 -0.24815369
000130 d0 87 c3 3e 5c 73 63 3e 18 fe a1 bd 90 af 0e 3d
       0.38189554 0.22211975 -0.07909793 0.0348354
000140 d0 f5 a4 be 5c c7 5f 3e 0c d8 13 be c4 1b 35 3e
       -0.3221879 0.21853393 -0.14437884 0.17686373
000150 f4 f1 7e be 64 e4 c3 be 9e b3 84 3e 24 f6 fd 3e
       -0.24896985 -0.38260186 0.25918287 0.49601853
000160 88 81 2f be 50 e9 7c 3d b0 09 ae 3d c8 ea 8c 3d
       -0.17139256 0.06174594 0.084979415 0.068807185
000170 f0 e9 0a be 12 3c c9 be 44 86 5e be b0 c3 25 bd
       -0.13565803 -0.39303643 -0.21730906 -0.040469825
000180 ce f2 86 be 18 a0 69 be ee 45 c5 be 02 53 89 3e
       -0.2635712 -0.22814977 -0.38529915 0.26821142
000190 e6 f5 98 be 3a a7 e8 3e 3a 7a e1 be c0 3a 1c 3c
       -0.29875106 0.45440084 -0.44038564 0.0095354915
0001a0 c2 51 c4 be e0 19 93 bc 98 62 d8 3e 40 bc b5 bc
       -0.38343626 -0.017956674 0.4226272 -0.022184491
0001b0 66 e0 e1 3e 4c 56 a8 3e 92 f9 d1 be 68 05 33 be
       0.44116515 0.3287834 -0.4101072 -0.17482531
0001c0 f8 f6 c4 bd f4 13 98 be 70 67 05 3d 6a bd 85 be
       -0.09617418 -0.29702723 0.03256935 -0.26121074
0001d0 f8 6d 02 be 78 35 09 3e 64 09 dd 3e 60 80 9e bc
       -0.12737262 0.13399303 0.43171227 -0.019348323
0001e0 e0 7d 8b bd 3c 71 7f 3e c8 7f 96 be fa fc 8b 3e
       -0.06811118 0.24945539 -0.29394364 0.27341443
0001f0 c8 d0 36 be 4c 2b 4a be 06 01 a8 3e dc f5 02 be
       -0.17853081 -0.19743079 0.3281328 -0.127891

fc.2.weight f4 [2, 128]
000000 41 04 11 bd 24 86 dd 3b 32 33 12 bd 8b dd 09 3d
       -0.035404447 0.0067603756 -0.035693355 0.033658545
000010 ad 5b 8a bd 0f 35 15 3d 1e b4 23 3d 32 e5 a0 3d
       -0.06755767 0.036427554 0.039966695 0.078562155
000020 53 c5 ae bd f6 35 35 bd 3f 0a 21 bd ff 7c 75 bb
       -0.0853373 -0.044240914 -0.039316412 -0.0037458537
000030 14 69 6a 3d 83 13 b9 bc 74 59 84 3d a9 84 92 bd
       0.057229117 -0.022592312 0.06462374 -0.07154209
000040 c1 06 95 3c 51 7e b7 3c bf 57 70 3c fe 75 21 3d
       0.018191697 0.0223991 0.014669358 0.039419167
000050 53 f0 1a bd 00 e3 a5 bc e1 c8 27 bd ca f5 7c bd
       -0.037826847 -0.020249844 -0.040963057 -0.06175784
000060 dd 07 f9 bc bb 96 b4 bd ed 29 14 3d 7b 8b 0e 3c
       -0.030399257 -0.08817812 0.036172796 0.008700247
000070 0d 6f 83 bd f1 4b ae bb 88 dd 96 3c ae 6e 75 3b
       -0.06417666 -0.0053191115 0.018416181 0.0037450003
000080 9a 12 7b 3d 83 8a 07 3d 23 3e f4 bc ad dc aa 3d
       0.061297037 0.03309108 -0.029814785 0.08342872
000090 c3 92 b2 bc 1c 01 0a bd a7 16 00 3d 33 c1 8d 3d
       -0.021798497 -0.033692464 0.031271603 0.069216155
0000a0 22 4c d1 bc 00 16 b2 bd 8f 3c 7a bd a1 c7 1d bd
       -0.025548998 -0.086956024 -0.06109291 -0.03852046
0000b0 f8 42 ac bd a4 d6 3f 3c 91 6b ab bd d1 8c b0 3d
       -0.08411211 0.011708889 -0.08370126 0.086206086
0000c0 2f 72 a8 bd 2c be 45 bc 53 00 04 3d 79 fe 97 3d
       -0.08224904 -0.012069266 0.03222687 0.07421584
0000d0 3a 4f 3e 3d 03 ff 02 3d fe 65 97 3d 54 2b 4f bd
       0.046462275 0.03198148 0.073925 -0.05057843
0000e0 0a e8 2d bd 06 96 01 3d 45 f0 4f 3d 41 68 9b 3d
       -0.042457618 0.031637214 0.05076625 0.07588244
0000f0 04 c5 0b 3a 70 04 91 bd 63 e6 6f 3d 4c e6 82 3d
       0.0005331787 -0.070809245 0.058569323 0.06391582
000100 74 0e 78 bd c6 5a f0 3c fb 39 9b 3d 69 1d 55 bd
       -0.06056066 0.02934016 0.07579418 -0.05203
000110 15 93 81 bd f8 21 6d 3d 22 e7 6c 3b 7f d6 74 3d
       -0.06326882 0.057893723 0.0036148508 0.059774872
000120 ea 78 20 bc 7c 46 47 3c 14 4a 79 bd aa 68 95 bc
       -0.009794453 0.012162801 -0.060861662 -0.018238384
000130 d8 7c 93 3d 08 b7 98 bd 7a 1a 8e 3d 70 41 31 3d
       0.072015464 -0.074567854 0.06938644 0.043275297
000140 a3 1c c2 b9 8e 50 37 3b 23 a7 23 bd c1 ee 96 bd
       -0.000370239 0.0027971598 -0.039954316 -0.073697574
000150 7c 5e 99 bd d9 32 88 3d 1a 6b aa bd f6 46 e6 3c
       -0.074887246 0.066503234 -0.08321209 0.028110009
000160 12 3e 6c 3d 82 02 00 3d 8b f9 24 3d c6 27 97 3d
       0.057676382 0.03125239 0.040277045 0.07380633
000170 b1 0a 79 3c 96 75 fb 3b 60 bd ac bc af 24 52 3c
       0.015200303 0.0076739294 -0.021086395 0.012826129
000180 46 14 9d 3d f5 15 00 3b 21 da 27 bc 46 cf ad bd
       0.076698825 0.0019544337 -0.010244877 -0.084868
000190 be 9c 51 bb 0d c9 7a ba 4e 50 43 3d 03 44 68 3d
       -0.0031984295 -0.0009566702 0.047684006 0.056705486
0001a0 e2 e7 7b bd e8 cb 30 3d 8c b9 be 3b f1 d8 88 3d
       -0.061500438 0.04316321 0.0058204588 0.06682003
0001b0 a0 2a 31 bc d4 06 1c 3d f1 2a ae 3d 59 ef af bd
       -0.010813385 0.03809245 0.08504284 -0.08590574
0001c0 a6 ae 21 3d 50 53 a3 3d 88 f6 a0 3d b8 77 18 3d
       0.0394732 0.07974875 0.07859522 0.037223548
0001d0 45 e2 64 bc 78 ca 58 3d 6b be 60 3d e1 71 4c 3d
       -0.0139699625 0.052927464 0.054869097 0.04991329
0001e0 9f db 88 bd 6a 0b aa 3d 44 9c a0 bd 55 c4 df bc
       -0.066825144 0.08302958 -0.07842305 -0.027315298
0001f0 23 45 4f 3d fa bd 6c bd 6d e7 2c bd 7b a5 0c 3c
       0.050603043 -0.057798363 -0.042212892 0.0085843755
000200 cf 12 c5 bc 9f 01 96 bd c6 4c 46 3d 69 80 34 bc
       -0.02405682 -0.07324528 0.04841306 -0.0110169435
000210 1a e2 69 3d 1f cb ae 3d 33 96 b8 bc 4c f8 7a bd
       0.057100393 0.08534836 -0.022532558 -0.06127195
000220 ca 3c 63 3b 1b 41 51 3d e9 77 8a bd 62 a9 9b bd
       0.0034673684 0.05108748 -0.06761152 -0.076006666
000230 b8 80 04 bd e8 06 a5 bd e3 25 81 bd 80 b7 a7 3d
       -0.03234932 -0.08057958 -0.063060544 0.08189297
000240 8e a9 84 3d 0f 49 5a bb 29 d0 b1 3d 7b 27 56 bd
       0.064776525 -0.0033307706 0.086822815 -0.052283745
000250 8c f6 37 bc 9f 3d 21 bd 1f 77 73 bd be 4d 0c bd
       -0.011228215 -0.039365407 -0.059439775 -0.03425383
000260 6c c9 a7 bd 6f 92 7f 3d c6 e1 ac bd ee a7 b1 bd
       -0.08192715 0.06239551 -0.084415 -0.08674608
000270 98 de 42 bd 0b 28 a0 bd 44 1c 32 bd 1a 37 ae 3d
       -0.047575563 -0.078201376 -0.043483987 0.085066035
000280 79 71 97 bc 05 c4 6c bd af e6 94 3d 4e b8 36 bd
       -0.018486725 -0.057804126 0.07270562 -0.04460936
000290 ac ae a7 bd 0a 11 69 bd 2b cf a8 3d 1b a0 7c 3d
       -0.08187613 -0.056901015 0.08242639 0.061676126
0002a0 1b a2 41 bd 26 5c 97 bc e5 b5 aa bd 7e ce 64 3d
       -0.047273736 -0.018476557 -0.08335475 0.05586099
0002b0 c0 f2 a6 3d d6 1e 76 bc a0 9f 27 bd 15 4b 80 bd
       0.0815177 -0.015022 -0.040923715 -0.06264321
0002c0 ef b1 87 bd 49 9a 5a bd 78 67 9a 3c d1 82 a8 bc
       -0.06625735 -0.053369794 0.018848166 -0.02057019
0002d0 c9 7e 08 3d e2 30 86 bc 62 6a af 3d b0 d8 b3 bd
       0.033324037 -0.016380731 0.08565213 -0.08781564
0002e0 c9 64 2a bd fb 6b 06 3d 0d 90 63 3d bf 91 88 3b
       -0.041600022 0.032817822 0.0555573 0.004167765
0002f0 bf 73 81 3d 57 83 47 3c c7 2c 7b 3d a2 64 5a bb
       0.06320905 0.01217731 0.061322 -0.0033324142
000300 11 7d 53 bd f0 fd ae 3d af 7d a9 3c af 1c 63 bd
       -0.051632944 0.085445285 0.020689813 -0.055447277
000310 99 ec 86 3c f5 77 0c bc aa f6 6d bd 98 f6 2e bd
       0.01647024 -0.008573522 -0.058096565 -0.04271564
000320 69 cd a0 bd d8 75 28 3d a4 8d 5b 3d 7c be a7 3d
       -0.07851679 0.04112801 0.053601876 0.08190629
000330 5b 3a 6a 3d 0e 55 6b 3d 2c ea aa bd d8 af 10 bc
       0.05718456 0.05745416 -0.08345446 -0.008830987
000340 fb 43 0d 3d 5b 47 82 bc 61 50 50 3d cd 9c f4 3c
       0.03448866 -0.015903166 0.050857905 0.029859925
000350 63 f5 97 bd 8a 6a 68 bd 29 79 63 3d 74 8a a1 3d
       -0.07419851 -0.05674223 0.05553547 0.07887736
000360 d7 08 61 bd 6d 2f 90 3d 93 3d fa 3b 86 bf a8 bd
       -0.05494007 0.07040296 0.0076367348 -0.08239655
000370 5b c0 3d 3d 0c 7e 34 bd 21 d4 07 bd d1 f6 49 3d
       0.046326023 -0.04406552 -0.033161286 0.049307648
000380 b9 cb 59 bb 99 93 31 3d e7 03 a4 3d 3c 2b a9 3d
       -0.0033233 0.04335365 0.08008557 0.082601994
000390 d9 38 5a bd ca 5d 09 3d 65 b7 9b 3d 14 9a 94 3d
       -0.05327687 0.03353671 0.07603339 0.072559506
0003a0 15 87 58 bd 49 8c 3b 3c 6a 2e b1 3d df 29 84 bd
       -0.0528632 0.011447021 0.08651431 -0.06453299
0003b0 d3 c4 8e 3c 0c a2 98 bd 60 ad 63 bd a0 8f a4 3d
       0.017427837 -0.07452783 -0.055585265 0.08035207
0003c0 67 cb 98 3d 79 ab 44 3d 80 92 a9 3d 0e ef 44 3d
       0.07460671 0.04801509 0.08279896 0.048079543
0003d0 ff 19 11 3c 3f dc 6b bd 88 7b 1c 3d b1 f5 34 3d
       0.008856296 -0.05758309 0.038203746 0.044179622
0003e0 1c c0 aa 3d af 59 69 bd d2 43 89 bd 13 4c 8b bd
       0.08337423 -0.056970295 -0.06702389 -0.068016194
0003f0 05 4e b2 3d e7 e8 a5 bd 0b dd f3 3c ed ce 82 bd
       0.08706287 -0.08101063 0.029768487 -0.06387124

fc.2.bias f4 [2]
000000 94 da c3 3c 94 64 02 3d
       0.023907937 0.0318342
