test_model.pth (torch, 5307 bytes, 4 tensors)

fc.0.weight f4 [128, 4]
00000000: bc9a ec3c 5efb a23e cd9c 3abf aaec a0bc
00000010: 607b a3bf db15 57be 4634 05bf 5752 62bf
00000020: 1fe9 4abf 6b16 44be 1d51 06bf 9dd9 873e
00000030: 97d9 1f3e 8f95 5a3f ce04 e03e d258 a7be
00000040: 896e 40bf 4ae2 cbbf 2e0c 6a3e 6fbd 8bbe
00000050: f9b8 a83d 32a5 163d 4d0e 81bf c88c 183e
00000060: 401c 023f 387f 123f 4081 0fbf e5df e93e
00000070: 3345 38bf 2b93 b3bf fd72 31be ff7a 13bf
00000080: 8442 8dbf ff54 3bbf 9cad 5f3c 4086 8bbf
00000090: 702e 39bf f353 243d 6acb ffbf 0350 ccbd
000000a0: 5ee0 013f 6323 e73e bace 72bf 1ecd c4bc
000000b0: 4766 303e b68b 193e 3a17 b03f 3c41 ad3d
000000c0: dcf3 02bf 2914 c2bf 51fb 0dbf 65da f63d
000000d0: 75d4 abbf aa08 9a3f 5f30 e33e 8a69 5cbf
000000e0: 5437 533f 86b6 0cc0 9480 6b3d 9b81 483f
000000f0: bd1f 483f 0d0f 2a3f bd00 52bf bbce 0b3f
00000100: 00e5 d93e 8cd7 d13e 1ef9 c0be f8f7 5abe
00000110: 5fce 70bf ad94 253e 1af8 aebf b3d4 96bd
00000120: 0aa5 f5bf 9c82 f93e 4dc4 f33c 5cef 4d3e
00000130: 896b b6bd e1ce 86bf 1a8c a63f ac47 393f
00000140: 63ff eb3d 036a 1b3f 065e 8c3d 7d35 12bf
00000150: 5c2f 02bf ff9a 04c0 67c8 2bbf a451 f63e
00000160: 27ff 37bf 6218 aabf 91dc 833e d72b 863f
00000170: c0b7 64bf c661 d2bf 1cef 943f 7b2f f53e
00000180: 64b9 e63f 36bd e93e 4f85 43be c55a 8e3e
00000190: eed4 98bf bcaa 67be a110 95bf e955 ee3d
000001a0: 1a10 87bf a3e3 efbd b3f7 bfbf d498 0f3f
000001b0: c4cc afbe 9516 03bf a5e6 f4be 50f3 743e
000001c0: 0d2e 36bf d14d 41be b15f 7d3e 20ca db3e
000001d0: 5d49 4cbf 00f5 43bb d7fe 843e 250d cb3f
000001e0: b2cf 4e3f f8c6 a13e cef9 923f 3984 ab3f
000001f0: 46f7 883f d08e 8ebf a497 0840 6183 d5bd
00000200: 22da 1c3e 2cf5 56bf 7b04 b13b 5ea9 1bbf
00000210: 5046 82bf fa3f 8a3e c1dc 073f c71e 913f
00000220: e629 083d bd9a 45be c935 c73f ca24 15be
00000230: c1e3 9c3f f904 213f 772c 1cbf a88a 0d3f
00000240: 38e6 21bd 6861 3dbe 9b08 86bf fcf9 3b3f
00000250: 1de8 e2bc 468e 66bf c88c 81bf 8fcc 673f
00000260: 1f35 383d 5fa8 0e3e dc2c 6abe c35c cb3e
00000270: c4e4 6fbf 2881 b6bf 43d4 a73f 50cb 12bd
00000280: e361 43bf 7c1b 1cbf 541f 85be 3876 1f3e
00000290: 358a fbbe 4f05 973d cf33 ebbe 0560 1fbf
000002a0: 4504 84bf 2354 4b3f 088a dbbe a1e5 8ebe
000002b0: 1646 07bf 56e5 de3e 382c 75be db54 0c3f
000002c0: e37e c7bf 0e5e ac3f e56b 0d3e 2be8 8fbf
000002d0: 414e 743f 473a be3c 8751 f6be 1741 87be
000002e0: c8ee 4cbe 6fd7 8abe cde4 ad3f 1d4a 32bf
000002f0: 65f0 763e 2a06 a93f a209 ca3e 1b98 cfbd
00000300: 4806 893f a059 42bf d806 e13e a4be 053f
00000310: 36b9 9b3f b6fd 3bbf 4018 2dbe 7eee 91be
00000320: 1a65 1b3f 60f7 4bbf ae87 023f a25e 17be
00000330: 0675 603f e621 be3f bf7e e4be 1053 ddbe
00000340: a51b f03d e508 1a3f d889 1f3e e8e9 5ebd
00000350: 1302 94be f497 34bf d954 0cbf 285f c9bd
00000360: 9d0e 03be 6dd2 ca3f c601 773f 8083 8ebf
00000370: 3d20 68bf e47a 1f3e 5484 c73d 1d53 6e3f
00000380: e47e 18be 898b 55be 3c49 da3e da3c 9c3f
00000390: a455 7ebf 9654 dfbe 096e 623f 84bf d23e
000003a0: 9657 523f fdb4 1a3e 5a88 7fbe 28d8 d13e
000003b0: 15e5 41be 1754 8b3f 9816 fa3e 7148 3c3f
000003c0: 5e25 2c3e 6507 283f ad67 d7be 4ed3 48be
000003d0: 584d 893f b1ad aa3d d57a e9bb cee1 9abf
000003e0: 34b5 17bf ca08 cfbf 5b0c 9a3e c2cd 713f
000003f0: 3808 bdbd 26c4 20bf 57c1 553f 78d8 a93f
0.028882377 0.31832403 -0.7289551 -0.0196441 -1.2772026 -0.21004431 -0.5203289 -0.8840689
-0.79261965 -0.19149177 -0.5246752 0.26533213 0.15610348 0.8538446 0.43753666 -0.32684952
-0.75168663 -1.5928433 0.22856209 -0.27292964 0.08238406 0.036778636 -1.0082489 0.14897454
0.50824356 0.5722537 -0.56056595 0.4567863 -0.7198059 -1.4029287 -0.17329021 -0.5760955
-1.1035924 -0.7317657 0.013652232 -1.0900345 -0.72336483 0.040119123 -1.9983952 -0.099761985
0.5073298 0.45144185 -0.9484669 -0.024023589 0.17226516 0.14994702 1.3757088 0.08459708
-0.5115335 -1.5162402 -0.55461603 0.12053374 -1.3424212 1.2033894 0.44372842 -0.8609854
0.825063 -2.1986403 0.05749567 0.7832276 0.7817343 0.66429216 -0.82032377 0.5461232
0.42557526 0.40984762 -0.3769006 -0.21383655 -0.940649 0.16169997 -1.3669465 -0.07364788
-1.9190991 0.4873246 0.02975669 0.2011084 -0.089072295 -1.0531884 1.3011506 0.7237499
0.115233205 0.60708636 0.06853871 -0.57112867 -0.50853515 -2.0719602 -0.67102665 0.48109162
-0.71873707 -1.3288691 0.25754216 1.0482129 -0.8934288 -1.6436088 1.163547 0.47887787
1.8025327 0.4565217 -0.19093822 0.27803627 -1.1939981 -0.22623724 -1.16457 0.1163748
-1.0551789 -0.1171334 -1.4997467 0.5609257 -0.3433591 -0.5120633 -0.47832218 0.23920941
-0.7116402 -0.18877341 0.24743535 0.42927647 -0.79799443 -0.002990067 0.25975677 1.5863386
0.8078567 0.31597114 1.1482484 1.3399726 1.0700462 -1.1137333 2.1342554 -0.10425449
0.15317586 -0.8396785 0.0054021454 -0.6080531 -1.0177708 0.27001935 0.5307122 1.1337517
0.033243082 -0.19297309 1.5563289 -0.14564815 1.2257005 0.6289821 -0.6100535 0.552897
-0.039526194 -0.18494189 -1.0471376 0.7342832 -0.02769857 -0.9006084 -1.0121088 0.90546507
0.044972535 0.13931416 -0.22868675 0.3971921 -0.93708444 -1.4258165 1.3111652 -0.035838425
-0.7632124 -0.6097944 -0.26000464 0.1557244 -0.4912888 0.073740594 -0.45937964 -0.6225589
-1.0313803 0.7942526 -0.42878747 -0.27909568 -0.5284132 0.43534344 -0.2394265 0.5481698
-1.5585598 1.3466203 0.1381069 -1.1242727 0.95431906 0.023221148 -0.48109075 -0.26416847
-0.20012963 -0.27117488 1.358545 -0.6964434 0.2411514 1.3205006 0.39460474 -0.10136434
1.0705042 -0.75918007 0.43950534 0.5224402 1.2165897 -0.7343401 -0.16903782 -0.28502268
0.60701144 -0.7967434 0.5098828 -0.14782193 0.87678564 1.4854095 -0.4462795 -0.43227434
0.11724023 0.6016982 0.15579927 -0.05442229 -0.28907833 -0.7054436 -0.5481697 -0.09832603
-0.12798543 1.5845467 0.9648708 -1.1133881 -0.9067419 0.15574223 0.097420365 0.9309557
-0.14892155 -0.2085401 0.42633998 1.220607 -0.9934943 -0.4361922 0.8844915 0.4116174
0.82164896 0.15108104 -0.24954358 0.40985227 -0.18935044 1.0885037 0.48845363 0.73548037
0.1681113 0.65636283 -0.42071286 -0.19611856 1.0726728 0.0833391 -0.0071252384 -1.210016
-0.5926087 -1.6174557 0.3008755 0.94454587 -0.09230083 -0.627993 0.8349814 1.3269186

fc.0.bias f4 [128]
00000000: d387 8dbf 4caa 553f c1db a9be f0db 37bf
00000010: 2ab4 dabe d364 8abf 1b68 0dbf f7c2 dbbf
00000020: 7e4b 6d3e 1d2f aabf 0487 c5bf f0ff cebf
00000030: db79 dbbd 4419 51bf 3bc5 87bf adbd 453f
00000040: 790d 8fbf d927 133e ae95 25bf 466c acbf
00000050: 5f1c b13f 5c4c 683f 273a c2be 92b1 b2be
00000060: 84eb b73f a4cc 6cbf 8ec3 e5bc 8e6d 0cbf
00000070: e525 b93e fdad d13e d1eb dfbd fd2d ee3d
00000080: 5ff7 91be 9eae 813e db83 41bf 2487 bdbf
00000090: dc54 41bf d231 353f d0ad b9bb f6d3 dbbf
000000a0: eb7c e93f f60d 6c3f 7f05 cfbe 5bb9 743f
000000b0: fe30 82bf f0b3 9cbf a79e 2cbd 07ff 063f
000000c0: 3546 4f3f 93bf 7ebc 3eeb 973f 1f8c ecbf
000000d0: ac79 58bf 3b79 01bf be54 403f 6c13 c13e
000000e0: c80a 633f b76b 4bbf 16ff 70bd 47a0 793e
000000f0: 5dca 853e 518d 4b3f 834e 403f d7d9 c0be
00000100: fbee 44bf d126 623e 6250 2e3f c0c0 58bf
00000110: bf61 373f 108f 303e 33b7 b3be 6585 da3e
00000120: 2edc 043f 20c1 e2be 8612 93bf bf4d a8bf
00000130: e3e5 88bf ff6c ee3b 09e2 9e3f 3653 81bf
00000140: 7d0f 54bf e7b7 bb3f a9bf 9a3f 2ce1 e43e
00000150: ce19 21bf 92e6 993d 1c6c 9fbe ab3f 33bf
00000160: a9aa 7cbf 79ea e1bd 362b 08c0 7cdc dabf
00000170: 79a2 aa3f c78c 073f a694 663f f319 8b3f
00000180: 3771 16bf 73fc f2bf 83c8 ffbe feec fbbe
00000190: 74c4 703f 5707 493d ee90 0b3d 37f4 ec3e
000001a0: f83b fa3d 864b 6fbf b0cc e8be 9773 bc3d
000001b0: 0863 a0bf 7c71 aebc b3e5 11be ef7b e83e
000001c0: f797 60bf f62e 2a3f fa55 623d f4ed 23bf
000001d0: 711a 26c0 c9b2 32bf 24b0 623f b7be 903e
000001e0: 6788 7ebe dbe9 793f c41a 19bf f1c6 ae3e
000001f0: 4ff9 703f 9163 9a3f 47ad 2f3f 8dd9 7d3f
-1.1057075 0.8346298 -0.3317547 -0.71819973 -0.4271558 -1.0812019 -0.5523698 -1.7168874
0.23173329 -1.3295628 -1.5431828 -1.6171856 -0.107166015 -0.8167918 -1.0607065 0.7724255
-1.1175987 0.1437067 -0.6468152 -1.3470542 1.3836783 0.90741515 -0.37934992 -0.349011
1.4368749 -0.92499757 -0.02804735 -0.5485467 0.36161724 0.40953055 -0.1093365 0.11629865
-0.28509042 0.25328535 -0.7559182 -1.4806867 -0.7552011 0.70779145 -0.005666472 -1.717406
1.8241247 0.922088 -0.4043388 0.9559533 -1.0171201 -1.2242413 -0.04214349 0.5273289
0.809665 -0.015548605 1.1868665 -1.8480262 -0.84560657 -0.5057561 0.75129306 0.3771013
0.88688326 -0.79461235 -0.05883702 0.24377547 0.26130953 0.79512507 0.751198 -0.376662
-0.76927155 0.2208512 0.68091404 -0.84669113 0.71633524 0.17242074 -0.35100707 0.42679897
0.5189847 -0.44287968 -1.1490028 -1.3148726 -1.0695156 0.007276177 1.241273 -1.0103519
-0.82836133 1.4665498 1.208974 0.44703043 -0.6293 0.07514681 -0.31137168 -0.70019025
-0.98697907 -0.1103105 -2.1276374 -1.7098536 1.3330833 0.52949184 0.9007057 1.0867294
-0.587665 -1.8983291 -0.49957666 -0.49204248 0.94049764 0.049079265 0.034073763 0.4628007
0.122184694 -0.93474615 -0.45468664 0.092017345 -1.2530222 -0.021294348 -0.1424778 0.45407054
-0.8773188 0.66477907 0.055257775 -0.6403496 -2.5953639 -0.69804054 0.8855002 0.28270504
-0.24856721 0.9762246 -0.59806466 0.34136155 0.94130415 1.2061635 0.68623775 0.9916008

fc.2.weight f4 [2, 128]
00000000: 931b de3f 733c adbf 8756 ad3f 9b5c 16bf
00000010: 2fcf 71bd 1159 b43f adfb 363e b644 993f
00000020: 169b c13f e37e 46be 5cad e83e 3111 023e
00000030: c7a9 37bc 3d0d 6b3f aa51 2b3f 9ccd 033e
00000040: 3f1a 333e ef2c b9bf 4a8c 293b 912c 9d3c
00000050: 0828 f03e 33a0 2dbf a8c7 08bf 1bef 843f
00000060: 57ff 643f bc17 16bd e134 f53e 8235 6c3d
00000070: a46e bbbe 6415 0dbe b7d1 0dbf 80ce 8c3e
00000080: 9ce4 113f fb1f 2bc0 2d66 0ebf a2e3 703f
00000090: 29ca aebe 5ee7 0dbf c2f6 873f b582 a1be
000000a0: d657 d7bb 1985 aa3d 3fc5 08bf e6fc 483e
000000b0: 908e b2be f2e9 8e3f 0485 59be e344 8abe
000000c0: 792c afbf 1ae9 433e 6121 4fbf 16d9 51bf
000000d0: 718c 043f b9ae 513f 7177 51bf 11b6 39bf
000000e0: 268b 09bf 7de8 13bf 883a d53d 343b 493e
000000f0: 1770 1bbe 4cd8 8cbe 91fb 8fbe 7f2a 1c3f
00000100: 01cd 6ebf b9f0 723f 712f 3b3e ba3a 103f
00000110: 95fb 7c3f 4b14 8abe a438 343c da60 5d3f
00000120: d9d8 febe 15ce 69bf c01d 493f 522d f63e
00000130: c5c2 293f c3fb 18be c399 a2bf 195b a1be
00000140: 34b7 92bf 487b 733e 2d53 233f 6504 ca3f
00000150: cbc3 e33e 309e f33e 0b78 83be 2d78 e6bd
00000160: 17f6 7b3d d91c c53d a4e1 cc3e 4a4d c3be
00000170: 6ba4 6c3e b4c8 5fbd d39e b43e 2106 dd3e
00000180: 6102 f93e da13 e33f 0ba7 9c3e fc24 a33e
00000190: a969 8a3f 79b0 83bf d0c4 98bf 4fb0 713f
000001a0: dce8 86be 2a69 b5bd b3df 7fbe 7243 2d3f
000001b0: a155 5ebe 656a bdbe 2593 41bf 5391 5d3f
000001c0: 7cae 0abf 0c30 8f3f d304 973e 001b 01be
000001d0: a76d 95bd 7ba5 bc3e 969c 323f 6641 3f3f
000001e0: b5bc 7ebf 9eb7 b73d c0b1 f63e 71d9 b63d
000001f0: b039 693e ce66 54bf 9e54 04bf efef ff3d
00000200: 6b89 86bf ea63 35bf cd69 04be c715 e1bf
00000210: c104 a4bf e578 223f dfb2 ba3f 5dec 86bf
00000220: 9cdb 93be 65c7 303f 034b 40bf d5ca 86bf
00000230: 4740 79be 16d7 c1bf 9265 02be 7d19 0a3e
00000240: 67b6 98bf 9e5c b9bf 4c78 9fbf d13a fe3e
00000250: ef50 ad3e 36b4 363d c69d d13e 3208 dbbf
00000260: 3611 753b 27ee c1be 6aa2 b8bd 19c9 bbbe
00000270: e634 5b3f 32b5 d23e f6b4 b73d c78f 8dbe
00000280: b989 6bbf 4b04 7a3f 6ae0 b8bf b73c 533f
00000290: 9258 ddbf fd88 283e 5cbc f93e d19d c73e
000002a0: 99cd c93e f13c 253f afea 0b3f 9b63 29bf
000002b0: 12ad 8f3e 9e8d 35bf 4ff9 03bd 140e 50be
000002c0: 2d87 0cbf 1112 4bbe dce3 f0be bd07 fe3d
000002d0: 8c88 ebbe 223e 6fbe 332e 6a3e d5c2 ed3f
000002e0: 5909 8e3e 667f fc3e 326a 103d 1d64 aabe
000002f0: e427 03bf d64e 2a3e 10ec 3abe 3188 08bf
00000300: 7c5e a53d f7fe be3d 9cb0 1dbc 1018 e3be
00000310: 5de3 863b 0eb1 033e 74e9 143e d6e0 673f
00000320: 70fa 0dbf 9a9e 9abe e6b7 5abf 2327 81bf
00000330: 1c38 c6be 460f 5e3e 7de4 b8bd 7a96 b3be
00000340: f01f cc3f a128 fd3e 2e12 28bf 9976 4f3d
00000350: 9112 d9be afce 743f 7040 e9bb 4d5e 0f3f
00000360: 8147 0f3f 3cf0 91bd f7c8 38bd bfdb a43e
00000370: 6337 82bd 0921 05bf cdb6 1f3f 2c24 7ebe
00000380: 19db 0d3f 59cb 80bf 9134 9e3f 1ee0 bd3f
00000390: f226 1b3e 67f0 ddbe e954 2a3f cc15 1dbf
000003a0: 0fbf ec3e 4dcb 75bf 2eef 0dbf 8d44 893f
000003b0: 26b3 103e a1f3 c9bd d436 913d eb14 71bf
000003c0: a6be 743f 0f96 05bf 1b83 1d3f c28a 113f
000003d0: 467b babf a147 3abe 1d11 85be da16 863f
000003e0: 1b58 3e3f a265 9b3e 2a55 7b3f 3460 10bf
000003f0: d7c1 1bbe 9bf8 9a3c b87c 43bd 8fd2 883f
1.7352165 -1.3534073 1.3542031 -0.58735055 -0.059035476 1.4089681 0.17869444 1.1974094
1.5125453 -0.19384341 0.45444763 0.1270187 -0.011209912 0.91817075 0.66921484 0.12871403
0.17490481 -1.4466838 0.0025870972 0.01918629 0.4690554 -0.6782257 -0.5342965 1.0385469
0.8945212 -0.03664373 0.47891906 0.057668217 -0.3660785 -0.13777691 -0.55398124 0.27501297
0.56989455 -2.673827 -0.5562466 0.9409734 -0.3413861 -0.55431163 1.062218 -0.31545034
-0.00657175 0.083261676 -0.53425974 0.19627723 -0.34874392 1.1165144 -0.21242148 -0.2700568
-1.3685447 0.1913189 -0.8091031 -0.8197187 0.51776797 0.8190723 -0.8182288 -0.72543436
-0.5372795 -0.57776624 0.104115546 0.1965149 -0.15179478 -0.2750877 -0.28121617 0.61002344
-0.9328156 0.94898564 0.18279816 0.5633961 0.98821384 -0.26968607 0.010999832 0.8647591
-0.49774817 -0.9133008 0.7856102 0.48081452 0.6631282 -0.1493979 -1.2703174 -0.31514814
-1.1462159 0.23777497 0.6379879 1.5782591 0.44485316 0.47581625 -0.25677523 -0.112533905
0.061513986 0.09624643 0.400159 -0.38144904 0.23109595 -0.054634765 0.35277423 0.43168738
0.48634627 1.7740433 0.30596194 0.31864154 1.0813495 -1.028823 -1.1935062 0.9440965
-0.26349533 -0.08857949 -0.24987678 0.6768104 -0.21712352 -0.36995235 -0.7561515 0.8654987
-0.5417249 1.1186538 0.29495868 -0.12607956 -0.07296305 0.36845002 0.6977018 0.74709165
-0.99506694 0.08970569 0.48182487 0.089281924 0.22775912 -0.8296937 -0.51691616 0.124969356
-1.0510687 -0.7085558 -0.12930985 -1.7584771 -1.2813951 0.6346572 1.4585837 -1.0540882
-0.28878486 0.6905425 -0.7511446 -1.053065 -0.24340926 -1.5143764 -0.12734058 0.13486286
-1.1930665 -1.448139 -1.2458587 0.49654248 0.3385081 0.044605456 0.40940684 -1.7111876
0.0037394292 -0.37877008 -0.09015353 -0.36676863 0.8562759 0.41153866 0.089700624 -0.27648756
-0.92007023 0.976628 -1.4443486 0.8251452 -1.7292655 0.16458507 0.4877652 0.38987592
0.3941467 0.64546114 0.54654974 -0.6616761 0.2806173 -0.70919216 -0.03222018 -0.2031787
-0.5489376 -0.1983111 -0.47048843 0.1240382 -0.46002614 -0.23363546 0.22869186 1.8575083
0.27741507 0.49315947 0.035257526 -0.33279505 -0.51232743 0.16631636 -0.18254113 -0.5333281
0.08074662 0.093259744 -0.0096246265 -0.44354296 0.0041164593 0.1286051 0.1454218 0.9057745
-0.5546026 -0.30199128 -0.85436857 -1.0090069 -0.38714683 0.21685514 -0.09027956 -0.35075742
1.5947247 0.4944506 -0.6565274 0.050650213 -0.42396978 0.95627874 -0.0071182773 0.56003267
0.5596848 -0.07125899 -0.04511353 0.32198903 -0.063582204 -0.5200353 0.62388307 -0.24818486
0.5541244 -1.0062057 1.2359792 1.483402 0.15151575 -0.43347475 0.6653581 -0.61361384
0.46239516 -0.9601334 -0.55443084 1.0724045 0.1413084 -0.09860922 0.07090536 -0.94172543
0.95603406 -0.52182096 0.61528176 0.5685235 -1.456887 -0.18191387 -0.2598962 1.0475724
0.7435319 0.30350977 0.98176825 -0.56396794 -0.15210663 0.018917372 -0.047726363 1.0689257

fc.2.bias f4 [2]
00000000: 0c9a d73c 6f92 9f3d
0.026318572 0.07791602
