test_model.pth (torch, 5307 bytes, 4 tensors)

fc.0.weight f4 [128, 4]
000000 d4 db 71 be dc 84 2a be 76 fa c6 be 48 26 09 3e
       -0.23619014 -0.16652244 -0.38862962 0.1339351
000010 40 dd 8d bc f6 85 e6 be 10 fd 91 3e e4 15 a2 be
       -0.017317414 -0.4502408 0.28513384 -0.31657326
000020 c0 9d c4 3c 58 01 3d be 68 da 1e 3e 98 df ca 3d
       0.024001002 -0.18457544 0.15513003 0.099059284
000030 f0 c1 d9 3e fc 38 56 3e 20 94 ea be 00 52 d6 3a
       0.42530775 0.20920175 -0.45816135 0.0016351342
000040 64 cc f9 be c0 7f 2b bc 00 6e 1f bd 10 aa 1b be
       -0.4878875 -0.01046747 -0.038923264 -0.15201592
000050 a0 90 bb be 92 31 80 3e 6c b1 d9 be f2 b2 ac be
       -0.36633778 0.2503782 -0.42518175 -0.33730274
000060 50 a3 e9 be a0 78 73 3d ac 35 51 3e b8 67 b1 3d
       -0.4563241 0.05944121 0.2043063 0.08662361
000070 20 7d a4 be f8 3a 93 be 70 f6 2e 3e 20 07 bb 3d
       -0.32126713 -0.28755927 0.17086196 0.09132218
000080 c0 71 78 be 90 35 5e be a8 f5 b6 3e 56 84 82 be
       -0.24262142 -0.2170012 0.35734296 -0.2549159
000090 b0 8b a5 3e 00 a2 8c be 70 a8 ae 3e 24 c6 fa be
       0.32333136 -0.27467346 0.34112883 -0.48979294
0000a0 a8 91 0a 3e 14 7b e4 3e d4 7c ae 3e 54 64 3d 3e
       0.13532126 0.4462515 0.3407961 0.18495303
0000b0 30 07 49 3e ae 1f f8 3e ba 6f fa 3e 8e 7a fb be
       0.19631648 0.4846167 0.48913366 -0.4911694
0000c0 0c a1 62 be f2 2c 8d be 28 58 e5 bd ee d6 88 3e
       -0.22131747 -0.27573353 -0.11198455 0.26726478
0000d0 16 92 d1 3e c2 de d9 3e 80 e6 b3 bb 00 eb 97 be
       0.40931767 0.42552763 -0.005490124 -0.29671478
0000e0 b0 75 4b bd 00 89 47 bd e2 ce bf be 50 2d ea be
       -0.049672782 -0.048714638 -0.37462527 -0.45737696
0000f0 30 c7 b4 be 00 48 ba 39 10 34 be 3d c0 7e 3c 3e
       -0.35308218 0.0003553033 0.09287274 0.18407726
000100 f4 ec 00 3e da bb 8e 3e 04 6b 34 be 5e 4e 86 be
       0.1259039 0.27877694 -0.17618948 -0.26231664
000110 2a d9 c7 be 38 62 82 be 70 ee 2f 3d e2 a2 d7 be
       -0.3903287 -0.2546556 0.042952 -0.42116457
000120 40 07 3a bd f8 3a d3 be dc 47 30 be e2 30 fe 3e
       -0.04541707 -0.41255927 -0.17214912 0.4964667
000130 c0 dc 1f 3d b4 45 22 3e 6c 3f b2 3e 2c 49 0c be
       0.039028883 0.15846902 0.34814012 -0.13699788
000140 78 be de 3e b0 55 42 3d 7a 50 8e be 88 41 fa bd
       0.4350469 0.047445 -0.27795774 -0.1221953
000150 20 10 13 3e 58 76 22 3e 1e 4a ad be b8 ae 8d 3e
       0.1436162 0.15865457 -0.3384561 0.27672362
000160 d4 54 b6 be ee ea a8 be 00 1c 7c 3d 80 1d 27 3c
       -0.35611594 -0.32991737 0.06155014 0.010199904
000170 94 e7 3a be 50 20 79 bd e0 a8 34 be ee 9e ac be
       -0.18252403 -0.06082183 -0.17642546 -0.33715004
000180 42 1e 89 be e8 90 ba be a8 6a 81 3e de 9b e8 3e
       -0.26780897 -0.3643868 0.25276685 0.45431417
000190 3a 55 d8 3e e6 70 c6 3e de 76 db be c0 e2 51 3d
       0.42252523 0.3875801 -0.42864126 0.051241636
0001a0 58 7d 46 be d8 94 7a be ee 5b e5 3e f0 3b 96 3d
       -0.19383752 -0.24470842 0.447967 0.07335651
0001b0 a4 b8 5d be a8 c1 a6 3d a6 b8 bd 3e 74 b9 05 3e
       -0.21652466 0.08142406 0.37054938 0.13059026
0001c0 98 ff 30 be bc 0f 98 3e 48 61 1e be a4 eb 60 be
       -0.17285001 0.29699504 -0.15466797 -0.2196489
0001d0 e2 03 c2 be 84 d8 e6 3e 44 36 d3 3e b0 98 ce 3e
       -0.37893587 0.45087063 0.4125234 0.40350866
0001e0 de 87 af 3e 0c 03 e1 3e d4 3e a4 be ca 1a e5 be
       0.34283346 0.43947637 -0.32079184 -0.44747
0001f0 28 13 d7 3d f8 08 44 3e 10 75 bf be 04 ff 13 3e
       0.10501701 0.19144046 -0.37394 0.1445275
000200 e0 c9 75 3e 88 e2 88 3d e0 0a d3 3c d4 08 dc 3e
       0.2400279 0.066838324 0.025762022 0.42975485
000210 c8 17 88 be 3a 9f b4 3e f0 58 ad be ce 0b be 3e
       -0.26580644 0.3527773 -0.33856916 0.3711838
000220 b8 56 bd be e0 fd 7d 3e 28 9d e8 bd 40 43 a1 be
       -0.36980224 0.24803877 -0.113581 -0.3149662
000230 d4 97 0b be 54 f9 33 be 68 6c ac be 8a ba e9 be
       -0.13632137 -0.1757558 -0.33676457 -0.4565013
000240 48 3b 97 3d 64 39 5d 3e c2 e9 9e 3e c8 59 7d be
       0.07384354 0.21603924 0.31037718 -0.2474128
000250 fa 2e bb be 10 98 33 3d a2 33 c0 3e 80 56 6b bc
       -0.36559278 0.04384619 0.37539393 -0.014363885
000260 92 72 81 be 30 9b 32 bd 5c 9c 3f be e0 1c c5 3e
       -0.25282723 -0.04360503 -0.1871199 0.38498592
000270 c6 bd b3 be ca 24 ed be 74 05 d4 3e 80 2d c0 3d
       -0.35105723 -0.4631713 0.4141041 0.093836784
000280 b6 86 e1 be 88 6f bf 3e ec 02 62 be 5a b2 ba be
       -0.4404809 0.3738978 -0.22071427 -0.36464196
000290 a8 7b 88 bd 58 53 73 be 00 8b 2a 3b 12 8c f7 be
       -0.066642106 -0.23762262 0.0026022792 -0.48349053
0002a0 5a 07 c4 be d0 b7 95 be 66 4a e4 be 66 9f b8 3e
       -0.3828686 -0.292418 -0.44588012 0.3605911
0002b0 00 d0 ca 39 88 e0 f5 be ec c0 93 be e0 bb a7 bc
       0.00038683414 -0.48022866 -0.28858125 -0.020475328
0002c0 16 4c df 3e 8c d0 cc 3e 48 7f 38 be 9a 0f dd 3e
       0.43612736 0.4000286 -0.18017304 0.43175966
0002d0 f2 26 d8 3e c0 7a ed 3d 3c a5 fb 3e 38 bf b4 be
       0.42217213 0.11595678 0.491495 -0.35302138
0002e0 30 96 3b be 2e 12 f9 be be 35 b2 be 1c 3e 2b 3e
       -0.1831901 -0.48646683 -0.34806627 0.16722912
0002f0 a0 79 99 be 7a 59 c9 be ec b6 96 be 42 bb d6 3e
       -0.29975605 -0.39326078 -0.29436433 0.4193974
000300 90 59 44 bd 26 75 90 be 0c 6c 18 3e 6e f0 84 be
       -0.047936976 -0.28214377 0.14884967 -0.25964683
000310 18 5a 9c bd e8 4a d3 3d 80 a3 cd 3d ac c1 f3 be
       -0.076343715 0.103170216 0.10040951 -0.47608697
000320 74 60 ea 3e 80 4e a0 3c 16 0b ce 3e 38 1f c8 be
       0.45776713 0.019568682 0.40242833 -0.39086318
000330 72 34 8b be 34 d1 00 be 5c a0 42 be 58 6f d2 bd
       -0.2718845 -0.12579805 -0.19006485 -0.102751434
000340 ac 09 57 3e a0 69 d8 3d 00 cb 6c bb 5c fd f0 3e
       0.20999783 0.10567021 -0.003613174 0.47068298
000350 56 6b d6 be 06 47 fd 3e 00 d7 37 be 08 66 99 3e
       -0.41878766 0.4946825 -0.1795311 0.29960656
000360 b0 81 37 3d 96 68 8c be 72 38 f2 3e 4c af 7a be
       0.044801414 -0.27423543 0.4730869 -0.24480933
000370 4c 29 17 be 98 23 c3 be e8 69 e6 3e f0 ab a1 bd
       -0.14761847 -0.38113093 0.45002675 -0.078941226
000380 ea 5b 97 3e 6e 62 d6 be f0 b2 69 bd 00 6f 89 3d
       0.29562312 -0.4187197 -0.057055414 0.06710625
000390 86 32 80 be c0 8b 01 bd b0 b4 ba 3e 1c a2 92 be
       -0.25038546 -0.031627417 0.3646598 -0.28639305
0003a0 dc 54 ce 3e 80 14 55 bd f8 2f 6c 3e a8 fa bb bd
       0.40299118 -0.052021503 0.23065174 -0.09178668
0003b0 68 64 3c be 14 f1 35 3e e8 42 d4 be e8 6b 89 3d
       -0.18397677 0.17767745 -0.41457295 0.067100346
0003c0 16 a6 e1 be e8 f4 90 bd d4 01 8b 3e 28 22 98 be
       -0.44072026 -0.07077962 0.27149832 -0.2971356
0003d0 a6 fa b9 3e 20 68 88 3c ec 7a fe be c0 cb c4 3d
       0.36324042 0.016651213 -0.49703157 0.09609175
0003e0 3e e6 98 3e ce f9 9d be 24 2a 3b 3e a0 ff e4 be
       0.2986316 -0.30854648 0.18277794 -0.44726276
0003f0 72 d4 a1 3e 3c 8d 67 be 9e a7 b0 be 40 db 2c be
       0.31607395 -0.2261247 -0.34502882 -0.16880512

fc.0.bias f4 [128]
000000 9a 83 99 be 40 c3 1b be 0a 80 f7 3e 50 88 a0 be
       -0.29983217 -0.152112 0.48339874 -0.31353998
000010 06 6c e2 3e 66 cf 8f 3e f2 93 db 3e 40 e6 c8 bd
       0.4422304 0.2808792 0.4288631 -0.09809542
000020 9c b2 49 3e e0 cb 33 be be f1 b1 be 8a a7 89 be
       0.1969704 -0.17558241 -0.34754747 -0.26885635
000030 74 cd 80 3e 38 58 08 be 40 9b 39 be 00 38 3a bb
       0.25156748 -0.13314903 -0.1812563 -0.0028414726
000040 2a 3e 9d be 90 7c 56 bd 44 53 a2 be 04 e1 9d 3e
       -0.3071149 -0.052364886 -0.31704152 0.30835736
000050 66 5a da 3e e8 6d e5 be 40 18 70 bd e8 15 8d be
       0.42647094 -0.44810414 -0.058616877 -0.27555776
000060 b2 2e c5 3e a2 24 a1 3e 98 f7 d3 be bc 27 86 be
       0.38512188 0.3147326 -0.41399837 -0.2620219
000070 a4 d1 12 3e 60 90 0a be d2 ec eb 3e 20 b7 38 be
       0.14337784 -0.13531637 0.46079117 -0.18038607
000080 c4 8b af 3e d0 43 af be 62 cd c7 3e 7c 86 bc 3e
       0.3428632 -0.34231424 0.39023882 0.36821353
000090 3c 64 f5 3e 20 8a 7d bd a0 aa c4 3d f0 3b 6e 3e
       0.47928035 -0.061899304 0.09602857 0.23265052
0000a0 74 b4 14 be 7c 5c c8 be 62 4b b2 be 3c 68 b0 be
       -0.14521962 -0.3913306 -0.34823138 -0.34454525
0000b0 2c ae c9 be 14 89 eb 3e 40 77 8f be 4e b4 93 3e
       -0.39390695 0.4600302 -0.28020668 0.288485
0000c0 72 5b 92 3e 2c c5 35 be ee a6 c9 be 98 18 5d 3e
       0.28585392 -0.17750996 -0.3938517 0.21591413
0000d0 1c fe 70 be fc f3 98 3e 24 ca af be e8 1d e2 be
       -0.23534435 0.29873645 -0.3433391 -0.44163442
0000e0 30 54 f1 3d 12 9f a8 be 10 65 a2 bd aa 0c af be
       0.117836356 -0.3293386 -0.079294324 -0.3418935
0000f0 d8 ed c1 bd 74 14 d4 3e 0e 4b 81 be 38 88 57 be
       -0.09469193 0.41421854 -0.25252575 -0.21048057
000100 84 25 b2 3e 60 f2 a0 be 0a 68 fe 3e b4 b3 5b be
       0.34794247 -0.31434917 0.4968875 -0.2145527
000110 60 d0 52 be ec a2 3c 3e 20 bf 3d 3e 98 83 dd 3d
       -0.20587301 0.18421525 0.1852994 0.10816115
000120 4c 1a 63 3e 80 f5 46 bd 50 17 0b be bc 7e a5 be
       0.22178 -0.04857397 -0.13583112 -0.32323253
000130 cc 02 13 be ee a3 84 3e 28 5e 8a bd 16 ed cb 3e
       -0.14356536 0.25906318 -0.0675624 0.3982932
000140 b6 13 f1 3e 1c 90 d3 3e 40 93 4f bc d0 2b b2 3d
       0.4708535 0.41320884 -0.0126693845 0.08699763
000150 18 d2 84 bd f8 94 a1 be 9c 04 72 3e 00 2b 67 be
       -0.06485385 -0.31558967 0.23634571 -0.22574997
000160 8c 90 c6 3e a4 c5 5b 3e 78 7f 97 3e 3a b4 da be
       0.38782156 0.21462113 0.29589438 -0.42715627
000170 3a f4 97 be 74 c7 28 be fc bd 01 be 42 f1 fa be
       -0.29678518 -0.16482335 -0.1267013 -0.4901219
000180 d0 c6 a7 bd 1c e2 98 be 92 8f ed be cc 63 bc be
       -0.08192217 -0.29860008 -0.46398598 -0.3679489
000190 a0 3a 9a bd 40 e0 5a bd 0e 3f c3 be 20 3c fa 3e
       -0.07530713 -0.053436518 -0.38134044 0.48873997
0001a0 b2 fd c9 be a4 13 15 3e 00 e7 d6 bd 1e f7 bb 3e
       -0.39451367 0.14558274 -0.104932785 0.36711973
0001b0 00 75 45 3e 70 25 61 3d d0 7b 10 be bc 6f 12 be
       0.19282913 0.054967344 -0.1410973 -0.14300436
0001c0 40 26 a9 bd 1e fc dc 3e 62 41 9b be 86 bf 98 be
       -0.08259249 0.431611 -0.3032332 -0.2983362
0001d0 dc 2a 64 be 98 54 20 be ae 59 b8 3e 5a e9 dc be
       -0.22281975 -0.1565727 0.3600592 -0.43146783
0001e0 08 cc a3 3e 6a 94 ae be 24 89 61 3e de ae 82 be
       0.319916 -0.34097606 0.22024971 -0.25524038
0001f0 9c fe f3 3e f6 87 9b be 7c 45 10 3e 40 73 30 be
       0.4765519 -0.30377167 0.14089006 -0.17231464

fc.2.weight f4 [2, 128]
000000 99 45 9f bd ae cf b1 3d b5 2e ae 3d e3 ed b3 bc
       -0.077769466 0.0868219 0.085050024 -0.02196402
000010 26 93 32 bd 4c 25 9c bc 71 3b 9f 3d 7f 69 9f bd
       -0.043597363 -0.019060753 0.077750094 -0.07783794
000020 66 a3 2e 3d 57 fd 90 3d b8 f5 5b bd c2 74 81 3d
       0.042636298 0.07079571 -0.053701133 0.06321098
000030 ae 77 98 3d 05 09 c9 bc fe e9 d1 bb dc fd 40 3d
       0.07444702 -0.024540434 -0.006406068 0.0471171
000040 3e 7f 40 bc dd 26 45 3d e3 6f 9e bd ca 97 45 bd
       -0.011749087 0.048132766 -0.077361844 -0.04824046
000050 28 38 a5 3d 0f 87 13 bc 6d 85 da bb e2 7c 22 bc
       0.080673516 -0.009004368 -0.0066687376 -0.00991747
000060 63 67 93 3d ff 4a c2 bc cd fe a2 3d 44 20 0a 3d
       0.07197454 -0.023717402 0.07958756 0.033722177
000070 e7 01 50 bd 90 57 8a bd 75 66 0a bd d2 97 a6 bb
       -0.050783064 -0.067549825 -0.033789117 -0.0050840164
000080 50 e4 a7 bd 36 06 ac bc 93 a5 13 3d 68 64 70 bd
       -0.08197844 -0.020999055 0.036046576 -0.058689505
000090 49 1f 55 bd f9 75 07 bc 00 8b 1a 3d 5e 34 3c bd
       -0.05203179 -0.008267873 0.037730217 -0.04594838
0000a0 ee 38 25 3d e4 b5 53 3d da 90 9b bc 0c ac 0b bd
       0.040337496 0.051687136 -0.018989969 -0.034099624
0000b0 5c a7 be 3c 79 aa c3 bc 7d 21 67 bd 41 ed 66 bd
       0.023273163 -0.023884999 -0.05642842 -0.056378607
0000c0 f4 97 bb bc 21 d7 a6 bd c2 83 49 3d 96 aa 62 bd
       -0.022899605 -0.08146501 0.04919792 -0.055338465
0000d0 22 50 89 bc bc ca c3 bc a7 74 06 bd f3 19 01 3d
       -0.016761843 -0.023900382 -0.032826092 0.031518888
0000e0 9b ff d5 bc 2b c1 94 bd 14 db 92 bd 44 da 3f 3c
       -0.026122859 -0.07263406 -0.07170692 0.011709753
0000f0 6e c4 1a bb 55 45 1d bc 7b 3f 66 bd 07 1c 18 3d
       -0.0023615616 -0.00959905 -0.056212883 0.037136104
000100 fc 1b 09 bc 5f 10 84 bd cd a7 3a 3d f1 e7 24 bd
       -0.008368488 -0.06448435 0.045570184 -0.04026026
000110 1a cc 96 bd 0d 6f 94 3d 85 5e 22 3d 97 b9 29 bd
       -0.07363148 0.07247744 0.039640922 -0.041436758
000120 97 52 4c bc 5c d9 24 bd 2b 77 68 bb 74 89 1a bd
       -0.012470863 -0.040246353 -0.003547142 -0.03772874
000130 b7 29 f9 3b ff 80 4d 3d b3 55 53 bd 3c 8b 00 3d
       0.0076038498 0.05017185 -0.0515954 0.031382784
000140 1f ff 76 bc 93 6f 14 3d e9 62 a0 bd 99 0d 53 bd
       -0.015075474 0.036239218 -0.078313656 -0.05152664
000150 ac f0 aa 3d 6a 60 9c 3d fe 45 4c bd e9 f4 79 bd
       0.08346686 0.07635577 -0.049871437 -0.06102458
000160 55 d6 4c bd 9c db 9b bd e6 19 17 3d 89 7e 6a 38
       -0.05000909 -0.076102465 0.036889933 5.5907793e-05
000170 d2 21 8b 3d 3d 96 63 3b 55 e1 96 bd 66 9c 18 bc
       0.0679356 0.0034727 -0.073671974 -0.009314632
000180 fd b1 a9 bb 5b 30 4f 3d 39 2c 95 bd a6 8b 3a bd
       -0.0051786886 0.050583225 -0.072838254 -0.045543335
000190 12 4f 77 bc 18 be 58 3c e4 53 af 3d 23 41 a0 3d
       -0.015094535 0.013228916 0.08560923 0.07824924
0001a0 ce 01 a1 bc 5a 82 90 3d f3 01 23 bd 82 3a 7b bd
       -0.01965418 0.070561126 -0.03979678 -0.061335094
0001b0 27 3b 68 3d bb 48 1a 3d c4 66 d0 bb 36 96 66 3d
       0.056697037 0.037667017 -0.006359907 0.056295596
0001c0 1b 78 88 bd 38 98 8a 3d 98 4f a0 3c c7 f5 6d bc
       -0.06663533 0.06767315 0.019569203 -0.01452393
0001d0 e7 eb 77 3d 2e db 24 bd e3 f8 96 bd 3b 65 15 bd
       0.06052771 -0.04024809 -0.0737169 -0.036473494
0001e0 ed 76 b4 bd 61 50 8d 3b 3d 31 ab 3d 09 94 ea bc
       -0.08811746 0.0043125604 0.08359001 -0.028635042
0001f0 65 93 23 3b 07 11 19 bd cf 51 23 3a f5 a8 94 3d
       0.002495968 -0.037369754 0.0006230147 0.072587885
000200 7e 25 9d 3c 8f b1 66 3d 53 e0 08 3b 1c 2f ae bd
       0.019182917 0.056321677 0.002088566 -0.08505079
000210 e2 54 1a 3c 81 d6 95 bd a2 5e ed bc 42 86 98 bb
       0.009419652 -0.07316304 -0.028975789 -0.0046546767
000220 46 9a 81 3d 5b 4a 61 bd 15 34 b1 3d 72 e2 10 bd
       0.063282534 -0.05500255 0.08652512 -0.035372205
000230 a0 14 44 3c 74 c5 b2 3d f6 16 11 3d d7 f5 4c 3d
       0.011967808 0.087290674 0.035422288 0.05003914
000240 9a b1 82 3d ef 3c 39 bd 6d dc 03 3d 56 54 9e 3d
       0.06381531 -0.045224126 0.032192636 0.077309296
000250 28 3c e6 3c 0b c4 14 3d 30 99 87 3d 23 c1 33 bc
       0.028104857 0.036319774 0.06621015 -0.01097134
000260 d9 d8 9b 3d c9 c9 a9 3d 9b 3a af 3d 87 8e 78 bd
       0.0760972 0.082904406 0.085561 -0.0606828
000270 ed cb 9b bd b9 08 4b 3c fb 1a e3 bc 9d ef 47 3c
       -0.07607255 0.012392216 -0.027722826 0.012203124
000280 20 4f 4b bc 57 68 8a 3d 53 3d 08 bd ec 7d 86 3d
       -0.012409002 0.067581825 -0.03326161 0.065669864
000290 41 40 25 3b ac 2e 56 bd d2 7b 88 3d bf 37 0c bd
       0.00252153 -0.052290604 0.06664242 -0.03423285
0002a0 11 0d 95 bd 41 92 cb 3c 24 e2 9e 3d eb 3d 74 bd
       -0.07277883 0.024850013 0.07757977 -0.059629362
0002b0 3a 0b 00 bd 49 9e a0 bd 11 ef 7b bd 86 cb 01 3c
       -0.031260706 -0.078426905 -0.06150729 0.007922059
0002c0 46 2b fb bc 3e f5 1e bd 98 00 31 3c 30 00 e1 3c
       -0.030660283 -0.0388081 0.010803364 0.02746591
0002d0 bb 37 26 bd fc 8f a2 3d 54 d9 b0 bc 6b 4b 7c 3d
       -0.040580492 0.07937619 -0.021588005 0.06159536
0002e0 b5 bd 32 bd 51 41 cf 3b 4f b3 a6 3a b0 f9 fa bc
       -0.04363795 0.006324925 0.0012718233 -0.030636638
0002f0 c6 aa c0 3c 61 40 07 3d 18 42 22 3d 48 f7 60 bd
       0.023518931 0.03302038 0.039613813 -0.054923326
000300 ac 3f af 3d 38 0c 39 3c 92 e6 5f 3d 7e 5f 9d 3d
       0.08557066 0.011294417 0.05466325 0.07684229
000310 b7 34 58 3d bb 74 43 bd 62 52 64 bd 52 61 6f 3c
       0.052784648 -0.047718745 -0.05574263 0.014610605
000320 c7 5a 26 3d af 56 d7 3c 52 04 6e bc a1 58 a9 bc
       0.040613916 0.026286451 -0.014527397 -0.020672144
000330 ae 48 13 bd 2e e0 0a 3d a3 e9 ab 3d 46 6f b2 3c
       -0.035957985 0.0339052 0.08394172 0.021781575
000340 56 9a 2d 3d f9 f2 b4 3d ed 2e 2a 3c b3 22 4d 3a
       0.042383514 0.08835406 0.010387165 0.00078253
000350 f6 54 85 3d 52 32 e2 3c 30 cb 34 bc 94 de b2 bc
       0.06510346 0.027611885 -0.011034772 -0.02183465
000360 71 ee a6 bc 79 28 ad bd cc 20 9c bd 81 cc 3a bd
       -0.02037737 -0.08454985 -0.07623443 -0.045605186
000370 6a 54 de 3c fc c7 8a 3c 67 57 d9 ba ec 08 27 3d
       0.027139861 0.016941063 -0.0016581834 0.040779993
000380 1e 6a de 3c 05 1c 0b 3a b7 12 f0 bc 1d 30 93 3d
       0.02715021 0.00053066044 -0.029305799 0.07186911
000390 6e 17 b8 3b d4 66 0b 3d 14 f5 9c 3d b5 02 b3 3b
       0.0056180274 0.03403361 0.076639324 0.005462969
0003a0 73 6a a7 3d 57 a4 9e 3d f5 40 45 3d b9 3a 22 bd
       0.081746005 0.07746189 0.04815765 -0.039606784
0003b0 be 9d 7e 3d 71 60 a1 bd d3 ad 96 3d 5a e8 ab 3d
       0.062162153 -0.07879723 0.07357373 0.08393927
0003c0 97 1c cf 3c 9a 2d 54 bc 4c 46 b4 3b c3 a2 64 ba
       0.025282187 -0.012950325 0.005501544 -0.0008721763
0003d0 76 42 89 3d ca 03 4c bd 0e af 0d 3d 31 88 51 bc
       0.067021295 -0.0498083 0.034590773 -0.012788818
0003e0 c2 98 0f 3d ce 9b 85 bd e9 3f 62 3c 68 c4 b8 3c
       0.03505779 -0.06523858 0.013809183 0.022554591
0003f0 ab 5f 8f bd a1 a7 bd 3c d6 7c c4 bc bd eb 95 3d
       -0.07000669 0.02315122 -0.023985308 0.07320354

fc.2.bias f4 [2]
000000 2b fb 15 3d a5 ea 36 3c
       0.036616486 0.011164342
